model/d_all_model_66.25.pth (torch, 248809 bytes, 17 tensors)

conv1.weight f4 [16, 1, 1, 51]
00000000: d178 6e3c 1548 ee3d 863d f9bd 50d7 cabc
00000010: 1203 983c f60f 7f3d e8bd 0bbe 83d4 c03c
00000020: 3e9a 99bd d8da ca3d 0ff8 903c 00f8 dbbc
00000030: 8d2f fcbd cd48 683d bbe9 5d3d 29cb 933d
00000040: 8a78 21bd 0054 adbd d68d 9b3d 5b23 68bd
00000050: 120a 773d 4cb6 283b 4e56 cfbc 2443 6e3c
00000060: e2d7 8cbd c73d 37bd b964 05be aef7 0d3c
00000070: d186 6abd 7826 cf3c 27a2 343d ea9d f73b
00000080: 096e ccbd 0c9b 44bd 0b62 f5bc 5a69 4abc
00000090: 77d8 8fbd cb0a f43d 0693 ccbc 9ba3 83bd
000000a0: 608d babb 0c61 4ebb 79b7 f3bd faf5 073e
000000b0: c820 f63d b0e5 4b3d 9ff9 823d a3b0 46bd
000000c0: dab1 fc3b 4c2f 673d 0d7f 0c3e f89f debd
000000d0: ce16 9e3d 9979 a3bc a1d7 0e3e e95b c03c
000000e0: a796 a4bd 7def 9e3d 4cab 393d 4e19 b4bc
000000f0: dde7 81bd c664 8c3d 41e5 16bd 9ff7 ea3d
00000100: c77f c43d 680c 763d cc24 a4bd 6698 54bd
00000110: 48e5 423d b08d d6bd 8650 d1bc 8698 bbbd
00000120: 7e6e f0bd 30d9 783d 92ab ee3d 3482 e33d
00000130: 7115 9a3d d35a 93bc 9699 813d d1fb d13d
00000140: 0fb3 f13d 49da 6cbc df02 fb3d fd67 103e
00000150: c43d 383b e92b 103c ab43 58bd c125 aabc
00000160: 2b06 9e3c cc97 bd3b 99dc 473d 5f14 c03d
00000170: 9166 9c3d 8152 62bd 872a 99bd 48cf 323c
00000180: 10a3 efbc 3512 ee3d 76f3 3d3d 343b ed3b
00000190: 16d1 223d 85dc 16bc 2208 fbbc a3dd 9d3d
000001a0: cba1 2dbd 294b 9cbc 4168 fb3d 72d5 8b3a
000001b0: e767 433d 2eeb 34bd 171f 0dbe 3490 35bd
000001c0: 03b3 713c 0eb0 2d3d b909 c5bc a7d4 fbbd
000001d0: 6fd0 76bd 9181 07be 98d0 043e 84ba 80bd
000001e0: b959 083e 1bbf 8abc eb60 5a3d a916 d83c
000001f0: d6f2 f1bc 5e91 e83d 3d53 f2bd 684c 4f3c
00000200: 92e8 043e 76fe 10bd 15a3 f7bd 6cac 723d
00000210: a722 103e c4f5 d0bd 9f80 363d e09c 023e
00000220: 281d d0bc da87 06bd bedb 883d e34e 03bd
00000230: 2668 abbd 3a7c 093e 4f5e a93d 6347 c03d
00000240: 473d ebbd f35a f23c fc4e 03be 7d8d 843d
00000250: 6b33 95bc dd33 4bbd 8c75 8439 1475 c5bd
00000260: 0696 de3d 9faf a73d c814 113e fa23 b4bd
00000270: 41be afbd 7183 d6bd d64e fabd 1483 593d
00000280: cc60 dfbd 2660 ca3d 4be1 573c e230 e83c
00000290: d043 053e a4f8 023e 7439 c1bd 73f0 d43c
000002a0: 3af6 043e fbbb dc3d 7079 093e a855 e43d
000002b0: 77f4 993c 55ef 18bd 01b8 33bc fbb5 09be
000002c0: c864 0e3e c436 5ebd 5a46 573d 0b88 5b3d
000002d0: dc10 fb3d c3c5 023e bc14 eb3c e37b f2bc
000002e0: ee40 403c 53ec cb3d a8f1 ef3d 16ed fbbc
000002f0: aa50 90bb 893e 7f3d e398 843b af48 9bbd
00000300: 13c4 b2bd fcd8 fa3d 278a 333d 40fe ddbd
00000310: f670 8d3d a18c 993d f559 6abd cc5e 07be
00000320: fd91 44bd 6e49 c63d 4acd 19bd 6e4a fe3d
00000330: e2a2 ad3d ce46 9a3d 4e04 aebd 037d 03be
00000340: 1904 5bbd 3103 533d 5929 b4bd 330a f6bb
00000350: 0dc7 efbd e3ac 46bd 0183 753d e284 c43d
00000360: a4e7 8ebd 2c0b dabd 4a94 aebd f659 a53d
00000370: 11f2 f83d 4afc f0bd b7f3 6f3d a76d 92bc
00000380: 8b6c e33c d3e6 06bd 66ee bbbd 0348 b43d
00000390: ca11 b73d 07e2 f8bd 9e68 d23c 4cd7 bf3c
000003a0: efb4 dd3d acc1 fcbd d80c bebd 6958 05be
000003b0: 8f54 723d 83dc d2bd 8873 dcbd 3552 b4bd
000003c0: e3a4 a9bc 85e9 cbbd f69c 83bc 0ec0 b3bd
000003d0: 51a1 e5bd 3127 7f3c e94f 0bbe bff6 a23d
000003e0: b902 b43d 65ad 023e 3fed 76bc bac1 223d
000003f0: 917d 47bc 807c a9bd 83fb 143d 4410 cd3d
0.014555172 0.11634842 -0.12169938 -0.024760872 0.018556152 0.06227108 -0.13646662 0.023538833
-0.075001225 0.099050224 0.017696409 -0.026851654 -0.12313757 0.056710053 0.05417798 0.07216484
-0.039421596 -0.08463287 0.075954124 -0.056674343 0.06031234 0.0025743423 -0.025309708 0.014542375
-0.06877114 -0.04473665 -0.13026704 0.0086650085 -0.057257477 0.025286898 0.044099953 0.0075566666
-0.09981925 -0.047999427 -0.029953977 -0.012354219 -0.07023709 0.11916121 -0.02497245 -0.0642769
-0.0056931227 -0.003149095 -0.11900229 0.13277426 0.12017971 0.049779594 0.06395268 -0.048508298
0.0077116312 0.05644159 0.13720341 -0.10870355 0.077191934 -0.019955443 0.13949443 0.023481326
-0.08036547 0.077605225 0.045329377 -0.021984722 -0.063430525 0.068551585 -0.036839727 0.11473011
0.09594684 0.060070425 -0.08014831 -0.05190315 0.04758194 -0.104762435 -0.025551092 -0.09159951
-0.11739825 0.060754 0.11653818 0.11108819 0.07523621 -0.017987644 0.06328122 0.10253108
0.11801731 -0.01445634 0.12256407 0.14102168 0.0028112987 0.0087995315 -0.05279891 -0.020769956
0.01929005 0.005785918 0.048794363 0.093788855 0.076367505 -0.055254463 -0.074788146 0.0109136775
-0.029252559 0.116245665 0.04637476 0.0072397236 0.03975018 -0.009207849 -0.030643526 0.077082895
-0.042390626 -0.019078808 0.12275744 0.001066847 0.04770651 -0.044169597 -0.13781391 -0.044326976
0.014752152 0.042404227 -0.024052488 -0.122964196 -0.06025737 -0.1323302 0.12970197 -0.06285575
0.13315476 -0.01693683 0.053315084 0.026377993 -0.029534739 0.113558516 -0.11832283 0.012652494
0.12979344 -0.035398923 -0.12091652 0.059246466 0.14075719 -0.10203126 0.044556256 0.12755156
-0.025404528 -0.032844402 0.066825375 -0.032057654 -0.08369474 0.13426295 0.08269941 0.09388616
-0.11486297 0.029584384 -0.12823099 0.06472299 -0.018212995 -0.049610008 0.0002526458 -0.096414715
0.108684584 0.08187794 0.14168084 -0.087959245 -0.0858121 -0.10474289 -0.12222068 0.05310352
-0.109071344 0.0988162 0.013176273 0.028343622 0.1301415 0.12790161 -0.094347864 0.025993561
0.12984553 0.10778042 0.13425231 0.1114915 0.018793328 -0.03733762 -0.010969163 -0.13448326
0.13905632 -0.054251447 0.052557327 0.053596538 0.12259075 0.12770753 0.02869641 -0.02960009
0.01173423 0.09957185 0.11716014 -0.0307527 -0.004404147 0.062315498 0.004046546 -0.07582223
-0.087288044 0.12248418 0.043832924 -0.1083951 0.06906311 0.07497526 -0.057214696 -0.13219756
-0.047990788 0.09681974 -0.037549295 0.1241654 0.08478333 0.07533036 -0.08496915 -0.12840657
-0.053470705 0.051516715 -0.08796949 -0.00750854 -0.11707888 -0.04850472 0.05993939 0.09595658
-0.06977776 -0.10646662 -0.08524378 0.08073799 0.121555455 -0.1176687 0.058582034 -0.017874552
0.027761718 -0.032934975 -0.0917633 0.08802798 0.0893894 -0.12152486 0.025684651 0.023418091
0.10825526 -0.123416275 -0.092797935 -0.13022007 0.059162673 -0.102959655 -0.10764223 -0.08804742
-0.020708507 -0.0995665 -0.016066056 -0.08776866 -0.11212409 0.015573309 -0.13604702 0.07957219
0.08789582 0.12761457 -0.015071212 0.039735533 -0.012175933 -0.082756996 0.036372673 0.10012868

batchnorm1.weight f4 [16]
00000000: 3479 7f3f 017a 803f 353a 7f3f 97ae 7f3f
00000010: 2985 803f b099 803f 8b47 7f3f fc93 7f3f
00000020: 968f 7f3f bed6 7e3f 0725 803f 486f 7f3f
00000030: 7da7 7f3f d4da 7e3f 327e 803f 7c6c 7f3f
0.99794316 1.0037233 0.9969819 0.9987578 1.0040637 1.0046902 0.9971854 0.9983518
0.9982847 0.9954642 1.00113 0.99779177 0.9986494 0.99552655 1.0038512 0.9977491

batchnorm1.bias f4 [16]
00000000: 05ad 40b8 feda 93b8 f101 b7b8 e075 d937
00000010: 4f5c 8c37 0b1a 82b8 482c 79b8 da32 dcb8
00000020: 2fc1 b038 48c0 8837 f49c b237 e874 9db8
00000030: 61ca 7eb7 b758 e438 dc22 bfb6 308f 6cb8
-4.5937504e-05 -7.050297e-05 -8.7264816e-05 2.5923306e-05 1.6732285e-05 -6.203734e-05 -5.9407466e-05 -0.00010499889
8.428317e-05 1.6302001e-05 2.129234e-05 -7.508119e-05 -1.51867e-05 0.000108884116 -5.6963017e-06 -5.640014e-05

batchnorm1.running_mean f4 [16]
00000000: 01e0 c7b9 7100 ac38 ae9d d739 3286 a538
00000010: d890 b739 f947 25ba 8ef0 96ba 5841 a7b9
00000020: afd0 e6b9 811b 8839 de97 ef3a 0a35 983a
00000030: 2e54 9e3a d876 c33a 8c82 a23a 9dcd 00b9
-0.00038123134 8.201681e-05 0.00041125476 7.892809e-05 0.00035012397 -0.0006304975 -0.0011515783 -0.00031901407
-0.000440245 0.00025960433 0.0018279513 0.0011612487 0.0012079531 0.0014912738 0.0012398525 -0.00012283628

batchnorm1.running_var f4 [16]
00000000: 5112 1840 34e9 0d41 97c9 c83f 385d 3141
00000010: 3611 ff40 fe04 5240 5bca ee3f 1674 f33f
00000020: 0f39 3940 9001 2640 d860 9d40 baaa a240
00000030: 6127 aa40 ab0e b940 1244 4241 3c76 6d40
2.376118 8.869434 1.568652 11.0852585 7.970851 3.2815547 1.8655504 1.9019802
2.8941076 2.5938454 4.9180717 5.0833406 5.317307 5.7830405 12.141619 3.7103415

conv2.weight f4 [32, 1, 2, 1]
00000000: a88a 82be 0bd7 a3bd 0593 8bbe a845 743e
00000010: d2a8 55be 3d58 4d3e 156b b1be 6888 b63e
00000020: 3013 20be 6614 79be bb55 073f f5aa e83e
00000030: 1331 54be ad44 c2be 8cf3 213f aaaa 6cbe
00000040: 17fa b9be 1349 26bd 74cd 273f b35a 33bf
00000050: aca5 bbbd 8c7d 643e 6580 c8bc 75c2 f83e
00000060: e50d 52be 5576 f63e 5d98 af3e 063c a1bd
00000070: e3f3 b3be 82e3 a0be 618e ad3e dd57 f33e
00000080: b083 233f 023d 3bbd 611e c43e 7f22 1b3f
00000090: c213 07bf 5e51 31bf 6e9f 2ebf 6fed 163f
000000a0: 22f6 b4be ada8 303f a768 413e 778e 30bf
000000b0: fcc5 75be bb80 2dbe 2e24 1dbf 85f8 ee3e
000000c0: 2ff3 30bf 2727 183f e2e2 b1be 4e0c 243e
000000d0: 30df fa3e a2e1 153f 416f e33e a434 013e
000000e0: 67ac 08bf 67a1 a53e 99e2 42be aa73 a6be
000000f0: a4de e6be 713f 033f 6617 0b3f c01c 1ebf
-0.2549641 -0.080000006 -0.27260605 0.23854697 -0.20865181 0.20053191 -0.3465201 0.35650945
-0.1563232 -0.24324188 0.5286519 0.4544293 -0.20721845 -0.3794302 0.6326225 -0.23111978
-0.36323616 -0.040597033 0.6554787 -0.7006027 -0.09162459 0.22313517 -0.024475286 0.4858586
-0.20513113 0.48137155 0.3429593 -0.07872777 -0.35147008 -0.31423575 0.3389769 0.47527972
0.63872814 -0.04571248 0.38304427 0.6059951 -0.52764523 -0.6926478 -0.6821202 0.58956045
-0.35344034 0.6900738 0.18887578 -0.68967384 -0.24001306 -0.16943638 -0.6138333 0.4667398
-0.6912107 0.5943474 -0.3474341 0.16020319 0.48998404 0.58547413 0.44420817 0.12617737
-0.53388065 0.32349703 -0.19031753 -0.3251012 -0.45091736 0.5126868 0.5433258 -0.6176262

batchnorm2.weight f4 [32]
00000000: b015 803f a64b 7f3f 9e6b 803f c443 803f
00000010: 1e72 7f3f 9b64 7e3f f598 7f3f 10f9 7f3f
00000020: bd5f 803f c376 803f 8292 803f 8378 803f
00000030: 4a1a 803f b518 7f3f 197b 7f3f cade 7f3f
00000040: e860 7f3f ca22 803f a1c9 7f3f 85ce 7e3f
00000050: 7ca4 7f3f fd60 803f df6c 7f3f 71e6 7f3f
00000060: 38b3 7f3f 37b2 7f3f be0c 803f e5ba 7e3f
00000070: 033e 803f 737f 803f f928 7f3f 4518 803f
1.0006618 0.99724805 1.0032842 1.002068 0.99783504 0.9937226 0.9984277 0.99989414
1.0029217 1.0036243 1.0044711 1.0036777 1.0008023 0.99647075 0.9979721 0.99949324
0.9975724 1.0010617 0.99917036 0.99533874 0.9986036 1.0029598 0.997755 0.99961
0.9988284 0.9988131 1.0003889 0.9950393 1.0018924 1.0038894 0.99671894 1.0007406

batchnorm2.bias f4 [32]
00000000: e848 24bb 0315 c0ba 9f1c 3f3b 418b 5ebb
00000010: 95de 59bb b9da dbbb fbc5 d13a 2232 933b
00000020: 8765 3c3b c40d 5e3b 9242 8c3b 5d97 693b
00000030: 39b4 7fba 1b16 98bb 53af 1dbb fa41 93b9
00000040: 1d45 66bb e036 fb3a 72ae b9ba 5419 b5bb
00000050: cba5 83ba 0a4d 123b 6190 49bb efa7 b0b9
00000060: 7933 daba d7b9 0ebb 52dc 6d39 1a95 b7bb
00000070: ec90 ecb9 6690 bb3a aeb2 20bb b1cd 4dbb
-0.002506787 -0.00146547 0.0029161347 -0.0033957514 -0.0033244241 -0.0067094234 0.0016004437 0.0044920603
0.0028747038 0.0033882717 0.0042803967 0.0035643198 -0.00097543333 -0.004641307 -0.00240608 -0.0002808718
-0.003513641 0.0019166134 -0.0014166369 -0.005526701 -0.0010043917 0.002232375 -0.0030756223 -0.00033694456
-0.001664742 -0.002177825 0.00022684157 -0.005602491 -0.00045121403 0.0014310002 -0.0024520564 -0.003140312

batchnorm2.running_mean f4 [32]
00000000: bc0a 2537 b583 4db7 4904 5938 3eec b038
00000010: 9f09 0738 bdf2 bab8 6a51 0238 5d4d 08b9
00000020: 50ce d2b8 2b28 2739 cd7a 1637 9b46 25b8
00000030: 2f56 1037 ae3b d8b8 dfb0 3339 ec31 44b9
00000040: 8fc9 3eb8 2ff4 4f37 06a9 5cb8 06db 85b7
00000050: d767 fa37 69d0 3bb8 ae89 1b38 c716 9938
00000060: 3ce9 1538 14e5 5737 5b38 9439 110c 4a39
00000070: 82d6 13b9 c705 85b8 380a acb8 f747 cf38
9.837266e-06 -1.2249618e-05 5.1740823e-05 8.4363375e-05 3.219547e-05 -8.914385e-05 3.1070238e-05 -0.00012998791
-0.00010052009 0.00015941325 8.9692885e-06 -3.9404822e-05 8.603135e-06 -0.00010310799 0.0001713666 -0.00018710614
-4.5487246e-05 1.2395015e-05 -5.2609503e-05 -1.5956826e-05 2.9850677e-05 -4.477837e-05 3.7083104e-05 7.299851e-05
3.5741585e-05 1.2868335e-05 0.00028270748 0.00019268716 -0.00014098923 -6.34301e-05 -8.2035025e-05 9.883934e-05

batchnorm2.running_var f4 [32]
00000000: 1006 c73d 1172 593d d121 103d 36d2 d43d
00000010: df8a 063e 2e0f 493f 1dc4 913e 96c5 903e
00000020: c8d1 1d3e 1220 c53e 85ca 0f3d 89a2 6b3e
00000030: ec53 213e c08a bb3d efe1 b63e 77fb 093f
00000040: c599 bf3e 9eef 4e3f 6fc5 9a3f a0e0 a73e
00000050: 7c92 a23e e5fe ba3e f320 0c3e 22c8 813e
00000060: e232 ad3e 0303 a33d ee96 6f3f f166 903e
00000070: 3926 413e 661d 623e 12b7 453e ef7c 8f3e
0.09717953 0.053087298 0.0351885 0.10391657 0.13138913 0.7853879 0.28469935 0.28275746
0.15412056 0.3850103 0.035105247 0.23011221 0.1575467 0.09157324 0.3571925 0.5389933
0.37422004 0.80834377 1.2091502 0.32788563 0.31752384 0.36522594 0.13684444 0.25348002
0.33827883 0.07959559 0.93589675 0.28203538 0.18862237 0.22081527 0.19308117 0.28025004

conv3.weight f4 [32, 32, 1, 15]
00000000: a5dd 2abc 3496 1cbd 445f ef3c e988 193d
00000010: 5440 2abd 9664 13bd a719 1d3c 99e9 9ebc
00000020: 9c23 9fbc f786 afbc 12f5 ac39 4768 22bd
00000030: e499 f6bc a9e2 893c 57ee 863c 7bcc 2d3d
00000040: 5003 033d 405f 1fbd e5ce c6bc 5db3 473b
00000050: 0c03 03bd 2a6c 07bd 3fcf 0cbd d11d 9c3c
00000060: dc02 20bc f792 42bd 8ab9 1abb 2104 103c
00000070: 6cc4 73bb 19ee a3bc d721 b3bc 03c2 203d
00000080: 728d 1fbd f82c 043d a507 f33c e172 a23c
00000090: dc28 18bd c298 1f3d 5ab6 0fbc 5edf 9f3b
000000a0: 5062 c53c 18a5 33bd 0396 f43b 8935 56bc
000000b0: 861a 3cbd 4af5 c8bb f697 67bc 4539 93ba
000000c0: 2cbc 31bd e402 88bc d9f7 ac3c f1ce 2ebd
000000d0: 16bf cf3c 8750 0ebc 2cc5 173c c2f6 7139
000000e0: 5f5d 6cbc 732a 3dbd f0b8 18bd 9d78 6f3c
000000f0: 06c4 cd3c 21e9 213d b313 573c 54ec e83c
00000100: 1ffa 0c3d 8797 0bbd 2b05 a7bc e65a 31bc
00000110: cf74 22bd 3c3c f03c 9c60 2abd f64f 2e3d
00000120: 141c c8bb 088b d8bc 925c 453b 9d36 abbb
00000130: b639 37bd 788e 093d c5e5 22bd f33c f0bc
00000140: 1188 f73c b8c5 febc 68f6 3bbd b23e 1abd
00000150: 8619 31bd a015 53bb 3513 43bc fbaf 8d3c
00000160: e278 8abb 38de 1d3d ca7f 843c a3b3 4dbc
00000170: ed91 1ebd a649 3e3d 4e37 c6bc 29cc 163d
00000180: 1dc2 b53b c57d 2ebd aa02 0b3d 54e8 993c
00000190: 800c 353c c6ad f1bc d7b8 29bc 019c 2bbd
000001a0: 892d 34bc 3258 243d d1a6 a6bc 4816 1e3d
000001b0: ae1e eabc 53b5 22bc d7be 563c 9f18 a8bc
000001c0: d5cf 083d 1d9e 833b 8d02 85b9 dfe5 0fbd
000001d0: 5001 34bd 31a8 e63c 5adf 123d 25da 21bb
000001e0: 7608 96bc e88c 10bc e6ec 14bd 5aac dfba
000001f0: eda0 053d fbe1 8dbc e5d1 a8bb ae76 dd3c
00000200: 034e e0bc d152 203b 049f 043c 2c51 0b3c
00000210: 7ac7 d2bc 8e6a 843c 1e6b 663a a2eb 02bc
00000220: d3c2 36bd ea01 2e3d d35a da3c 57fd 2c3d
00000230: 56a3 f4bb 4046 d0bb cc51 18bd 4027 aebc
00000240: 7c22 7e3c d510 3abd 6656 e0bc 732c 21bd
00000250: 54ec 9dbc 41a0 62bc 2002 c6bc 9ded 2abd
00000260: de8f 47bb 8253 ffbc 3d53 edbc d0fd 073c
00000270: 53c1 903c 340d 1ebc 3dbd 2c3d 255d 66bc
00000280: 027e 31bd 7bf0 fdbc 42cd 22bd 7484 f3bc
00000290: cc0f 81bc 7bc5 d0bc edd5 b53c 7b58 173c
000002a0: a51c e33c 83b7 6f3c aaa8 f5bc be26 c03c
000002b0: ff18 2b3d 9e57 12bd 4716 37bd ae30 47ba
000002c0: 2037 10bc aa27 6d3c f80c 07bd 6513 b63c
000002d0: 7d6c 4c3c 99cc cebc b259 bb3c 7cf5 76bc
000002e0: efb0 173d 01b0 21bd db69 af3c 7c9b 5bbc
000002f0: e2b8 503c 1061 00bd c593 063c 6b2f 323c
00000300: 4d51 21bd aae0 09bd 736a 243d b6c2 bf3c
00000310: 87af 2ebd 100c 1cbc 00bc 94bc 25e2 fd3c
00000320: 59a8 f1bc 86b1 9fbc 7698 843c f2a4 723c
00000330: 748e fabc b026 28bd 1ffe f5bc 00ab cabc
00000340: c967 fb3b c5db bc3c 6e81 6a3c 2692 31bc
00000350: 6d07 413d b9bf 153c 502b 2aba c606 dcbc
00000360: 606f 96bc e81d 713b c22d e2bc 15a1 03bd
00000370: f081 623c b4ad 063d 4d97 2b3d 1da4 843c
00000380: faed afbc 4993 073c a2bd 26bd ee9e 573b
00000390: 7ad3 133d 6e0f 033d 276d 023c de7c 69bb
000003a0: 6268 153d da49 58bc b9de 3bbd f599 b53b
000003b0: db48 bbbc 78a5 803c a2b9 93bc 26ff 7d3b
000003c0: d049 a43c d1e1 093c 6d4f ae3a 6cc4 20bd
000003d0: 2767 0f3d fdb3 f53b 997f a53c ba0d e43b
000003e0: 9879 283c a3f2 1abd 1186 923b 38e6 01bd
000003f0: d78f 12bb ed8d e0bb 43ff 2a3d 728b f239
-0.010428821 -0.038229182 0.02922023 0.037484083 -0.041565254 -0.035984598 0.0095886355 -0.019398497
-0.01942616 -0.021426661 0.00032988988 -0.039650228 -0.030102678 0.016831713 0.016471071 0.042431336
0.03198558 -0.038909197 -0.024268577 0.00304719 -0.031985328 -0.033062138 -0.034377333 0.019057186
-0.009766307 -0.047503438 -0.0023609125 0.008790047 -0.0037195934 -0.020010995 -0.021866722 0.039247524
-0.038953252 0.032269448 0.029666731 0.01983017 -0.03714834 0.03896404 -0.008771503 0.0048789224
0.02409473 -0.043858618 0.007464172 -0.013074287 -0.045923732 -0.0061327564 -0.014135351 -0.0011232278
-0.043392345 -0.01660294 0.021114277 -0.042677823 0.025359672 -0.008686191 0.009263318 0.00023075475
-0.014426558 -0.04618306 -0.037285745 0.014616159 0.025117885 0.03952897 0.013127255 0.028433003
0.03441822 -0.034080055 -0.020388206 -0.0108248945 -0.03966218 0.029325597 -0.04159604 0.042556725
-0.006106863 -0.026433483 0.003011499 -0.0052250163 -0.04473277 0.033583134 -0.039769907 -0.029325938
0.030216249 -0.031100139 -0.04588929 -0.037657447 -0.04323723 -0.0032208934 -0.011906435 0.017295828
-0.004225836 0.038542002 0.016174216 -0.012555036 -0.038713384 0.046456955 -0.024196293 0.036815796
0.0055468217 -0.042600412 0.033938088 0.01878754 0.0110503435 -0.029501807 -0.010359011 -0.041896824
-0.010997185 0.040123172 -0.020343216 0.038595468 -0.028579082 -0.009930926 0.013107023 -0.020519553
0.03340133 0.0040166513 -0.00025369637 -0.03513133 -0.043946564 0.028156372 0.035857536 -0.0024696675
-0.018314581 -0.008822657 -0.036358736 -0.0017064915 0.032624174 -0.01731967 -0.0051519745 0.02703413
-0.027380949 0.0024463425 0.008094553 0.00850324 -0.025729883 0.01616409 0.00087897654 -0.00799075
-0.044619393 0.042482294 0.026654636 0.04223379 -0.00746576 -0.0063560307 -0.037187383 -0.02125895
0.015511151 -0.04542621 -0.027384948 -0.03934903 -0.01927773 -0.013832153 -0.024170935 -0.041730512
-0.0030450742 -0.03116775 -0.028970355 0.00830026 0.01767031 -0.009646703 0.04217266 -0.014060293
-0.04333306 -0.03099846 -0.03974653 -0.029726245 -0.015754603 -0.025484791 0.022196734 0.009237404
0.02772362 0.014631155 -0.029987652 0.023455974 0.041771885 -0.03572809 -0.04469898 -0.00075985014
-0.008802205 0.014474789 -0.032971352 0.022226045 0.0124770375 -0.025244044 0.022869918 -0.0150731765
0.03703397 -0.03947449 0.02141278 -0.01340377 0.012739392 -0.031342566 0.008213942 0.010875563
-0.039384175 -0.033661522 0.04014058 0.023408275 -0.042647865 -0.00952436 -0.018156052 0.030991623
-0.02949922 -0.01949383 0.01618598 0.014809834 -0.030585505 -0.04105252 -0.030028401 -0.024739742
0.0076722843 0.023054013 0.014313085 -0.010838067 0.047126222 0.0091399485 -0.00064914394 -0.026858699
-0.018363655 0.0036791507 -0.02760971 -0.03213604 0.013824925 0.0328805 0.04189234 0.016191537
-0.02147578 0.008274862 -0.04070819 0.0032901126 0.03609035 0.031997137 0.007960594 -0.0035627405
0.0364765 -0.013201201 -0.0458667 0.0055420347 -0.022861889 0.015703902 -0.018032853 0.0038756817
0.020054728 0.008415655 0.0013298817 -0.039249822 0.035010483 0.007498263 0.020202445 0.006959644
0.010282896 -0.037829053 0.0044715484 -0.031713694 -0.0022363567 -0.0068528564 0.041747343 0.00046261732

batchnorm3.weight f4 [32]
00000000: 5d94 803f 14d1 803f 30b9 803f dfd5 803f
00000010: 059d 803f 7ac0 803f fe66 803f bdca 803f
00000020: 6a53 803f a942 803f 3b4d 803f b9fa 803f
00000030: eab1 803f 599a 803f 7662 803f 7a46 803f
00000040: dcc9 803f bfd2 803f 3276 803f 929b 803f
00000050: d4b2 803f 8c9f 803f 2752 803f 3cc7 803f
00000060: 5980 803f 58d7 803f c48a 803f a6db 803f
00000070: 19af 803f c27c 803f 79ca 803f 15b0 803f
1.0045277 1.0063806 1.0056515 1.0065268 1.0047919 1.0058739 1.0031431 1.0061871
1.0025456 1.0020343 1.0023569 1.0076514 1.0054295 1.0047103 1.0030048 1.0021508
1.0061603 1.0064315 1.003607 1.0047476 1.0054574 1.004869 1.0025071 1.0060802
1.0039169 1.0065718 1.0042348 1.0067031 1.0053436 1.0038073 1.006179 1.0053736

batchnorm3.bias f4 [32]
00000000: 004e 263b 7359 9e3b 2228 8e3b 2744 853b
00000010: 3f61 6a3b cf0a 933b 5c1a cc3a 6772 2e3b
00000020: 033c 883a c60b 7e3a 1259 c03a 04ed d93b
00000030: a9b1 5e3b d8fa e33a ac3f a93a de48 853a
00000040: 4e79 973b 589c 9c3b c8fa b43a fe31 363b
00000050: 06f9 673b 5170 3f3b 585f c53a 251d 6d3b
00000060: 030a 2a3b 42ec 9d3b 2708 3a3b 0108 493b
00000070: e325 5a3b 84f1 c83a e533 953b e8dc 823b
0.0025376081 0.0048324405 0.0043382803 0.0040669623 0.003576353 0.0044873725 0.001557182 0.0026618482
0.0010393861 0.00096910854 0.0014674983 0.006650569 0.0033980405 0.0017393483 0.0012912652 0.0010168811
0.004622615 0.00477938 0.0013807649 0.0027800794 0.0035396232 0.0029211233 0.0015058322 0.0036180702
0.002594591 0.004819424 0.0028386207 0.0030674937 0.0033286742 0.0015330766 0.0045533055 0.0039936192

batchnorm3.running_mean f4 [32]
00000000: f64a 04bf 671f c6be 5890 71be 52d6 fa3d
00000010: d495 943d 32bb 4abe 8697 7dbe 28b0 553e
00000020: 0fc6 a3bd 11b7 7cbe e512 c6be cfcc f53e
00000030: ca9f 1a3e eae3 513e 6c77 4b3e 0239 d93d
00000040: 0c77 bdbd 7ae9 ae3e 966b 1bbd bd80 7d3e
00000050: cd38 353e f3b3 423d a726 943e 5c7d b3be
00000060: e895 2bbe dbb4 473c cb1d f53d 851c 383e
00000070: 5f1f c33e 6968 fd3e a3da a83e 4371 c8be
-0.5167688 -0.38695833 -0.23590219 0.122479096 0.0725514 -0.19797972 -0.24764833 0.2086798
-0.07996761 -0.2467921 -0.3868629 0.4800782 0.15100017 0.20497099 0.19869775 0.106065765
-0.09251222 0.34162503 -0.0379444 0.24756141 0.17697449 0.047534894 0.2893574 -0.3505658
-0.16756403 0.012189115 0.11968573 0.1797963 0.38109872 0.4949372 0.32979307 -0.39148912

batchnorm3.running_var f4 [32]
00000000: 3575 933e 74a9 8d3e 9f5e 693e d507 813e
00000010: 07d6 4a3e b216 793e fa31 2c3e c360 343e
00000020: 09d6 173e 297d 893e f073 313e f800 a33e
00000030: 4f86 2c3e d0df 3d3e 2d77 223e fdc7 f43d
00000040: 9344 863e 2aca 803e 8f6a 183e 8cc9 2b3e
00000050: aa7d 683e ae1e 603e 5754 2e3e 40a2 333e
00000060: b80b 233e 813f 473e 7eff 783e 555e 693e
00000070: e28b 483e f30a 733e ba64 983e ea94 963e
0.2880036 0.27668345 0.22790001 0.25201288 0.19808207 0.24325064 0.1681594 0.17615037
0.14827742 0.26853302 0.17329383 0.31836677 0.1684811 0.18542409 0.15865774 0.11952207
0.26224193 0.2515424 0.14884399 0.16776103 0.22704187 0.21886703 0.1702436 0.17542362
0.15922439 0.19457819 0.24316213 0.22789891 0.19584611 0.23734646 0.29764348 0.29410487

fc1.weight f4 [2, 22080]
00000000: ccb1 613b fb12 3a3b 6f3b e63b 7d32 be3b
00000010: b747 5f3b 38de 9bbb a7f8 8bbb 6a2a c33a
00000020: b662 a839 8ace d0ba 8762 633b 3e4a 2cbb
00000030: 5d11 9bbb e338 5fbb 7f3c 54bb fd6d 1a3b
00000040: 58f0 b5bb d33a be3b 2452 443b ddf5 0d3b
00000050: 62f1 adbb 4ebb d8bb d669 8e3b 1ada 903b
00000060: dbe1 bcbb 66bc ebbb e01b c83a 023b 5cba
00000070: b7e6 463b cdcf abbb a03a b5bb d61a cd3b
00000080: 6519 8abb 42c3 d6bb c8a7 0fbb 96b7 b13b
00000090: 96b7 92ba f052 55b9 19f7 623b 49ac cc3a
000000a0: eddb 543b 4326 76ba 644b 96bb 142e fbbb
000000b0: f16f 113a 5312 843b 3150 fa3a 458e 5fbb
000000c0: d49d 8c3b 5839 443b 0a58 8ebb 2ea4 3cba
000000d0: 7278 ed3b 7cb7 67bb 61d1 f23b 6561 583b
000000e0: e16d af3b 852b 8b3b cc42 583b 60cc 3bba
000000f0: eca7 dabb d31a d4bb 0bbe bdbb a596 773a
00000100: 85aa 1b3b dd96 77b8 6450 aa3a ba18 573b
00000110: 10f6 b13b 421d a6bb 6b5f a1bb 9652 d53b
00000120: ebf6 5b3a d289 543b d91d b7bb 7c0d 94ba
00000130: 58fe b1ba c320 013a 9c2e 8ebb f175 84bb
00000140: d22e b3ba e566 09ba b824 f23b e40f 853b
00000150: 1215 a63a 6ec1 b9ba 5d7f 8aba 5eee 70bb
00000160: 59a8 adbb 7fde 08bb 68ec 0f3b b533 e4bb
00000170: f02c fb38 f56d 6ebb df91 613b 989a 93bb
00000180: 162d b13b 92b5 a0bb 77e0 b33b e6b1 23bb
00000190: a9a2 1938 5018 13bb 4089 95bb c46a 18bc
000001a0: 4218 dcbb 970b d13a 660d 833b 657e 6dba
000001b0: 9d85 353a 68ca 7d3b 117b 0d3b 863c 4a3b
000001c0: fedc 573a b2b1 debb 6475 96bb 0ddb 1dbb
000001d0: 8e75 96bb ae4e c4bb 775d 08bb 0b86 81bb
000001e0: ef0c 0d3b 5b7f 63bb e97a de3b e7b7 933b
000001f0: b8aa f8bb 0058 a43b 87c8 aabb 9da7 4d3b
00000200: d13b 093b 6173 0dba 203e 88bb 04b3 d5ba
00000210: 3963 dc3b b42f 99bb f0be 213b fffe 83bb
00000220: 9b50 8db9 9a9b 2cbb a05c 4cba a2c5 083b
00000230: 5966 c83a 6076 853b 9583 90bb dfef e43a
00000240: 4239 b43b 8576 8e3b 4d4b b23a 49ca c5bb
00000250: d7d6 b43a 6bde d33b dc70 503b d9fa deba
00000260: d413 133b 6034 bc3b 6e22 e43a 1d19 5abb
00000270: 17f2 f6ba 4d3b adbb 776f 8abb c489 50bb
00000280: 9b30 833b 1bf2 bcbb aa07 cbba 6ed0 6fbb
00000290: 8cd3 c4bb 37e0 e838 b126 58ba d4af d33a
000002a0: 0b34 c13b 17aa 803a 7289 b03a 1350 e7ba
000002b0: 77a2 e8ba 5161 753b 4ad3 0d3b acf2 f73b
000002c0: 792b b2bb 4f9a c93b 11e5 cf3a cd8e 9cbb
000002d0: 0aba a639 f251 9cba 2a85 05bc da9b 1b3b
000002e0: c558 e8ba 434f bdbb 8b51 aabb 8e74 833b
000002f0: f3ae b0bb 3777 e2bb fa3f 08bb 5faa cf39
00000300: 7963 8fbb 7ff4 b5bb 20ba 8a3b bbfb 08bb
00000310: 81a6 bfbb 11ba 973b 4c2b 7a3a fb9f 02bb
00000320: 9a38 87bb 8b3f 32bb 9bac ec3b 0395 843b
00000330: 13af a93b 6260 0b3b b586 7c3b dd2d f4ba
00000340: 38ac bebb 1016 4a3b 1b8c 613a 048e 153b
00000350: 9881 72bb 3f47 c4bb cb40 a9bb c58d daba
00000360: e8c2 c5ba 91be 593a 5aef c0bb 93fb 0a3b
00000370: 1fb1 f53b a962 8d3b c1dd 00ba 0404 5d3b
00000380: 9806 ae3b a53c 3ab9 b09b dbbb 4ba3 6f3b
00000390: 3b6e cc3a 52d3 c0bb f1c4 20ba 8a0b a7bb
000003a0: e453 ba3b fb37 8bbb cbce 143b 0076 b43b
000003b0: 700a babb 9d19 31ba 6076 20bb 309d 57bb
000003c0: 569b 5038 7764 a9bb 2b50 fa3a 687e c13a
000003d0: c450 153c 6e92 33bb 25ed 463b feef ffba
000003e0: 67d7 973a 482d 393b 7ba6 88bb 7372 30bb
000003f0: 44a5 bdbb 2c25 323a 3452 c63a 9ca4 683b
0.003443825 0.002839266 0.007026128 0.0058043585 0.0034069845 -0.004756715 -0.004271585 0.001488996
0.00032117002 -0.0015930694 0.0034696178 -0.002628937 -0.0047322945 -0.0034061007 -0.0032384691 0.0023564093
-0.005552333 0.0058053522 0.0029956186 0.0021661439 -0.005308316 -0.0066141253 0.0043461127 0.004420531
-0.0057642288 -0.0071940897 0.0015267096 -0.0008401127 0.003034992 -0.0052432776 -0.0055306703 0.0062593026
-0.004214453 -0.0065540383 -0.0021920074 0.0054234965 -0.0011193629 -0.0002034416 0.0034632145 0.001561531
0.0032479719 -0.0009389857 -0.004586624 -0.007665405 0.00055479916 0.0040305047 0.0019097385 -0.00341119
0.0042912755 0.0029941406 -0.004343991 -0.00071960955 0.007247024 -0.0035357168 0.007410214 0.0033017036
0.0053536748 0.0042471313 0.0032998798 -0.0007163938 -0.00667285 -0.0064729243 -0.005790477 0.000944475
0.002375276 -5.902989e-05 0.0012993929 0.0032821135 0.0054309443 -0.005069406 -0.004924705 0.006510089
0.00083909807 0.003243078 -0.005588275 -0.0011295523 -0.0013579829 0.00049258413 -0.0043390524 -0.00404238
-0.001367057 -0.0005241468 0.007389631 0.004060732 0.0012671074 -0.0014172026 -0.0010566522 -0.0036763172
-0.0052996096 -0.002088457 0.0021960977 -0.006964172 0.00011976983 -0.0036381457 0.0034419221 -0.004504513
0.005406986 -0.0049044574 0.005489405 -0.0024977862 3.662953e-05 -0.0022444911 -0.0045634806 -0.009302799
-0.006716759 0.0015948889 0.0039994 -0.0009059667 0.0006924512 0.003872538 0.0021588246 0.0030858829
0.00082345295 -0.0067960853 -0.004591631 -0.0024086863 -0.0045916503 -0.0059908247 -0.0020807663 -0.0039527467
0.0021522602 -0.003471336 0.0067895544 0.004508007 -0.0075887106 0.005015373 -0.005211893 0.0031380423
0.0020940194 -0.0005395916 -0.0041577965 -0.0016303961 0.0067256954 -0.004674876 0.0024680458 -0.0040282006
-0.00026953671 -0.0026337863 -0.00077957846 0.0020869751 0.0015289291 0.0040729493 -0.004410217 0.0017466507
0.0054999897 0.0043476247 0.0013602764 -0.006036077 0.0013796937 0.0064657233 0.003180555 -0.0017012014
0.0022442238 0.0057435483 0.001740528 -0.003327913 -0.0018840459 -0.00528661 -0.0042247134 -0.0031820396
0.004003597 -0.005766166 -0.0015489955 -0.003659274 -0.0060066637 0.00011104385 -0.00082455116 0.0016150423
0.0058960966 0.0009816316 0.0013468696 -0.0017647765 -0.0017748614 0.0037442038 0.002164083 0.0075667705
-0.0054373113 0.006152428 0.0015861114 -0.0047777654 0.00031800597 -0.0011926277 -0.008149425 0.0023744018
-0.0017726651 -0.005777271 -0.005197709 0.004011697 -0.0053919493 -0.006911184 -0.0020790086 0.00039609053
-0.0043758717 -0.005552828 0.0042336136 -0.0020901996 -0.0058487062 0.004630335 0.0009543195 -0.0019931782
-0.0041266205 -0.002719852 0.0072227246 0.004046084 0.005178341 0.0021267165 0.003853244 -0.0018629391
-0.00581887 0.0030835904 0.0008603946 0.0022820244 -0.0037003513 -0.0059899385 -0.0051651946 -0.0016674331
-0.0015087994 0.00083062897 -0.005887908 0.0021207079 0.007497921 0.0043147397 -0.00049158564 0.0033724317
0.0053108446 -0.00017760934 -0.006701909 0.0036565836 0.0015596816 -0.0058845663 -0.0006132862 -0.005097811
0.00568627 -0.0042486168 0.0022706266 0.0055072308 -0.005677514 -0.0006755831 -0.002448462 -0.0032900088
4.9735732e-05 -0.005169447 0.0019097378 0.0014762403 0.009113494 -0.0027400511 0.0030353751 -0.0019526479
0.0011584581 0.002825575 -0.0041702366 -0.0026923686 -0.0057875235 0.00067957 0.00151307 0.0035498505

fc1.bias f4 [2]
00000000: 7147 99bb 8616 f637
-0.004677706 2.9335974e-05
