model/d_remove_model_70.00.pth (torch, 83945 bytes, 17 tensors)

conv1.weight f4 [16, 1, 1, 51]
00000000: 4658 0e3e 9c0a 673c aaef ab3d d4e6 a23c
00000010: 9ed0 d6bd 22bc 3bbd d186 93bd c6d3 24bd
00000020: f40e cdbd 350e 983c 929f 873c 1599 a4bd
00000030: 2850 af3d 423e 26bc 57d2 ae3d 7152 96bd
00000040: 7953 9f3d 8369 97bd 1672 863d d100 723d
00000050: ddf6 933d 326c 173d fbcf f03d 372b fd3d
00000060: 02e3 42bd 3be1 093e 1c97 3fbc 8c5c 01bd
00000070: da0e a83d 3583 f53d dfff e23d 61bb 5c3d
00000080: b42a 633c c134 c73d 5fe9 023e 70a4 0b3d
00000090: 0d1c e23d af48 b23d 8070 cebc df28 853d
000000a0: b1e9 d5bd 82b4 573d 43aa 993c 4e5d b3bd
000000b0: 6ca6 cd3d f61f 013e 500b eb3d eb87 ed3d
000000c0: d411 53bd 0d8f 0b3e 9b3c 3c3c ec61 30bd
000000d0: 122b 08bd 76d8 37bd 54f7 653d 4eb6 333d
000000e0: f49f d8bd 910c c6bd d2e7 c23d 8533 dcbc
000000f0: 4180 78bc 73a6 a83c e960 e03d 870c 36bc
00000100: b2e0 edbc 1c6b b8bd 29dd cf3d 7e82 bfbd
00000110: 02c3 783d 6388 3b3d 5deb 00be 3e3f d73d
00000120: 5ed3 4ebd ba2a 1a3c 11d9 a9bd 695a 06be
00000130: c048 edbd cbb7 e53d a42d 9e3c 6df8 71bd
00000140: 1fcb 2abc c300 eebd 258d ab3d 78e5 96bc
00000150: be20 cebd 5f7c b73d 305e 403d 4d09 e2bd
00000160: 5297 1ebc 8d3f dabd 58f0 c4bd 45a3 13be
00000170: c505 c93d 050e c03d d258 023e aaf2 04be
00000180: ae63 9abd 569f a23c 816b 9dbd 4168 31bd
00000190: 5fb7 003e a771 13be 9789 3cbd 4219 85bc
000001a0: 7d79 14bd ba0f febd 2b04 283d 9964 18bd
000001b0: f66c 34bc 2f37 b9bd 6ed7 453d 618d 0a3e
000001c0: 8248 b7bd 1df0 913d 2839 883c e7be cc3d
000001d0: 0bea bf3d 26d9 183d f22c c7bd 0822 df3d
000001e0: c626 29bd 9ccf 8ebc 028b 0e3d faf9 a33d
000001f0: 2231 f4bd 17d2 93bd 0a7b 73bd daac 423c
00000200: 0d52 1d3d 98e0 5ebd bbc7 ecbd 2cc5 59bd
00000210: 1881 fe3c c2a1 b8bc 1f6a e8bd 16f3 db3d
00000220: 2ebb 04be 612b 263c f1c2 adbd 7e8c e0bd
00000230: 5d94 afbd a455 0b3e 52f0 aa3d dcc9 873d
00000240: 8020 88bd bf0a a23d 432d 423d 03de f13d
00000250: 2c99 82bd c923 a0bc 2031 ce3d 7f21 2cbd
00000260: e21f 113e 53ec 06be f039 dfbd ddca 623c
00000270: 8216 8c3c d1f0 503d 502a 33b8 75bf 543d
00000280: 2322 39bc f206 313c dd67 bebd 3f80 8fbc
00000290: 3a55 06be 8479 f03d 6b0c 063e 0bf6 b33d
000002a0: f56d 8cbc 7904 c0bd ece4 67bd a2bb b13c
000002b0: af51 cebd 5c23 8d3d 9237 3fbd 7f53 d83c
000002c0: c191 3a3d 8177 0f3e 44c7 053e 9eec 193d
000002d0: aaef 4a3c 5db0 f23d e91a a4bd 042f b2bb
000002e0: 2a38 9d3d 2994 e53d 1760 1a3d 45e5 bc3d
000002f0: 12dc 823c bec5 d13d 8342 bb3d 987f 05bd
00000300: 6e00 9ebc e2a9 fe3d 4cab 353d dd6d dbbd
00000310: 0281 8d3b 6051 de3c 0087 fbbd 4d85 a83d
00000320: c77b 05be dfdf 883d edaa 9fbd e520 0dbe
00000330: 540e fb3c 1d12 b2bd bcda 9abd 314d 863d
00000340: aa6b 07be a112 e4bc c1e3 03bd bc7d 81bd
00000350: fc0b a83d d784 76bc ff7d acbd 343e 013e
00000360: 43fc 543d 3e3d 84bd b51a 08be 3dff bdbc
00000370: eeaa 033e dc5f 3abd 277f 7fbd 54bd 52bd
00000380: 1bb6 d83d e971 d53d a411 e5bd d724 853d
00000390: 261f ddbd 2e0b 76bd af0d 0b3d d056 a03d
000003a0: c186 003e 6ced f4bd 8bc3 223d 0de6 ee3c
000003b0: 7a1e d73c 3549 1cbd 3a8b 0cbe 03ae c5bb
000003c0: 92c5 fb3c 7d89 423b e268 86bd a4db ddbd
000003d0: bd08 2abd cea7 933d 07a0 c3bd b880 1bbe
000003e0: c37c 7d3d 9787 c13c a23a 123d 7d7f 863d
000003f0: 897d 28bd 3dd0 5cbd 2863 88bd ba9e 7b3d
0.13900861 0.014101651 0.08395322 0.019885458 -0.10489009 -0.045833714 -0.072034486 -0.040241025
-0.10012618 0.018561462 0.016555581 -0.080370106 0.085602105 -0.010146679 0.08536213 -0.07339943
0.07779593 -0.07393172 0.06564729 0.05908281 0.0722482 0.036968417 0.11758419 0.12361758
-0.047579773 0.13464825 -0.011693742 -0.0315824 0.08205958 0.119879164 0.1108396 0.053889636
0.013865162 0.09726859 0.12784337 0.034092367 0.110405065 0.087052695 -0.025200129 0.06501936
-0.10444964 0.05266238 0.018757945 -0.08758031 0.10041508 0.12609848 0.11476767 0.1159819
-0.051530674 0.13628788 0.011489059 -0.043062136 -0.0332442 -0.044884168 0.056144074 0.04387503
-0.10577384 -0.096703656 0.095168725 -0.026880035 -0.015167297 0.020587182 0.10955984 -0.011111385
-0.029037807 -0.090048045 0.10149605 -0.09351061 0.06073285 0.045784365 -0.12589784 0.10510109
-0.050494544 0.009409601 -0.08293355 -0.13120426 -0.115861416 0.11216696 0.019308873 -0.059074808
-0.010424404 -0.11621239 0.083765306 -0.018419966 -0.10064839 0.08959269 0.046964824 -0.1103693
-0.009679632 -0.106566526 -0.096161544 -0.14417751 0.098155536 0.09377674 0.12729195 -0.12983194
-0.07538544 0.019851368 -0.0768652 -0.043312315 0.1256995 -0.14398824 -0.046029653 -0.016247395
-0.036248673 -0.12405343 0.0410196 -0.037205312 -0.011012306 -0.090437286 0.048301153 0.13530494
-0.08949377 0.07125876 0.016628817 0.09997349 0.09370812 0.037316464 -0.097253695 0.10895163
-0.041296743 -0.01743298 0.034800537 0.080066636 -0.11923434 -0.07217806 -0.05944351 0.011882031
0.038408328 -0.054413408 -0.11561533 -0.053166553 0.031067416 -0.02253807 -0.11348366 0.10739724
-0.12962028 0.010142178 -0.08484448 -0.10964297 -0.0857322 0.13606888 0.08346619 0.066302985
-0.06646824 0.07912206 0.047406446 0.118099235 -0.063768715 -0.019548314 0.100679636 -0.042024132
0.14172319 -0.13176088 -0.108997226 0.013842312 0.017100576 0.05101091 -4.2716332e-05 0.0519404
-0.011299643 0.010804879 -0.09297154 -0.017517207 -0.13118449 0.11741927 0.13090675 0.08787163
-0.017142275 -0.09375853 -0.0566148 0.021695916 -0.10074174 0.0689151 -0.046683855 0.026407002
0.045549158 0.14010431 0.13064295 0.03757917 0.012386242 0.11850045 -0.08012945 -0.0054377336
0.07676728 0.112099 0.037689295 0.09223417 0.015974078 0.102427945 0.091435455 -0.032592386
-0.019287314 0.12434746 0.044352815 -0.10714314 0.0043183574 0.027138412 -0.122816086 0.0822855
-0.13035499 0.06683325 -0.077962734 -0.1378208 0.03064648 -0.08694861 -0.075612515 0.06557692
-0.13224664 -0.027840914 -0.032199625 -0.0632281 0.08205411 -0.01504632 -0.08422469 0.12621385
0.051998388 -0.064569935 -0.13291438 -0.023192996 0.12858173 -0.045501575 -0.06237712 -0.05145009
0.10581609 0.10422117 -0.11185005 0.06501167 -0.10796957 -0.060069256 0.033948597 0.07829058
0.12551405 -0.11959347 0.039737266 0.029162431 0.02625965 -0.038155753 -0.13724986 -0.0060327067
0.030733857 0.0029684 -0.065629736 -0.10832909 -0.04151224 0.072097406 -0.09552007 -0.15185821
0.06188656 0.023624225 0.035700448 0.06567285 -0.041135345 -0.05390953 -0.066595376 0.06143067

batchnorm1.weight f4 [16]
00000000: 6d08 803f b7c9 7e3f bf35 803f 3170 7b3f
00000010: 2134 823f 8ef6 813f 273a 7d3f a76c 823f
00000020: 7fea 7f3f 139b 7d3f e7dc 803f bd2e 7c3f
00000030: 1e5b 803f 4f0f 803f 70f6 7c3f ed01 803f
1.0002571 0.9952654 1.0016402 0.98218066 1.0172158 1.0153368 0.9891686 1.0189408
0.9996719 0.9906475 1.0067414 0.98508817 1.0027807 1.0004672 0.98813534 1.0000588

batchnorm1.bias f4 [16]
00000000: 864e 08ba 7567 283a 91b4 cb39 86b7 1d3a
00000010: 5923 8839 d2a5 f739 28d9 8fb9 8563 48b8
00000020: 1204 4eba d80a 0a38 460c c83a a2e9 78ba
00000030: fb97 a9b9 4816 533a 4a96 4c3a 01b8 883a
-0.0005199689 0.00064241077 0.0003885371 0.0006016422 0.00025966277 0.00047235057 -0.0002743688 -4.77764e-05
-0.0007858883 3.2911863e-05 0.0015262447 -0.0009495263 -0.00032347426 0.00080523314 0.0007804377 0.0010430814

batchnorm1.running_mean f4 [16]
00000000: 6ece a13d 73ec 17bd c86c 7abb 4d4b d73c
00000010: 2ead d6bc ec0e 91bb 257d 8439 019b c53b
00000020: 168f aabb 40dd ecbc 89fb b3bc c64f 06bc
00000030: 51e1 31bc 3e22 d4bb 4265 953b ec29 153b
0.079007015 -0.03709073 -0.0038211811 0.026281023 -0.026205625 -0.0044268277 0.00025270242 0.006030441
-0.0052050455 -0.028914094 -0.021970527 -0.00819773 -0.010856942 -0.0064738085 0.00455919 0.0022760583

batchnorm1.running_var f4 [16]
00000000: 4992 f041 87a9 c940 101a 6840 8523 0f41
00000010: 61fd 8a40 0f5a e740 a151 eb3f b114 3840
00000020: de81 5840 3da2 b040 2c99 fa40 ddbb 2240
00000030: 9fd5 1741 46de 3640 380f af3f 2a1c 4a40
30.071428 6.3019443 3.6265907 8.946172 4.34343 7.2297435 1.8384286 2.876263
3.3829265 5.5198045 7.8311977 2.5427163 9.489654 2.8573165 1.3676519 3.157969

conv2.weight f4 [32, 1, 2, 1]
00000000: 5cfb 1abf 1fdb d4be d75f fcbe aa92 9a3e
00000010: 1d0e 46be abae af3e 3ae5 533e d238 043f
00000020: 3c05 193f 65b8 2e3f 3eae f83e 61af 0abf
00000030: f275 11be 9917 dd3e 6e88 0fbf 1307 7bbd
00000040: c7c3 c03e fcdc d0be 9ac0 213f 7b82 073f
00000050: ccc1 c4be 46fd 783e 93ea 303e 45c0 6fbe
00000060: c15a 5abb b111 2a3f 95f7 bc3c 9cde e43e
00000070: f2e4 1dbf eca1 333e 0fe7 2c3f aa44 f33e
00000080: 99d4 263d ddfc 71be dc13 2c3f f9ea 10bf
00000090: a374 18bd 8f23 aa3d dd3c 26bf 7d7a 6f3e
000000a0: b410 32bf ebde 983d 88bd 1b3e 707a 133f
000000b0: 0a77 803e 8b0b ed3e d43c 973e 8605 6c3e
000000c0: 61dd d4be 6357 c73e 863c 443e a7d4 c9be
000000d0: c29a 163e 8a30 2cbf 1d29 19bd 7b10 64be
000000e0: 120d 813e 301d 983d cd6e 92be 1eb6 2bbf
000000f0: ee17 343e 09dd bcbe a149 d6be e5af 133f
-0.60539794 -0.41573426 -0.4929187 0.3019002 -0.19341321 0.3431295 0.20692912 0.516492
0.5977361 0.68250114 0.48570436 -0.54173857 -0.14205149 0.43182066 -0.5606755 -0.061286043
0.37649366 -0.40793598 0.6318451 0.5293347 -0.38429105 0.24315366 0.17276983 -0.23413189
-0.0033318254 0.66433245 0.023067275 0.44701087 -0.6167747 0.17542237 0.6754007 0.47513324
0.040730093 -0.23631616 0.67217803 -0.5660854 -0.03722061 0.083075635 -0.6493662 0.2338657
-0.69556737 0.07464393 0.15209019 0.576087 0.2509082 0.4629787 0.29538596 0.23048982
-0.4157515 0.38933858 0.19163713 -0.39420053 0.14707473 -0.67261565 -0.037392724 -0.22271912
0.25205284 0.07427442 -0.2860016 -0.67074764 0.17587253 -0.36887386 -0.4185305 0.5769027

batchnorm2.weight f4 [32]
00000000: 785d 7b3f 3575 803f 2fcf 7e3f 5f7b 7e3f
00000010: 784d 7c3f de58 803f 4035 7c3f 470d 7d3f
00000020: 5c68 823f 65c3 7d3f 28dc 803f 4cb5 813f
00000030: 314c 7b3f e3f2 7e3f 6391 823f 3bef 803f
00000040: dc41 7e3f e7ff 833f 1e87 7d3f b913 813f
00000050: c37c 823f 0888 7b3f 2849 7f3f b741 7b3f
00000060: 248c 803f 950e 803f 7426 803f 3905 803f
00000070: 728c 7c3f ff99 813f 0354 803f 7a29 7e3f
0.98189497 1.0035769 0.9953489 0.99407 0.9855571 1.002712 0.98518753 0.98848385
1.0188098 0.99126273 1.0067186 1.0133452 0.98163134 0.99589366 1.0200619 1.0073007
0.99319243 1.031247 0.990343 1.0084144 1.0194324 0.9825444 0.99721 0.9814715
1.0042768 1.000445 1.0011735 1.0001594 0.986518 1.0125121 1.0025638 0.9928204

batchnorm2.bias f4 [32]
00000000: 5224 c7bc 6133 df3b 3eed b43b 435c 04bb
00000010: ee97 0bbd 5bc3 5bbb 7c31 55bc 7749 19bb
00000020: d200 db3c b22e 5abc f030 6abc aa38 20b8
00000030: e143 ffbc b6f4 0bbd 7db4 14bd bd57 c6bb
00000040: 569f fdbc a586 59bb 5d27 0f3c aec1 ab3c
00000050: 1e3b 823c e5c1 e9bb d504 0abc b9d5 90bc
00000060: 7660 21bc f65f 583b 0304 1bbd 6dbe f7bc
00000070: f6b2 c1bc 0986 d6bc 8e9d c5bc 633d 30bd
-0.024309311 0.0068115448 0.0055214455 -0.0020196594 -0.03408044 -0.003353319 -0.013012286 -0.0023389736
0.02673379 -0.013316797 -0.014293894 -3.8199745e-05 -0.031160297 -0.03416892 -0.03630494 -0.0060529397
-0.030959766 -0.0033191827 0.008737412 0.020966377 0.01589733 -0.0071337097 -0.008424004 -0.017680036
-0.009849658 0.0033016182 -0.037845623 -0.03024217 -0.023644906 -0.02618696 -0.02412298 -0.043027293

batchnorm2.running_mean f4 [32]
00000000: 262f 50bb 45aa f2ba 6bff 113a abbe beba
00000010: 6c80 1438 77e2 f5b9 dc6d 5b39 b1f6 e9ba
00000020: 3e4c b4ba 434d 75bb 7c49 243a 97b5 a5b9
00000030: 8aaf c2b7 1dfa 2bb8 ce5b 03ba 68e9 363a
00000040: afa4 9239 1806 3138 6e18 b238 ccc5 423b
00000050: 818c e73a b5f9 38b7 ef45 a8ba e051 80ba
00000060: 45a5 6b3a 3418 92b9 df43 5ab9 40c7 6eb8
00000070: e066 c439 af16 92ba 56f7 4fb9 df33 f938
-0.0031766384 -0.0018513879 0.0005569371 -0.0014552673 3.5405552e-05 -0.0004689877 0.00020926393 -0.0017850009
-0.0013755632 -0.0037430085 0.00062670535 -0.00031606547 -2.3208344e-05 -4.1002513e-05 -0.00050109334 0.0006977529
0.0002796999 4.2205764e-05 8.492252e-05 0.0029719947 0.0017665775 -1.1025394e-05 -0.0012838225 -0.0009790026
0.00089891657 -0.00027865323 -0.00020815384 -5.6929188e-05 0.0003746068 -0.0011145676 -0.00019833198 0.00011882907

batchnorm2.running_var f4 [32]
00000000: 6cec 7f3f 2959 123e 2d94 823d 6086 fe3e
00000010: 14de b63f 2c53 4b3e 7ab7 fc3d a8aa c63e
00000020: c2cb d83d 49ca a73f 471f bd3d 2e24 033d
00000030: 271c ec3e 854e 653e cd7d 9b3e 732b 9a3f
00000040: 8fe2 413d 1ceb 933e 73ef 843b d110 973e
00000050: 6667 f53e 4d95 023f c66b e33e 0300 723e
00000060: 6b96 e63d 0d67 bf3d c8ab b63e 83c4 843d
00000070: 0302 b73d d1a9 493f d804 af3d d10f 503e
0.99970126 0.14291824 0.063759185 0.49711895 1.4286523 0.19855946 0.12339683 0.38802075
0.10585739 1.3108608 0.09234481 0.032016926 0.4611523 0.22393234 0.30369416 1.204451
0.047335204 0.28890312 0.004056865 0.29505017 0.4793045 0.51009065 0.44418162 0.23632817
0.11259159 0.09345827 0.35677934 0.06482794 0.089359306 0.78774744 0.08545846 0.20318533

conv3.weight f4 [32, 32, 1, 15]
00000000: 0d2f 6cbc d14b d23c 92be 773c e593 273a
00000010: 36c1 32bc 36fd df3c b9ac 843c f7e3 023d
00000020: 2a63 96bc 9fa6 d5bc 5613 10bc 4119 fa3b
00000030: 57d7 b5bc 2c30 c6bc 76bf 443c b549 313d
00000040: c3ac 833a 0eb5 113a df30 b53c cadd ed3c
00000050: b762 b239 d96c 88bc dc75 633c 4ff7 073d
00000060: d96d c5bc e036 49bd 7221 95bb e139 bfbc
00000070: 7ba1 fe3c 572e 9bbc 137f 7db9 c76d 523d
00000080: ae29 563c bda0 953b 7e5a cc3c 405f c9bc
00000090: 39bd 9f3b 63c4 19bd 92fe ebbb f3dc 3dbc
000000a0: 76fb c63a 65e9 7c3c e6b0 dabb 9def 10bc
000000b0: 8b96 7dbb 9578 9fbc bc17 00bd 3165 0ebd
000000c0: 3724 8bbc 7691 0e3b 99f4 acbc c834 f83c
000000d0: 59fd 34bb 5a22 22bd 7a09 203d d01c cbba
000000e0: 8f05 033d f381 913b 6cc0 08bd 490e c03c
000000f0: b741 5d3c 5298 15bd d055 9a3c cb69 ddbc
00000100: c5bd b13c 1339 c5bb 8b23 b43b 61ec 1d3d
00000110: fa27 fa3c b862 e5bc bb57 60bc 16ab 053c
00000120: 303f ba3c cec4 44bc f214 b63b 68de 473d
00000130: bae1 a23c 851f 22bd 387a b3bc ba54 bdbc
00000140: 2f33 cc3c 9a23 10bd f877 1abd 0c00 70ba
00000150: 960a 3ebd e719 99bc c83a 8c3c 99b8 07bd
00000160: 5fb3 28bd f893 de3b 900c e33c 320b 5e3c
00000170: 4ace f33c 8fab 883a 1f69 693c 6e5d 033d
00000180: d8a2 1fbd 46e1 4fbc 19d0 153d 9e5e febc
00000190: e7d6 b2bb 3781 edbc 29a7 333d 7357 e1bc
000001a0: c775 06bd d62c ecbc 2379 04bd 9cbd 373d
000001b0: 0135 87bc 0bd0 11b9 d5b2 2a3d 01b1 acbc
000001c0: d11e c43c e027 52bd dae6 e83c 8e52 0abd
000001d0: 78f7 38bd fd74 41bd 60a5 1abd 2bc8 2bbd
000001e0: e90c babc 49cc 02bd 18f5 05bb bac6 173d
000001f0: 27d1 38bc ade0 b83c dd83 c6bc cf86 b2bc
00000200: 3bc7 6abc 7d48 053c 9b59 753c 3729 1dbb
00000210: ebfd 9fbc 86ae 743c 1f6a 873c 7812 df3a
00000220: 5357 cb3c a8f7 adbc 2dcd ad3c 15b2 75bc
00000230: d82a 333d 0870 cc3c c58a 4e3d 1b66 83bc
00000240: fac7 3f3d d883 1d3d b18b d2bb c09b fbbb
00000250: 7dfd 153d 6e52 2ebd 6716 073c 031f e2bc
00000260: 64cc d6bb 23a5 963b 57f1 12bc 4ba0 d7bc
00000270: 0f8c e23b 0041 1ebc 3281 ec3c 7bf0 2e3d
00000280: e336 f9bc 15d9 50ba 2b33 db3c 4095 c8bc
00000290: 0152 e43c ebf7 a03c b81d 093b 9f73 b1bc
000002a0: 116b b4bc 2537 173d c0bb 9abc d5de 013d
000002b0: 5021 a03c 39c9 203d 5af4 2ebd 054d a83c
000002c0: 2889 d63b 2f65 89bc 141b 7e3c 6cfc bebc
000002d0: 054a b6bc 9b28 acbc 0f11 0ebd 02f7 c23c
000002e0: e929 223c f646 1b3d a6f5 82bc 9972 1abd
000002f0: c75b 12bd e0a2 47bd b964 7fbc de0e 46bd
00000300: 245b bbbc 335e e9bb 7682 cebb 3105 d3bb
00000310: 816c ab3b 15dc a1bc db34 41bd 7142 babc
00000320: 3dc8 15bd 65db d23c 29f5 04bd c71f 79bc
00000330: e190 5cbd fc07 dbbb b036 013d 7ba5 923c
00000340: 8d29 e13c f639 3abd 5594 c53c bdab aabc
00000350: 3187 19bd 4efd 55bd 0b28 adbc 2c1a 8a3c
00000360: 3c0a 38bd c19f 01bd 455f 58bd db63 95bc
00000370: 0821 c23c 55ba 753c f6a2 11bb 21d7 75bb
00000380: 7533 e53c 71b9 883c 755e 053d 7319 f33c
00000390: 72b8 f6bc 7c68 1fbd ca03 2f3d b7f8 0a3d
000003a0: 082b bcbc d143 2f3c 0dae 653d b264 95bc
000003b0: b1ed 043d 2577 953c 5921 263d 44f9 05bd
000003c0: 7dda 00bd 94dc a83b 0310 053d 8248 c2bc
000003d0: b702 c8bb b152 7abc 3110 2a3d 9244 27bc
000003e0: e4e7 923b 6b17 f93a 2ae6 1cbd 00ce f83b
000003f0: 5185 363d 67ee 9d3b fd59 b33c 343e 78bd
-0.014415515 0.025670918 0.015121119 0.00063925824 -0.010910323 0.02734242 0.016195642 0.031955685
-0.018357832 -0.026080428 -0.008793673 0.007632405 -0.022197409 -0.024192892 0.0120085385 0.043283183
0.0010045994 0.000555829 0.02211803 0.029036421 0.00034024354 -0.016653465 0.01388308 0.033194836
-0.024100231 -0.0491246 -0.004551106 -0.023343029 0.03108286 -0.018942995 -0.00024175299 0.051374223
0.013071461 0.0045662806 0.024945494 -0.024581552 0.004874852 -0.037540805 -0.007201978 -0.011588323
0.0015181142 0.015436505 -0.00667392 -0.008846191 -0.0038694467 -0.019466678 -0.031272635 -0.034764472
-0.016985042 0.0021754182 -0.021112727 0.030298606 -0.0027616827 -0.03958354 0.039071538 -0.0015496258
0.031987723 0.00444054 -0.033386633 0.023444312 0.013504437 -0.036522217 0.018839747 -0.027027985
0.021696934 -0.0060187667 0.005497401 0.038555507 0.03053664 -0.028001174 -0.013692792 0.008158466
0.022735208 -0.0120098125 0.005556696 0.048796088 0.019883025 -0.03958084 -0.021908864 -0.02311169
0.02492675 -0.035190202 -0.037712067 -0.00091552804 -0.046396814 -0.018689109 0.017117873 -0.03313503
-0.041186687 0.0067925416 0.027715951 0.013552474 0.029761452 0.0010427105 0.014246254 0.032071523
-0.03897366 -0.012687987 0.03657541 -0.031050976 -0.0054577473 -0.028992279 0.04386059 -0.02750752
-0.032827165 -0.028829973 -0.032342087 0.04485856 -0.016504766 -0.0001390578 0.041674454 -0.021080496
0.023940476 -0.05130756 0.028430391 -0.033770137 -0.04515788 -0.04723071 -0.03775537 -0.041938942
-0.022711234 -0.031933103 -0.0020440277 0.037054755 -0.011280335 0.022568071 -0.0242328 -0.021792797
-0.014329727 0.008134958 0.014974977 -0.0023980865 -0.019530257 0.014934188 0.016530095 0.0017019054
0.024821913 -0.021236256 0.021216 -0.014996071 0.04374203 0.024955764 0.05042531 -0.016039899
0.046821572 0.038455814 -0.006425344 -0.007678479 0.0366187 -0.04255908 0.008245087 -0.027602678
-0.006555127 0.0045973225 -0.008968673 -0.02632155 0.006913669 -0.009659052 0.028870199 0.04270981
-0.03042168 -0.0007966918 0.026757797 -0.02448523 0.027871134 0.019649466 0.0020922255 -0.021661578
-0.02202371 0.036917824 -0.018888354 0.03170665 0.019547135 0.0392544 -0.0427135 0.020544538
0.006547112 -0.01677188 0.015509386 -0.023313724 -0.022252092 -0.021015456 -0.034684237 0.023799423
0.0098976875 0.03790947 -0.015986275 -0.037706945 -0.035732057 -0.048739314 -0.015587979 -0.048354022
-0.022870608 -0.007121825 -0.0063021732 -0.006439828 0.0052314405 -0.019758264 -0.047169548 -0.02273676
-0.036567915 0.025739381 -0.032460365 -0.01520533 -0.053849105 -0.0066843014 0.031546295 0.017901173
0.027485633 -0.045465432 0.024118582 -0.020833844 -0.037482444 -0.052243523 -0.021137258 0.016858183
-0.044931635 -0.031646494 -0.05282523 -0.018236091 0.023697391 0.014998038 -0.0022222376 -0.003751226
0.027978638 0.016689988 0.032560784 0.029675221 -0.030117247 -0.038918003 0.042728223 0.0339286
-0.022969738 0.010697321 0.05607419 -0.018236492 0.032453243 0.01824529 0.040559147 -0.03270842
-0.031458367 0.005153248 0.032485973 -0.023716215 -0.0061038393 -0.015278504 0.041519348 -0.0102092195
0.00448321 0.0019004171 -0.03830544 0.0075929165 0.044560734 0.0048196795 0.021893496 -0.060606197

batchnorm3.weight f4 [32]
00000000: 27d1 853f 7587 823f c38d 873f 8e55 863f
00000010: 9bf7 823f e613 853f cdaf 843f c347 863f
00000020: e24b 853f 3192 843f 1637 843f 1e85 843f
00000030: 2f1d 863f ff65 863f 0eb1 853f 8364 833f
00000040: 8e6a 833f 4eeb 873f 7fec 853f b9a8 843f
00000050: 61db 833f 6178 843f 507f 823f b564 833f
00000060: ff09 853f ded3 813f 6fcc 823f 2159 853f
00000070: c454 873f df92 843f 51a4 843f e702 853f
1.0454453 1.0197588 1.0590137 1.0494859 1.0231813 1.0396698 1.036615 1.049065
1.0413783 1.0357114 1.0329311 1.0353124 1.0477656 1.0499877 1.0444658 1.0265049
1.0266893 1.0618684 1.0462798 1.036399 1.0301324 1.0349237 1.0195103 1.0265108
1.0393676 1.0142782 1.0218638 1.0417825 1.0572743 1.0357322 1.0362645 1.0391511

batchnorm3.bias f4 [32]
00000000: 6dcd cb3c 9f44 0c3c d140 283d 0c2b 1e3d
00000010: cbac f23b ebab bb3c 878d 7d3c 6ffa 853c
00000020: 6e6d c03c 0c15 543c 28a0 5e3c 6a5a b23c
00000030: 249a fa3c 9de4 ad3c 198b a83c 4d0c 693c
00000040: 0790 1e3c 95fd 2b3d 6b0c 0c3d e52b be3c
00000050: 506f 7d3c 1b4e ae3c 7204 2abb afa7 f63b
00000060: 8941 1a3c 70a1 c93b f3dc 443b 1a3e a53c
00000070: 434f e13c 29c9 893c 4b88 753c 61cc 953c
0.024878228 0.008561282 0.04107744 0.03861527 0.0074058524 0.022909125 0.015475637 0.016354768
0.02348968 0.012944471 0.013587989 0.021771628 0.030591078 0.021227175 0.02057414 0.014224124
0.0096778935 0.04198988 0.03419153 0.02321429 0.0154684335 0.021277478 -0.002594259 0.0075273137
0.009415039 0.006153278 0.0030038923 0.020171214 0.027503615 0.016819553 0.014986108 0.018285932

batchnorm3.running_mean f4 [32]
00000000: 5ae5 f3bd 735d 493e 5cd2 863e 3599 98bd
00000010: ab8d 483f 4cec 04be dbe8 fe3e cc39 593f
00000020: 1321 9f3e c9ec 3fbe a84c fdbc cf6f 073f
00000030: ea8d 06bd a793 253f f98b 16be 6647 d8be
00000040: b5c1 e43e 2964 62be a69d 0e3e 7d77 8bbc
00000050: a8d8 f0be b1f5 52bf cb61 ed3e 5248 153f
00000060: 4529 1f3f 48f5 d2be e86e 883e c8e0 22be
00000070: 7ba7 523f 52d4 9bbe 139b 813f 854d 0bbf
-0.1190898 0.19664554 0.26332366 -0.07451097 0.7834117 -0.12980765 0.4978703 0.84853816
0.3107992 -0.1874267 -0.030920342 0.5290498 -0.032850184 0.64678425 -0.14701833 -0.42241973
0.44679037 -0.2210852 0.13927326 -0.01702475 -0.47040296 -0.82406145 0.46363673 0.5831348
0.6217235 -0.4120276 0.26647115 -0.1590606 0.82286805 -0.30435425 1.012545 -0.5441516

batchnorm3.running_var f4 [32]
00000000: df53 3f3e b258 213e a218 7b3e 3696 c83e
00000010: d733 603e e616 873e 710f 5a3e 334a 5f3e
00000020: 6d47 703e bda0 a23e ee72 483e 4003 3b3e
00000030: fb18 a23e dc68 4b3e dc00 673e 971e a83e
00000040: 7a0c ab3e 20ed c93e b7ee a23e a208 b63e
00000050: 913c 8c3e b139 b63e f218 7f3e 03f2 933e
00000060: f1b8 953e b2e5 9e3e 90f5 723e 4f5c 5b3e
00000070: 2a2b 7e3e f689 a23e 866c 753e cfe6 a83e
0.18684338 0.15756491 0.24521115 0.39177102 0.21894775 0.26384658 0.21294953 0.21805649
0.23464747 0.3176326 0.19575092 0.18262959 0.31659684 0.1986422 0.22558922 0.32835838
0.33407956 0.39438725 0.3182275 0.3555346 0.27389959 0.3559089 0.2491186 0.28895578
0.29242662 0.3103462 0.23726487 0.21421932 0.24821153 0.3174588 0.2396718 0.32988593

fc1.weight f4 [2, 1472]
00000000: 8ac3 45bb 7949 8f38 d570 753c 085c c83c
00000010: 17cd 42bb 8d69 b5bc c12b 9d3c eee2 233c
00000020: 1e04 123d 6a05 ca3b e5f3 823c 3f3d e63c
00000030: f2f5 9f3c c8c9 b9bb 457a 51bc a6a1 d13c
00000040: 7de0 503c 7380 e4bc 05d2 753c 6200 8c3c
00000050: 2952 d4ba 8745 98bc 1d69 103d 1d34 f9bb
00000060: 85de 933c f5f2 f03c 0448 b0bc ab96 e0bc
00000070: 2508 f4bc 7402 f5bc 0150 f73a 18ff 223c
00000080: abd0 27bd fdc8 063d 537f 133c b4b2 473c
00000090: f37f 853b 3b5c 94bc 643d ddbb a42d 973c
000000a0: bbc2 35bc 9851 91bc 2bbb d0bc 133d 01bc
000000b0: 3daf 79bc 050b e13c a2e9 0ebc dd52 1a3d
000000c0: 14e0 8c3c fceb 65bc bf51 7d3c 782c e53c
000000d0: 62ce aa3c 975b e13c 8262 ca3c 1af1 953c
000000e0: 4cf6 b2bc bd90 b93c e7ff 053d 6860 4e3c
000000f0: c13b 823c ffb5 a0bc 2f67 a2bb e86e 0b3d
00000100: aac5 493c 8b1e bd3a 0611 813c 5a82 eb3b
00000110: b105 27bc a494 333b 49f9 e3bc 5253 e5bc
00000120: 3bff 8cbc a61b 9b3c 7371 843c ec4d b5bb
00000130: a5b6 09bd 2f72 ae3c 5eef c53c 67b7 cc3c
00000140: 7609 f2bb 6498 44bc d66d af3c 6113 98bc
00000150: 707e 9c3c 47dc 07bd f4c6 9bbb 708c 96bc
00000160: 762d 42bc 9ede 953a eb92 0b3d 2a7f 9dbb
00000170: e972 833c 3941 3bbc 44de b53a 1d5d 5f3c
00000180: d0c9 6b3b c873 9e3c 1342 703c a5a0 ba3c
00000190: a03f 0a3c d10c 36bc ece2 ca3a c6fd febb
000001a0: 3822 14bc b337 6ebc 321b 503c a898 33bc
000001b0: d752 a13c 50c4 85bc cb7e 323c ad4d 7e3c
000001c0: 8d78 833c 76bc 80bc 8769 0c3d c7b6 a9bc
000001d0: f847 42bd e6c0 2dbd 392a 703c 9134 303d
000001e0: 5655 eabc 4412 2abc 9478 aa3c ea27 bd3c
000001f0: a4e9 a33c 59f4 7abc 2f4a 88bb f35e 8f3b
00000200: f3d1 c23b 8b8a 73bc a905 16bd 13dd aabb
00000210: 83c6 d8b9 f7db b1bc 9011 db3c eec3 0a3c
00000220: 9d12 68bc ea55 a7bc b57f 2c3b 4819 33bb
00000230: 1bd0 933c 0054 bb3c e1b2 8fbc d61b 3dbc
00000240: d48d 9dbc 92bb 67bc 3788 9abc 5701 07ba
00000250: 7b39 f23b c3e4 5c3c e57a b73b d705 0abd
00000260: f666 99bc 86d4 1abc e7c6 e0bc 2490 0fbd
00000270: 7b1f 7ebc b9f9 ff3c dd2d c83b 02c6 6fbc
00000280: 32d0 093d 3add 9d3c 0171 873c ee06 febb
00000290: 1e2e 01bc ab57 b5bc 2d06 0e3a f2b5 993c
000002a0: b856 5dbc 2090 b6bc 1bc1 933c c341 b6bc
000002b0: f7ee ab3c af1a 303c dfa8 c93b 1dcc b0bc
000002c0: 0d2b 3bbc 9982 45bc e702 b13c 24b6 a93c
000002d0: 986e 623c c3f8 f43c b7c0 bbbb a3df 003c
000002e0: 9672 c9bb b508 273d d3e5 013d 40b8 ae3b
000002f0: 09ed 253c e770 ce3c 71d3 0a3d e165 89bc
00000300: a6d2 92bb 3c32 dfba 450c 7d3c 728b 273c
00000310: bfa9 78bc c789 bdbc 85e6 c7bc d069 cd3b
00000320: 8505 20bc 6351 ef3c bebc c6bc 9a3d 263d
00000330: c048 fbba c9f7 5ebb d0ec f43c d8fb a83a
00000340: d1b0 7a3c e417 92bb 3679 ddbc 6792 6bbc
00000350: d19a a93c 24a5 053c 09e0 663c 1885 b9bb
00000360: 0c14 4a3c b2d5 3fbb 3f9e 003c 9888 ab3c
00000370: ccd6 a03c 6005 7a3b 90ec 783c cda3 cebc
00000380: 1543 953b 8c8f 273c 3e31 74bc 4aa7 4f3c
00000390: 9b23 69bc 51ec 6d3a cdac 123d 6370 99bc
000003a0: fdd0 49bc 6ac8 0bbc 971b a33c 7de8 bcbc
000003b0: 4342 8bbc a5b5 a23c 2f7c 073c 9365 903b
000003c0: e84c eebb 8ecc dd3c 3599 0f3d 0014 a03a
000003d0: 6916 bf3b afd2 7c3c 856c c83b 6075 21bc
000003e0: 4568 0a3b f84a 1dbc fa19 de3c 24f5 28bb
000003f0: c781 c83c 6147 d7bc 9a20 6bbc 04d6 f8bc
-0.0030176365 6.832457e-05 0.0149805145 0.024457946 -0.0029724294 -0.022145057 0.019185903 0.010002835
0.035648458 0.006165196 0.015985439 0.028105376 0.019526456 -0.005669806 -0.012785499 0.025589775
0.012748835 -0.02789328 0.015003686 0.017090026 -0.0016198802 -0.01858784 0.035256494 -0.0076050893
0.018050442 0.029412726 -0.021518715 -0.027415594 -0.02978904 -0.029908396 0.0018868448 0.009948514
-0.040970486 0.03290652 0.009002524 0.012188602 0.0040740906 -0.018110385 -0.006751703 0.01845438
-0.011093791 -0.017739102 -0.025479874 -0.007888096 -0.015239534 0.027471075 -0.008722695 0.03767668
0.017196693 -0.014033314 0.015461384 0.027975306 0.020850364 0.027509494 0.024705175 0.018303443
-0.02184596 0.022652024 0.03271475 0.012596227 0.015897634 -0.019618033 -0.004956148 0.034041315
0.012315193 0.0014428658 0.015755188 0.00718717 -0.010194228 0.002740183 -0.02782883 -0.027993832
-0.017211547 0.018934082 0.016167378 -0.0055329707 -0.03362145 0.021294681 0.02416199 0.024989797
-0.0073863817 -0.011999223 0.021414679 -0.018563928 0.019103259 -0.033169057 -0.0047539417 -0.018377513
-0.011851659 0.0011434143 0.03407566 -0.004806419 0.016046004 -0.0114291245 0.0013875444 0.01363304
0.0035978444 0.019342318 0.014664191 0.02278168 0.008438021 -0.011111454 0.0015479005 -0.007781717
-0.0090413615 -0.014539647 0.012701796 -0.010961689 0.019692821 -0.01632896 0.010894488 0.015521449
0.016048694 -0.015714865 0.034280326 -0.020717038 -0.047431916 -0.04242029 0.014658504 0.04301888
-0.028605144 -0.010380331 0.02080945 0.023090322 0.02000887 -0.015317046 -0.004159234 0.0043753325
0.005945438 -0.014864574 -0.03662649 -0.0052143424 -0.00041346633 -0.021711333 0.026741773 0.008469565
-0.014164594 -0.02042671 0.0026321237 -0.0027328301 0.018043568 0.022867203 -0.01754135 -0.011542281
-0.019232668 -0.014143841 -0.01886378 -0.0005150041 0.007392106 0.013482275 0.005599367 -0.033696976
-0.018725853 -0.009450084 -0.027438594 -0.035049573 -0.015510435 0.031247007 0.006108983 -0.014634611
0.033645816 0.019270528 0.016533377 -0.007752291 -0.00788453 -0.02213653 0.00054177904 0.018763516
-0.013509445 -0.022285521 0.018036416 -0.022248155 0.02098797 0.010748549 0.006154164 -0.021581704
-0.011423838 -0.012055063 0.02160783 0.020716734 0.013820313 0.029903775 -0.0057297605 0.007865819
-0.006147693 0.040779788 0.031713318 0.005332023 0.010127314 0.02520032 0.033893052 -0.016772212
-0.0044806777 -0.0017028521 0.01544482 0.010226117 -0.015177189 -0.023136986 -0.024401912 0.0062687173
-0.009766941 0.029213613 -0.024259921 0.04058609 -0.0019171461 -0.0034022203 0.029898077 0.0012892438
0.015300945 -0.0044584144 -0.027035337 -0.014378167 0.020703705 0.008157048 0.0140915 -0.005661618
0.012333881 -0.002927166 0.007850229 0.020939156 0.019633673 0.0038150176 0.01519312 -0.02522459
0.004555116 0.010227095 -0.014904318 0.012674162 -0.01422968 0.00090760464 0.035809327 -0.018730348
-0.012317893 -0.008531669 0.019910617 -0.023060078 -0.01699937 0.019862005 0.008269354 0.00440664
-0.0072723515 0.027075078 0.03505822 0.0012212992 0.005831529 0.01543109 0.006116452 -0.009854645
0.0021119278 -0.0096003935 0.027111996 -0.002578088 0.024475945 -0.026279153 -0.014351035 -0.030375488

fc1.bias f4 [2]
00000000: 3474 93bc 9fff 9bbc
-0.017999746 -0.019042788
