model/m_all_model_68.75.pth (torch, 310249 bytes, 17 tensors)

conv1.weight f4 [16, 1, 1, 51]
000000 ee 77 a2 bd bb 05 b0 3d f8 7b 96 bd df 21 b6 bd
       -0.07933031 0.08594843 -0.07347864 -0.08893179
000010 77 e8 a2 3c 2c 0d cb bc f1 74 92 bd da af fc 3d
       0.019886239 -0.024786554 -0.07151211 0.123382285
000020 8d 8c a3 bc ec 3f 0d bd e4 a2 0c 3d fa a2 b1 bd
       -0.01996448 -0.03448479 0.034335032 -0.086736634
000030 03 b7 f6 bd 05 6f c3 bc b4 89 65 3d 64 d6 07 3e
       -0.120466255 -0.02385665 0.056039527 0.13265377
000040 c6 1c ac 3a c9 24 0d be 5a 67 a2 bd 06 aa 8a 3d
       0.0013131134 -0.13783564 -0.07929869 0.06770711
000050 39 4e 14 3d 27 3b ae 3d 01 fb a8 3d de 49 4e bd
       0.03620741 0.08507376 0.08251 -0.050363414
000060 03 70 19 bc d3 04 0f 3e df 71 f7 3d bd bd 95 3d
       -0.009365085 0.13966684 0.12082266 0.0731158
000070 52 1d 25 bd 17 0c 8b 3d d3 25 00 3e 5e 53 86 3d
       -0.040311165 0.06789415 0.12514429 0.0655887
000080 7c 1e 81 3d 26 a9 01 3e 84 1e cf bb 19 10 69 bc
       0.063046426 0.12662181 -0.0063207764 -0.014225029
000090 0d 51 d6 bd 58 ff ae 3c 3d 01 83 bd 1f b8 7b 39
       -0.10464678 0.021361992 -0.063967206 0.00024005816
0000a0 b2 b0 17 bd c1 9a 07 bd 84 b8 b4 3d ae 7f 30 bd
       -0.037033744 -0.03310657 0.08824256 -0.043090515
0000b0 34 f0 a5 3d 20 56 7b 3b fd c6 e8 3d 07 b9 ef 3c
       0.08102456 0.0038350895 0.11366079 0.029263033
0000c0 01 80 1c 3b a6 6c 0c 3e d4 ca ff bd b9 f9 d2 bd
       0.0023880007 0.13713321 -0.12489858 -0.10301537
0000d0 67 a2 01 3e 52 a0 f7 3d 9f 14 f5 bc 60 62 07 3e
       0.12659608 0.120911255 -0.02991706 0.13221121
0000e0 77 20 93 bd 87 bb 40 3c 6b 56 ee 3d 3a 46 11 3d
       -0.071839266 0.01176346 0.11637577 0.035467364
0000f0 83 6e 03 be 05 c5 df bc f5 0d 38 bd 46 e8 f2 3c
       -0.12835126 -0.027315626 -0.044935185 0.029651772
000100 ea 9f d3 3d 21 ac ed 3d 22 1a a1 bd 63 e5 b3 3d
       0.103332356 0.116050966 -0.078663126 0.087839864
000110 4f 4c f9 bd 28 84 e1 3d bf 79 2d bd 8e a6 9b bd
       -0.12172758 0.11011535 -0.042352434 -0.07600127
000120 14 24 0d 3d 21 c2 2e 3d e0 75 24 bc cc 20 2a 3c
       0.034458235 0.042665605 -0.010037869 0.010383796
000130 ea 20 13 bd 10 50 8f 3c dd c5 b7 3c 3c 27 06 3d
       -0.03592006 0.017494231 0.022433216 0.03275226
000140 cf 7c c0 bd 3a 91 b7 bd c2 68 06 be ae 4a 16 3d
       -0.09398805 -0.08963247 -0.131259 0.036692314
000150 29 9a 0d 3c 9e a5 ef 3d 01 f8 8b bd 14 2d 50 bd
       0.008642712 0.11701511 -0.06834412 -0.05082424
000160 0a f6 03 be ee 76 80 bd a8 34 54 bd 13 39 5c bd
       -0.12886825 -0.06272684 -0.05180803 -0.053765368
000170 69 85 94 bd 57 b1 54 3b b8 8c 0d bd 71 8d d5 bc
       -0.072520085 0.0032454336 -0.034558028 -0.026068421
000180 5f 82 7d bd 55 ce c4 bd 23 40 f0 bd 6b ae d2 3d
       -0.06189191 -0.09609667 -0.11730983 0.10287174
000190 08 e6 d4 3d f0 35 bb 3d e3 ae a3 bd e8 35 e1 bd
       0.103954375 0.09141147 -0.07992341 -0.1099661
0001a0 e1 8b b5 bd c7 86 50 3d 26 8d f4 bc 50 a2 b5 bc
       -0.088645704 0.050909784 -0.029852461 -0.022172123
0001b0 70 32 a2 3d 25 c1 a5 3d 03 64 04 3e a1 82 8d 3d
       0.079197764 0.0809348 0.12928776 0.06909681
0001c0 46 d0 b7 bb 6c b4 de bd 4c c3 a5 bd 49 6f 91 3d
       -0.005609545 -0.108742565 -0.080938905 0.07101304
0001d0 a3 5a da bc f3 7b 09 3e 34 bc b7 3d f7 9c a7 bd
       -0.026654547 0.13426189 0.08971444 -0.081842355
0001e0 b1 30 c4 bc 0c 3e 91 3c 9f 0c c1 3d 57 bf a2 3d
       -0.023949 0.017729782 0.094262354 0.079466514
0001f0 33 a0 6c ba da 10 a8 3d d0 d2 ed bd 81 ad 51 bd
       -0.0009026557 0.08206339 -0.11612475 -0.051190857
000200 a5 7d c6 bc f1 0d ec bd a6 9e 95 3d c9 95 0a 3e
       -0.024229834 -0.115260966 0.073056504 0.13533701
000210 67 bb 45 bc 91 a3 8b bd 7f 68 0e 3e ce 65 dd 3d
       -0.012068606 -0.06818307 0.1390705 0.10810433
000220 d4 fa 62 3d 99 9f 07 3e a7 29 e7 3d 85 a7 bd 3d
       0.05541499 0.13244475 0.112872414 0.092604674
000230 18 df 10 bd db 97 08 be 63 21 8d bd 01 21 95 bd
       -0.03536901 -0.13339178 -0.06891134 -0.072816856
000240 c1 0e 49 3d 63 fd a3 bd 81 a2 90 3d e2 db 67 bc
       0.049086336 -0.08007314 0.07062245 -0.014151545
000250 0c 63 ea 3d 4e 6c 42 3c 5d a2 e0 3d 02 88 8a 3b
       0.11444673 0.011866642 0.10968468 0.004227639
000260 72 70 da bd b5 e3 25 bd c3 8d cc bc b1 3a d0 bc
       -0.106659785 -0.04050036 -0.024969941 -0.025418611
000270 fb 1a f2 3b 45 23 77 bd 7b a0 d4 3d 3b e7 0e be
       0.00738847 -0.06033637 0.10382172 -0.13955395
000280 33 b8 15 3d 26 3e 93 bd 10 bc 4a bd 50 8c 31 3d
       0.03655262 -0.07189588 -0.049495757 0.043346703
000290 79 51 fb bc 2b 66 80 3d 3b 97 39 bd 6a 2b 5d bc
       -0.030678498 0.06269487 -0.04531024 -0.01349912
0002a0 32 3a 07 be e2 02 ea 3d 07 2c 25 3d 38 a9 03 be
       -0.13205793 0.11426331 0.04032519 -0.1285752
0002b0 99 ad 84 3d de bb 1d bd fd 05 73 3b 4a 5e 03 3e
       0.064784236 -0.038509242 0.0037082427 0.12828937
0002c0 31 c4 5c 3d c9 4b a2 bd 0f 45 48 3d 0d 19 21 3c
       0.05389804 -0.07924611 0.048893984 0.009832633
0002d0 31 2f b6 3d 39 21 e7 bd 5d 3f 05 be 5f 8f 7a bd
       0.0889572 -0.112856336 -0.13012452 -0.061171886
0002e0 b5 64 90 bd 7b 6a 7f 3d 49 e5 0d be 24 d9 0d 3d
       -0.07050458 0.062357407 -0.13856997 0.03463091
0002f0 2b bc 1f 3d 07 f1 0b 3e 92 8f b8 bc 4a 8d 24 3c
       0.03899781 0.13666163 -0.022529397 0.010043452
000300 b5 44 c0 3d a1 18 cb bd f7 5a a0 bd be 5d 91 3d
       0.09388105 -0.09916807 -0.0782985 0.07097958
000310 f3 bb ff bd 0c 43 0b be 0b 40 a5 bd 3b 76 02 3e
       -0.1248702 -0.13599795 -0.08068856 0.12740414
000320 25 93 aa bc 72 1b 4e bd f4 2b d1 3d 7a a5 9b bd
       -0.020822117 -0.050319143 0.102134615 -0.075999215
000330 b8 46 0c bd 52 31 0b be 7c cd d2 3d 50 00 e4 3d
       -0.03424713 -0.13593033 0.10293099 0.11132872
000340 83 a2 f9 3d 82 74 f1 bc 3f 52 ce bc 21 6f 06 bd
       0.121892 -0.0294745 -0.025185702 -0.032820825
000350 f9 5e 56 bc 07 0f 5c 3b c3 2d 59 3d a4 ed be bb
       -0.013084167 0.0033578293 0.053022157 -0.005826669
000360 1d 1f 0a 3d 84 0e 5b bb 25 d3 e0 3d 86 eb 03 be
       0.03372108 -0.00334254 0.109777726 -0.12882814
000370 68 cf c0 bd cd 41 d7 bd 7d f7 03 3e 4d c9 08 be
       -0.094145596 -0.105105974 0.12887378 -0.1335804
000380 66 6f ab 3c a1 8e b1 3d 85 63 2d 3d a1 5c e4 bd
       0.020927142 0.086697824 0.042331237 -0.1115048
000390 ef ea 84 bc 3d 87 bd 3d 1a 59 97 3d 9e b9 77 bd
       -0.016225306 0.0925431 0.07390042 -0.060479753
0003a0 42 12 54 bd ac b5 09 be 5d 55 b8 bd 63 ab d7 bc
       -0.051775225 -0.13448209 -0.09000657 -0.02632684
0003b0 59 b5 44 3d c6 c8 4a 39 8a 2c fd bd 41 c0 96 bd
       0.04802451 0.00019339015 -0.12362011 -0.07360888
0003c0 07 76 90 3d f3 ee 75 3d f8 f0 9c 3d f8 98 dd bd
       0.07053762 0.060042333 0.07663149 -0.10820192
0003d0 a2 66 b5 3d 05 42 f3 bd f8 61 56 bd f0 0a 9b bd
       0.08857466 -0.118778266 -0.052339524 -0.075704455
0003e0 2c 93 d9 bc 40 36 09 be 69 f3 0b bd 8c 5f 7c bd
       -0.026559435 -0.13399601 -0.03416768 -0.061614558
0003f0 08 29 58 bd 30 d7 d8 bb 27 bc cd 3d f3 60 c1 bd
       -0.052773505 -0.006617449 0.10045653 -0.0944232

batchnorm1.weight f4 [16]
000000 d2 5c 80 3f 4a 99 7f 3f 94 37 80 3f 86 15 7f 3f
       1.0028327 0.99843276 1.0016961 0.9964222
000010 cb 83 80 3f d6 ad 7f 3f 83 4f 80 3f a2 88 7f 3f
       1.004022 0.9987463 1.0024265 0.9981786
000020 7d 8f 7f 3f c2 3f 7f 3f bd 16 80 3f 6b af 80 3f
       0.9982832 0.9970666 1.0006939 1.0053533
000030 b8 04 7e 3f 23 ae 7f 3f fd ef 7f 3f 1c 05 80 3f
       0.9922595 0.99875087 0.9997557 1.0001559

batchnorm1.bias f4 [16]
000000 34 95 08 39 5d b1 db b8 4c c0 19 b8 ca 62 99 b8
       0.00013025553 -0.0001047577 -3.6657133e-05 -7.3140094e-05
000010 52 49 05 38 38 8a 6f b6 64 d7 55 b8 9d b4 69 38
       3.1777956e-05 -3.569423e-06 -5.0983756e-05 5.5719738e-05
000020 2a 72 17 39 09 e1 f3 b7 36 fe 6f 36 ab 6d 1e 39
       0.00014443012 -2.9072648e-05 3.5761745e-06 0.00015108909
000030 79 b4 37 39 95 4f 7c 36 65 eb b5 37 ae 66 30 b8
       0.00017519471 3.759725e-06 2.1686496e-05 -4.2057298e-05

batchnorm1.running_mean f4 [16]
000000 22 2f 8d bc 55 d8 13 3c 9b dc 87 bc be d5 72 3c
       -0.017234389 0.009023746 -0.016584685 0.014821468
000010 3a 6c 94 3c 06 45 26 bc d3 10 2b bc 27 85 75 bb
       0.018118013 -0.010148292 -0.010441023 -0.0037463398
000020 a3 cb a8 bb 12 db 3a bb 75 e4 60 bc e7 99 08 3d
       -0.0051512285 -0.0028511924 -0.013726343 0.033349898
000030 a0 c5 96 bb 2c 5e a8 3c 61 da 80 3c a6 0d 5b bc
       -0.0046011955 0.020552717 0.015729131 -0.013369953

batchnorm1.running_var f4 [16]
000000 bd 58 de 40 08 e9 ab 40 32 a5 be 40 d3 47 55 40
       6.9483323 5.372196 5.9576654 3.3325088
000010 11 3a ad 40 68 dc 60 40 90 cf e6 3f 35 88 99 40
       5.413338 3.5134525 1.8032093 4.797877
000020 6c 4f 3e 40 6c c8 46 40 c5 d1 96 40 00 58 4f 41
       2.9735975 3.1059828 4.7131066 12.958984
000030 32 0d 2f 40 af b5 22 41 79 c7 68 40 f0 45 6b 40
       2.7351804 10.169356 3.6371748 3.6761436

conv2.weight f4 [32, 1, 2, 1]
000000 eb 9e 1d 3d ec a5 f4 3e 3c a9 20 3c b7 3f 8d 3e
       0.038481634 0.47782838 0.009805974 0.27587673
000010 33 18 18 be ce 86 eb 3e 37 2c e0 bb a1 44 81 3e
       -0.14852981 0.46001285 -0.0068412083 0.25247672
000020 b9 f4 54 bc bf f6 93 be 86 65 f3 bd b2 9b 20 3f
       -0.0129978 -0.2889919 -0.118845984 0.6273757
000030 4c 0d 33 3e 9d cf 2b bf dc 09 ba be 39 9a 1a bf
       0.17485541 -0.6711367 -0.36335647 -0.60391575
000040 45 d5 91 3e 9b 77 83 be e1 87 e8 3e c2 b3 89 be
       0.28483024 -0.2567719 0.45416167 -0.26894957
000050 22 ac 8b 3c 52 b2 43 be 02 6c 34 3f 94 32 1b bf
       0.017049853 -0.19110993 0.70477307 -0.6062405
000060 b0 24 99 3e c0 bc b2 be c6 c6 73 3e 82 45 47 bc
       0.29910803 -0.3490963 0.23806295 -0.012162568
000070 c9 b8 31 bf 33 48 9a be 9d a8 96 3e bf 37 c6 be
       -0.69422585 -0.3013321 0.29425517 -0.38714406
000080 ca 9c 32 bf 04 3a 1b bf bf 22 96 be 28 73 14 bf
       -0.6977049 -0.606354 -0.29323384 -0.57988214
000090 b1 25 0b 3d 78 3d 28 bf 49 3b 4b 3d 9f 08 88 be
       0.033971492 -0.65718794 0.049617086 -0.26569077
0000a0 d8 80 cc 3d 5c 4d 99 be fb 1c 08 3d 3c 08 6c 3e
       0.099855125 -0.29941833 0.033230763 0.23050016
0000b0 22 fd 01 3f fc f8 20 3e 22 3b 0b 3f 03 c8 b4 be
       0.50776875 0.1571998 0.54387105 -0.35308847
0000c0 17 e9 d1 be 07 80 07 be 7e 88 06 bf 85 e4 33 be
       -0.40998146 -0.13232432 -0.5255202 -0.17567642
0000d0 09 f1 0c 3f cd b8 c4 be 00 4a e3 3e bc 34 25 bf
       0.5505529 -0.38422242 0.44392395 -0.6453359
0000e0 89 c6 43 bb 7c b7 8c be 04 93 fe 3e 55 a8 1f 3f
       -0.0029872975 -0.27483737 0.4972154 0.6236623
0000f0 28 fc 08 3f 41 0d 0d bf 0f f9 fd 3d d0 22 f4 be
       0.5350976 -0.5509835 0.1240102 -0.4768281

batchnorm2.weight f4 [32]
000000 12 2b 80 3f 9e 56 80 3f 8a c8 7f 3f 11 a8 7f 3f
       1.0013144 1.0026433 0.99915373 0.99865824
000010 39 41 80 3f f6 b2 7f 3f dd cb 7e 3f a4 26 80 3f
       1.0019904 0.9988245 0.9952982 1.0011792
000020 c4 8f 80 3f ef f3 7f 3f 84 a9 7f 3f 71 19 80 3f
       1.0043874 0.9998159 0.99868035 1.0007764
000030 95 1c 80 3f 13 43 80 3f 0f 00 80 3f 08 87 7f 3f
       1.0008723 1.002047 1.0000018 0.99815416
000040 bd bd 7f 3f 71 a0 7f 3f 7b 60 7f 3f 43 53 7f 3f
       0.9989889 0.9985419 0.9975659 0.9973642
000050 16 57 80 3f bd 81 7f 3f d8 8d 80 3f 15 99 80 3f
       1.0026577 0.9980734 1.0043287 1.0046717
000060 28 5b 7e 3f bc 7b 7e 3f cc a2 7f 3f 16 fa 7f 3f
       0.99357843 0.99407554 0.99857783 0.99990976
000070 f0 ee 7f 3f 53 06 80 3f 71 bd 7f 3f c9 1f 80 3f
       0.99973965 1.000193 0.9989844 1.00097

batchnorm2.bias f4 [32]
000000 3d c4 c9 3a 3b 09 33 3b 27 b5 4d bb 94 d0 f8 39
       0.0015393567 0.0027318734 -0.0031388493 0.0004745765
000010 fb d5 86 ba 57 e8 9d ba 19 99 0b bb 75 d6 06 3b
       -0.001028716 -0.0012047392 -0.002130097 0.0020574604
000020 29 ff 1c 3b 17 70 93 ba 9d e0 d2 ba 63 8d 45 ba
       0.0023955798 -0.0011248615 -0.0016088668 -0.0007536022
000030 a2 25 40 3a 84 f4 8a ba 31 a8 8a bb 5f c1 63 bb
       0.00073298265 -0.0010601436 -0.0042314758 -0.003475271
000040 50 6c 8b b9 dd 1e 61 ba ee c4 a5 bb e4 a2 af bb
       -0.00026592845 -0.0008587668 -0.0050588762 -0.0053599942
000050 06 12 0f 3b 3f 62 f7 b9 e3 d9 18 3b e4 5a 95 3b
       0.0021830811 -0.0004718471 0.002332323 0.004557954
000060 2d c5 f5 bb 73 5e ca bb 92 21 3a b9 43 fe d7 3a
       -0.007500312 -0.00617581 -0.00017750848 0.0016478974
000070 0e d3 c4 b9 9d 6f 32 bb 66 d9 0f bb 58 ee 96 3a
       -0.0003754128 -0.0027227171 -0.0021949648 0.0011515124

batchnorm2.running_mean f4 [32]
000000 e9 2c 5e b8 8d ef 9d b7 9c a8 9a b8 16 74 e8 b5
       -5.297075e-05 -1.8827408e-05 -7.374698e-05 -1.7319132e-06
000010 11 ad 91 38 db c0 ab 37 78 fc 28 39 5e 5a 05 ba
       6.946375e-05 2.0474594e-05 0.0001611578 -0.0005087013
000020 3f 87 a5 39 a6 d1 0b 3a 64 67 50 37 13 75 06 ba
       0.0003157202 0.0005333669 1.2421839e-05 -0.000512914
000030 f3 c5 a5 b9 25 ce a2 b9 d0 26 20 39 35 ab b1 b8
       -0.00031618736 -0.00031052637 0.00015273248 -8.4719075e-05
000040 8c 9b 69 39 39 28 84 38 66 da e4 37 41 26 a4 35
       0.00022278557 6.3017425e-05 2.7281418e-05 1.2230086e-06
000050 c7 52 7a b8 9c 7f 8e b8 77 43 70 3a a8 28 56 3a
       -5.9681737e-05 -6.794857e-05 0.00091653265 0.00081695104
000060 b7 61 c1 38 23 75 f6 38 55 0a 12 3a ff 7a d3 39
       9.221158e-05 0.000117520125 0.00055709976 0.00040336695
000070 c5 e6 75 b8 96 8c 53 3a de a8 0c ba 29 a5 76 b8
       -5.8627473e-05 0.000806996 -0.00053657393 -5.8804788e-05

batchnorm2.running_var f4 [32]
000000 27 b7 84 3e 9a 83 a7 3d 1e a8 1d 3e 5b e9 80 3d
       0.25920984 0.08179398 0.15396163 0.06294509
000010 5b 63 b9 3d 26 a0 a7 3e e0 9a b1 3e 4b 42 44 3f
       0.09052154 0.3273937 0.34688473 0.76663655
000020 a1 27 7b 3d c3 8c 0a 3e 50 95 09 3d 09 42 b4 3e
       0.06131709 0.13530259 0.03358966 0.3520663
000030 28 d1 b4 3d d5 b4 5c 3d 83 42 57 3f 51 26 c7 3d
       0.08828956 0.053883392 0.84085864 0.09724105
000040 c8 df b0 3f c7 3a 23 3f 09 d2 d2 3e 34 dd 6b 3d
       1.3818293 0.6376156 0.4117587 0.057584003
000050 4e 44 85 3d f1 38 85 3d 6e 69 c5 3e 8a 66 4b 3e
       0.06507169 0.06505001 0.38557 0.19863334
000060 0a 0e 80 3e 69 7d d5 3e e5 ea 4b 3e 14 00 8d 3e
       0.2501071 0.41697243 0.19913824 0.27539122
000070 14 74 a0 3d 5f 44 83 3f e5 54 72 3e 65 c5 33 3e
       0.0783464 1.025524 0.23665197 0.17555769

conv3.weight f4 [32, 32, 1, 15]
000000 d1 69 c3 3a 98 3c 29 3d 7f 89 3d bc d4 42 14 3d
       0.0014908855 0.041317552 -0.011568426 0.036196545
000010 f5 d8 61 3c d5 91 21 bd 36 b1 b0 bc 09 3e 30 bc
       0.013784637 -0.039445717 -0.021568876 -0.010756978
000020 21 da 1b bd 58 cf f5 bc 16 7e f5 3c 7c 20 de bc
       -0.03804982 -0.030006096 0.029967349 -0.0271151
000030 4e 96 80 bc 69 ed a7 3c 3a e1 28 3d 77 d9 e4 bc
       -0.01569667 0.020498948 0.041230418 -0.027935727
000040 82 b6 cc bc 1f 86 7f bb 7c 1d 61 bc c4 be ac bc
       -0.02498937 -0.0038989855 -0.01373994 -0.021087058
000050 fc 2f 5f 3c 6d 57 b6 bb ef 60 0a bd 9e 82 27 3c
       0.01362228 -0.005564621 -0.03378385 0.010224013
000060 05 60 db bc 56 ff fa bb 92 09 1e 3d f7 8d d0 bc
       -0.026779184 -0.007659833 0.038583346 -0.02545832
000070 57 f4 23 3d 0b eb e2 bb 4b ae 8a 3c f2 84 3e bd
       0.040027943 -0.006924992 0.016928812 -0.046513505
000080 21 ea 26 bc 1d 3d b6 3b ba 81 05 3d 75 26 cf bc
       -0.010187657 0.0055614845 0.03259442 -0.025286892
000090 a9 4f 82 3c cd 10 34 bc d6 7a 9b 3b b0 63 bc bc
       0.015907126 -0.010990334 0.004744868 -0.022996753
0000a0 a8 17 12 3a 27 b1 8c bb 08 f4 1f 3d 4c e0 11 bc
       0.0005572983 -0.004293579 0.039051086 -0.008903574
0000b0 02 fd 9d 3c db ef 3b bd 01 91 24 3c c7 06 94 3c
       0.019285683 -0.04588304 0.010044337 0.018069638
0000c0 83 9b 3b bc 6a eb 9e 3c d0 f4 17 3d e5 49 c8 b9
       -0.011450651 0.019399364 0.037098706 -0.00038202028
0000d0 73 e9 9a bc 67 d5 0a ba a2 0b b9 3b 48 5b fe bc
       -0.018910145 -0.00052960817 0.0056471387 -0.031049386
0000e0 51 30 00 bc 02 a5 3a bd 98 9e 13 bd 73 96 e2 bc
       -0.0078240195 -0.04556752 -0.03603992 -0.02765963
0000f0 28 94 6e 3c cb 7a 48 bb 1a 7e 0e bd 3c c7 c9 3c
       0.01456169 -0.0030590768 -0.03478823 0.024631135
000100 bf 1f db 3c 5b f9 88 bc c4 47 0c bb e9 d7 de 3c
       0.026748536 -0.016720464 -0.002140508 0.027202563
000110 c3 00 78 3c 55 1d e2 3b 12 72 99 bc cb ef 82 bc
       0.0151369 0.0069004693 -0.01873115 -0.015983483
000120 27 62 f6 bc 8c 51 2f 3d 77 71 c4 bc 2a c8 04 3d
       -0.0300761 0.04280238 -0.023979886 0.032417454
000130 a4 88 1d 3b c5 f7 8e b8 c1 a6 1a 3d 6c 8f d7 bc
       0.0024037743 -6.817238e-05 0.037756685 -0.026313506
000140 d3 d4 5c 3b 7f c4 51 3c ca 97 2d 3c 53 aa d0 3c
       0.003369619 0.012803196 0.010595271 0.025471842
000150 79 dc 21 bd 5b 4f 0e bc 85 9d 19 bd af 85 08 3d
       -0.0395169 -0.008685912 -0.037503738 0.033330616
000160 96 fe 94 3c 8a 62 05 3d 1b f3 ef 3c 69 1c 40 3d
       0.018187802 0.032564677 0.029290726 0.046902094
000170 8b 51 0d bd 01 d3 8b 3b 1a 49 06 3d 63 e0 f0 bc
       -0.034501594 0.004267097 0.03278456 -0.02940387
000180 5d fd 8a 3b 4b ab 25 bd f0 1c ae 3c 4c 5a a8 3c
       0.004241629 -0.04044656 0.021254033 0.02055087
000190 a0 d5 68 bc a7 24 5a 3c 3d bc 0e bc 15 f1 14 3b
       -0.014211088 0.013314403 -0.008711872 0.0022726704
0001a0 84 2b 15 bd 3b fb d1 bc 08 5b 23 bd ce 01 80 3c
       -0.036418453 -0.025632491 -0.039881736 0.01562586
0001b0 6c b1 1b 3d 16 05 86 3b ea 17 e4 bc 6b 5b bb 3c
       0.038011 0.0040899618 -0.027843434 0.02287074
0001c0 de 75 40 3c 51 e2 d5 3a e2 f6 1e bc ba 94 86 3b
       0.011746852 0.0016318058 -0.009702416 0.004107085
0001d0 5e e2 29 bd 26 b8 5e 3b df 92 14 3b 58 2f 27 bd
       -0.041475646 0.0033984273 0.002267055 -0.040816635
0001e0 a0 8b 0e 3d ff 23 00 3d a7 04 20 bb c1 a1 20 3d
       0.034801126 0.03128433 -0.0024416836 0.03921676
0001f0 aa 7d 2b 3c f5 72 d2 bc fb 47 01 bd f6 fd 15 3d
       0.010466972 -0.025689581 -0.031562787 0.03661915
000200 7d 65 9e bb 8a 3c 22 bd 0b 72 a4 3c e3 20 5b 3c
       -0.0048338757 -0.039608516 0.020073911 0.01337454
000210 15 0b 71 3c c5 17 73 3c f7 01 b4 3c ed cb 1f bd
       0.014712115 0.01483721 0.021973593 -0.03901284
000220 50 f3 03 bc d3 80 1c bc 69 e9 ac 3b 2f 0c 07 bd
       -0.008053616 -0.009552198 0.005276848 -0.032970604
000230 35 47 15 3c 7b f9 f2 3c 60 cd 04 3d 30 db 05 3d
       0.009111215 0.029659977 0.032422423 0.032679737
000240 05 41 7f 3c bd f8 82 bc e2 99 20 3d 0c 55 dc 3c
       0.015579467 -0.015987748 0.039209254 0.026896022
000250 22 35 72 3c 70 57 99 bc 9b 39 93 3b a5 07 03 3c
       0.014783176 -0.018718451 0.004492951 0.007997428
000260 f6 2b a6 bc 50 9b 84 3c db 86 0e 3d c1 ae 2b bd
       -0.020284634 0.01618734 0.034796577 -0.041914705
000270 6c 98 b7 bc 22 2d bb bc fb 30 3d bc 1a 93 bc 3c
       -0.022411548 -0.02284867 -0.011547322 0.023019362
000280 85 c9 bb 3c fc 1e c8 bb 41 9d c6 bc d0 28 29 3c
       0.02292324 -0.0061072093 -0.024244906 0.010324672
000290 fe 9f 1e bd 54 b8 04 bd 83 6c 80 bc 9f 9a b9 bc
       -0.0387268 -0.03240235 -0.015676742 -0.022656737
0002a0 db 34 4b bc cf 4f bc bc 55 c2 c3 3c 4b 2c 01 3d
       -0.012402738 -0.022987274 0.023896376 0.03153638
0002b0 e6 b9 0f 3d 12 f6 ef 3c 28 6f 87 3c 76 28 21 bd
       0.035089396 0.02929214 0.016532496 -0.039345227
0002c0 ec a7 16 3a 86 00 14 3d b3 de b6 3b d1 ff 40 bc
       0.0005747068 0.03613331 0.005580747 -0.011779741
0002d0 79 22 fd 3c d2 7b a0 3c a3 21 38 3c 00 93 6b bc
       0.030900227 0.019590292 0.011238488 -0.014378309
0002e0 0c ca a9 3c 21 ab e2 bb 00 12 18 bd b1 6b 58 3c
       0.020726226 -0.006917373 -0.03712654 0.013209269
0002f0 14 39 03 bd 3b a6 29 3d f0 43 d2 3c 9a 85 49 bd
       -0.032036856 0.041418295 0.02566716 -0.049199678
000300 84 3d 41 bc a0 ee 01 3c c0 53 0e bd e6 cc db bb
       -0.011794452 0.007930428 -0.03474784 -0.0067077754
000310 27 bc 55 bc 7e a3 c7 3c f6 77 2e bd 3d f9 ac 3c
       -0.013045347 0.024369951 -0.042594872 0.02111494
000320 5c 20 06 bd b8 cb ce bb bb 16 e6 bc 62 70 8d 39
       -0.032745704 -0.0063109063 -0.02808701 0.00026977347
000330 2c 6f 16 3c 56 53 ca ba 67 b5 3c bd fe 79 d1 bc
       0.009181779 -0.0015436213 -0.046071436 -0.025570866
000340 24 a5 95 bc 64 d6 0e bd 56 ac 0c bd 77 bf 0b 3d
       -0.018267222 -0.034872428 -0.03434404 0.034118142
000350 cb 67 76 3c 0c 38 73 bb 79 8f 1b bc 48 7b 31 bd
       0.015039395 -0.0037112264 -0.009494656 -0.04333046
000360 7b bd 9e 3c 9a 23 19 bc f8 29 eb 3c 19 65 31 3d
       0.01937746 -0.009346867 0.028706536 0.043309305
000370 89 d6 0e bd de 7c 00 ba a4 b7 3b bc 80 47 00 bd
       -0.034872565 -0.0004901419 -0.011457358 -0.031318188
000380 69 49 65 bb b7 25 b6 3c d9 79 9f bc b2 47 f5 bc
       -0.0034986383 0.02223478 -0.019467281 -0.029941414
000390 88 97 21 bd 09 dc 65 bc 9d 8a f5 3c ab 57 35 bd
       -0.039451152 -0.014029511 0.029973323 -0.04427306
0003a0 33 31 09 3d 53 de c4 3c bb b5 2c bc 98 be 0c bd
       0.033494186 0.024031794 -0.010541375 -0.034361452
0003b0 d4 d4 10 3d ed 40 82 3c cb 16 b0 bc e1 99 8d 3c
       0.03535922 0.0159001 -0.021495244 0.01728529
0003c0 57 64 bf 3b 27 2a 8b 3c f6 88 9e 3c f7 c4 1c bd
       0.005840819 0.016987873 0.019352417 -0.038273778
0003d0 7d 89 28 3d 3e 27 14 3c c7 4f c2 bb 98 0b 19 3d
       0.041146744 0.009042559 -0.0059299204 0.037364572
0003e0 fb 0e bc bc 81 06 2b bb 45 c2 29 bb 0f 76 a6 3b
       -0.022956362 -0.0026096406 -0.0025903147 0.0050799916
0003f0 a9 59 cf bc 35 24 c0 bb 04 a9 e5 3c 01 1f 9d 3c
       -0.025311308 -0.005863691 0.028034694 0.019179823

batchnorm3.weight f4 [32]
000000 42 cd 80 3f f7 d6 80 3f 95 f5 80 3f 94 d1 80 3f
       1.006264 1.0065602 1.0074946 1.0063958
000010 03 e8 80 3f 3b cb 80 3f 6c d8 80 3f 73 be 80 3f
       1.0070804 1.0062021 1.0066047 1.005812
000020 5a d0 80 3f 68 af 80 3f 86 e7 80 3f e1 bb 80 3f
       1.0063584 1.005353 1.0070655 1.0057336
000030 c4 dc 80 3f 53 6e 80 3f 97 1c 81 3f e5 a6 80 3f
       1.0067372 1.0033668 1.008685 1.0050932
000040 66 ca 80 3f ca 88 80 3f 77 58 80 3f 8c e8 80 3f
       1.0061767 1.0041745 1.0026997 1.0070968
000050 c6 e5 80 3f ac 8e 80 3f 49 a8 80 3f c1 e4 80 3f
       1.0070121 1.004354 1.0051357 1.006981
000060 cd b1 80 3f ca 82 80 3f ab e8 80 3f 84 d8 80 3f
       1.005426 1.0039914 1.0071005 1.0066075
000070 8a 80 80 3f b7 ec 80 3f 82 16 81 3f a4 5e 80 3f
       1.0039227 1.007224 1.0084994 1.0028882

batchnorm3.bias f4 [32]
000000 87 a2 82 3b b2 b3 4e 3b 61 03 9c 3b 0a 4e 80 3b
       0.00398666 0.0031540212 0.004761145 0.003915553
000010 61 33 65 3b 02 63 99 3b 8c 78 65 3b 21 d7 89 3b
       0.0034973251 0.004680992 0.0035014478 0.0042065536
000020 66 dc 88 3b b2 58 78 3b 90 53 68 3b d0 82 1b 3b
       0.004176664 0.0037894663 0.0035450198 0.0023729093
000030 e4 05 7f 3b ef da 12 3b 83 fe ac 3b 19 d0 71 3b
       0.0038913423 0.0022408327 0.0052793636 0.0036897718
000040 29 95 85 3b 41 89 05 3b 9d fe bb 3a 29 7d 9c 3b
       0.004076619 0.0020376 0.0014342848 0.0047756624
000050 5a 4d 3e 3b bb da 71 3b f9 23 2b 3b b7 73 af 3b
       0.0029037804 0.0036904055 0.002611397 0.0053543705
000060 97 06 3e 3b 49 28 b0 3a c6 bd 79 3b cc ca 70 3b
       0.0028995627 0.001343974 0.0038107499 0.003674197
000070 19 22 03 3b f4 45 ac 3b b1 26 d8 3b 9c 87 d5 3a
       0.0020009337 0.0052573625 0.0065964093 0.0016291025

batchnorm3.running_mean f4 [32]
000000 67 b9 43 be 61 eb 79 3e fc 72 e9 3d 05 9f 81 bd
       -0.19113694 0.24406196 0.11398885 -0.06329159
000010 6c b2 8d be 70 6e 28 bd cc 15 96 3e 9c 5c b3 3e
       -0.27675188 -0.041120946 0.29313505 0.35031593
000020 52 18 88 3d c1 a9 60 be c6 4f 65 3e cf 7d b5 3c
       0.06645264 -0.21939756 0.22393712 0.022154717
000030 94 d2 88 bd 54 a6 81 3e 3b 73 b5 3d 8a ed 2c 3d
       -0.066807896 0.2532221 0.08859869 0.042218722
000040 b5 4c e5 be 61 0e 1c be 50 75 75 be 79 d5 0d be
       -0.44785085 -0.1523986 -0.23970532 -0.13850965
000050 56 83 a5 3e 52 21 85 be 59 22 01 3d 61 96 a6 bd
       0.32326764 -0.26001984 0.031526897 -0.08134151
000060 5f 5c b5 be 71 6a 6c bd 14 64 ec 3e 3e 90 a8 3d
       -0.35422036 -0.057718698 0.46170104 0.08230637
000070 49 c5 b7 3e 8c 1a 2b bd d4 42 c7 3e 9c e7 b9 3c
       0.35892704 -0.041773364 0.38918173 0.022693448

batchnorm3.running_var f4 [32]
000000 f2 50 55 3e a6 13 82 3e 44 ea a3 3e 8a 0e 41 3e
       0.2083166 0.25405616 0.32014668 0.18853202
000010 cd 6c ab 3e ad 5a 50 3e ab 0f 63 3e ea b5 47 3e
       0.33481446 0.2034709 0.22173946 0.19502988
000020 1f a8 4d 3e 5b e9 5d 3e 55 ad 68 3e 35 8c 25 3e
       0.20083664 0.2167105 0.22722371 0.16166766
000030 b9 9a 27 3e 38 24 0b 3e ac 69 83 3e 9e 4f 48 3e
       0.16367616 0.13588035 0.2566656 0.19561622
000040 cf da 67 3e 88 0f 2e 3e e3 e5 15 3e 5e 6c 6b 3e
       0.22642063 0.16998112 0.14638476 0.22990558
000050 a6 e7 20 3e 33 05 57 3e 18 34 27 3e 51 13 95 3e
       0.15713367 0.20998077 0.16328466 0.291163
000060 8a 21 25 3e ff 90 02 3e 00 bb 59 3e 88 13 a2 3e
       0.16126075 0.12750624 0.21262741 0.31655526
000070 28 ff 5b 3e 59 a5 4b 3e b6 cb a6 3e 43 3f 13 3e
       0.21484053 0.19887294 0.32577294 0.14379601

fc1.weight f4 [2, 29760]
000000 25 47 b1 3b 0a a4 4c 3a 51 b7 f4 3b bd fc 3f 3b
       0.0054100924 0.0007806426 0.007468142 0.002929493
000010 87 e9 76 3b 52 2b 09 bb c7 b9 94 3b 93 2b cf 39
       0.0037675814 -0.0020930362 0.004538748 0.00039514582
000020 4f 80 1c bb 38 d6 77 3a 2d 76 61 3b dd 8d 02 3b
       -0.0023880189 0.00094542233 0.0034402714 0.0019920983
000030 20 3c d7 ba 55 91 75 ba 5c dd 9b 3b e5 29 26 3a
       -0.0016421117 -0.00093676645 0.0047566127 0.000633864
000040 ae 63 29 ba dd 01 ff 3a c5 95 4f 3a c4 ff 36 bb
       -0.0006461692 0.0019455511 0.0007918741 -0.0027923444
000050 5e 4b 26 ba 8b 88 1f bb b4 61 65 3b d8 9b 6c bb
       -0.0006343628 -0.002434286 0.0035000863 -0.0036103632
000060 d1 19 69 3b 93 5e 4e bb 36 2a 1e 3b e5 0b c7 3a
       0.0035568366 -0.0031489476 0.0024134046 0.001518604
000070 43 73 7b bb 4f d6 58 bb 40 d7 da 3b 49 75 12 bb
       -0.0038368262 -0.0033086722 0.006678492 -0.002234774
000080 a6 8b 1e bb ea aa 4b 3a 66 36 8e bb b3 16 d0 3b
       -0.0024192124 0.00077693036 -0.004339981 0.006350362
000090 c1 b8 68 3a 03 8e 92 3b 5c c4 24 3a 81 da 8b bb
       0.0008877628 0.0044724955 0.00062853633 -0.004267991
0000a0 76 04 b8 b9 53 95 a6 bb 49 58 28 bb b8 2c 4e 3b
       -0.00035098539 -0.005083719 -0.0025687388 0.003145976
0000b0 f2 20 1e 3b a3 e9 e6 3a 38 a4 b1 3b 78 dc 4c 3b
       0.0024128524 0.0017617237 0.0054211877 0.003125934
0000c0 d3 a8 51 38 f9 71 cb ba 7c bb aa 3b ae 78 c2 3b
       4.9986713e-05 -0.0015521637 0.005210338 0.0059347963
0000d0 d4 72 90 3b 1d 77 ba bb 84 8b 6c 3a 41 0d 70 3b
       0.00440822 -0.005690469 0.0009023475 0.0036628994
0000e0 bc b2 5b bb 55 a7 a5 3b 7c f2 82 ba 83 5a af bb
       -0.0033523282 0.005055348 -0.0009990479 -0.005351366
0000f0 12 d6 58 bb 95 b2 26 3b a3 9a 99 bb f3 42 ca 3b
       -0.003308658 0.0025436033 -0.0046876236 0.0061725318
000100 39 65 a2 bb 63 09 6d bb 64 15 8b 3a 0f 8e c2 3a
       -0.0049559143 -0.0036168925 0.0010611233 0.0014843362
000110 f0 63 a5 bb 07 63 c0 3a f4 f3 63 3b 93 33 61 3b
       -0.005047314 0.001467795 0.0034782859 0.0034363016
000120 b6 5e 12 b9 54 17 8d 3b 46 bf 95 bb 7e 32 9b ba
       -0.00013958928 0.0043057594 -0.0045699207 -0.0011840609
000130 ff 69 19 39 1e 5f 9c bb 75 21 a2 bb 7d cf 31 3b
       0.00014630704 -0.004772081 -0.004947836 0.002713173
000140 be 9f b2 3b 33 6c 63 3b 12 93 01 bb 33 bc 03 3b
       0.0054511717 0.0034701943 -0.0019771499 0.002010119
000150 d6 b9 b5 bb 73 89 34 bb 8d 83 4f 3b 2c 28 76 bb
       -0.005545835 -0.0027547746 0.0031664104 -0.0037560565
000160 b6 cc 47 bb 09 d4 c2 3b f5 2a d5 bb 91 97 07 3a
       -0.0030487007 0.0059456867 -0.006505365 0.00051724265
000170 8f 77 b5 bb 0e e5 3e bb bb 64 e4 ba 36 ba 97 bb
       -0.005537934 -0.0029128226 -0.001742504 -0.0046303524
000180 ac 11 8c 3b b8 8e 9e 3a 98 a3 a7 3b 38 99 a8 bb
       0.0042745676 0.0012096977 0.0051159374 -0.005145218
000190 06 f1 4b 3b 23 17 b7 3b aa 55 13 bb 4f a9 a8 3a
       0.0031119003 0.005587475 -0.002248148 0.0012867841
0001a0 ce d2 24 bb 56 5a dc bb fc 95 25 3b dc 32 44 3b
       -0.0025150063 -0.006724636 0.00252664 0.002993754
0001b0 d3 3d 1a 3b 11 11 d0 bb da f8 92 3a 9a fa 1d 3b
       0.0023535385 -0.0063496907 0.001121308 0.002410567
0001c0 90 4a 86 bb f0 86 7a 3b cc 2b bc 3b 6d 4c 44 bb
       -0.004098244 0.0038227402 0.0057425257 -0.002995278
0001d0 ba 33 c3 ba d9 d7 9d 38 21 60 5f 3b dc 53 cd 3a
       -0.0014892735 7.526548e-05 0.0034084397 0.0015665251
0001e0 1b cd 63 3a 98 6a 98 3b 73 59 d8 3b 54 34 0f 3a
       0.0008689926 0.004651379 0.00660246 0.00054628146
0001f0 15 9e e6 ba 5a 4a 94 39 7f 72 91 3a d4 92 44 bb
       -0.001759472 0.00028284156 0.0011096745 -0.0029994743
000200 64 0c c4 3a 7e 80 01 bb c7 bd 77 bb 65 0e 5f bb
       0.0014957306 -0.0019760425 -0.0037802325 -0.003403568
000210 f3 81 92 3a 82 1e cc 39 1a 75 c4 3a 22 98 cc 3a
       0.0011177644 0.00038932642 0.0014988512 0.0015609304
000220 59 38 9f bb ac a9 0e bb 5a f7 d9 ba a9 e0 83 ba
       -0.004859012 -0.0021768613 -0.0016629503 -0.0010061461
000230 df fd 84 3b 32 c6 fe 39 a6 1f 28 3b d3 18 b8 b9
       0.004058584 0.00048594322 0.002565363 -0.0003511371
000240 1b 91 af 3b 34 de ea 3a 42 63 85 bb a8 62 b6 3b
       0.005357874 0.0017919005 -0.0040706703 0.00556596
000250 45 53 93 3a 05 c1 47 3b a4 4f 5d bb ab c7 3a bb
       0.0011240026 0.003048004 -0.0033769393 -0.002850036
000260 7f d4 49 bb 66 f7 d2 ba 6c 0c d6 3b cd bc 87 ba
       -0.0030796824 -0.0016095459 0.0065322425 -0.001035595
000270 97 d5 d3 bb f5 4c 0e 3a 03 61 46 3b ea b9 3c bb
       -0.006464671 0.00054283376 0.0030270226 -0.0028797337
000280 62 c6 40 3a 92 56 82 b9 80 cb 27 bb 92 0f 53 ba
       0.000735378 -0.00024860032 -0.0025603473 -0.00080513314
000290 05 ff 2d bb dc e9 e9 3a a9 68 bb bb 9b 81 33 b8
       -0.0026549709 0.0017846185 -0.0057192636 -4.279763e-05
0002a0 b3 90 6f ba 28 c0 53 bb a8 75 dd 3a 6b 67 92 38
       -0.00091386883 -0.003231058 0.0016896026 6.9810856e-05
0002b0 79 34 d4 bb 73 23 9b bb 8f 5b a5 3b 9a 70 a0 bb
       -0.006475982 -0.0047344505 0.005046315 -0.0048962357
0002c0 fe ab f2 ba eb d6 5d ba bc 78 ad 3b 6d f2 a2 b9
       -0.0018514392 -0.0008462506 0.0052939337 -0.0003107967
0002d0 0d 8f ae ba 2d 0e 03 bb 58 db ad 3a 17 b1 c8 3a
       -0.0013317779 -0.0019997463 0.0013264222 0.0015311566
0002e0 40 2f 64 3b 8d 64 a0 3b 27 79 1e bb f1 30 13 3b
       0.0034818202 0.004894799 -0.00241811 0.0022459591
0002f0 21 79 3f 38 18 01 01 bb 8c 01 5c ba e4 06 3b 3b
       4.565076e-05 -0.001968449 -0.00083925645 0.0028538043
000300 dc 91 06 bc 4e 29 c1 ba d9 43 b8 bb 00 b2 5c 3b
       -0.0082134865 -0.0014737041 -0.0056233224 0.0033675432
000310 ed 99 7e bb c7 d5 21 b9 19 b6 b8 bb df ef ad bb
       -0.003884907 -0.00015433795 -0.005636942 -0.005308136
000320 7a e8 4b 3b 94 45 99 3b ad f7 11 3b 71 4b 58 bb
       0.0031113909 0.004677484 0.002227287 -0.003300395
000330 2f 9a ed ba da 18 9f bb 17 49 b7 3b c7 bc 69 3b
       -0.0018127615 -0.0048552575 0.00559343 0.0035665499
000340 c0 40 a3 ba e1 85 91 3b 5b 6c f6 b9 e9 c3 92 bb
       -0.001245521 0.0044410084 -0.00047001507 -0.0044789207
000350 1b 53 d1 b9 ad 7d c4 b9 ff e6 de bb 4b 71 b9 bb
       -0.00039925505 -0.0003747767 -0.006802439 -0.0056592575
000360 da 70 d0 bb 68 4a 6e 3b 9f 93 9d 3b 5c d4 a8 3b
       -0.006361109 0.0036360268 0.0048088576 0.0051522683
000370 6a 22 88 3b 4f 03 3b bb d5 ef e3 3b 33 48 35 3b
       0.004154493 -0.0028535908 0.0069560804 0.0027661442
000380 f4 2b 89 3b 96 a4 f2 ba c3 62 5a bb f8 b8 98 3b
       0.004186148 -0.0018512185 -0.0033323027 0.004660722
000390 6e bc 9e 3b 93 3b 89 bb e8 6b 5f ba e8 b2 e6 bb
       0.00484424 -0.00418801 -0.0008522854 -0.0070403703
0003a0 3c ec 99 bb 01 ff cc bb fd 43 3c 3b 7f 4c dc ba
       -0.004697351 -0.006255985 0.0028727048 -0.0016807466
0003b0 ba af 3d 3b 65 c2 9a bb 33 8f e7 3a c8 5d ad 3b
       0.0028943853 -0.0047228807 0.0017666578 0.0052907206
0003c0 b2 74 12 3a f8 c3 86 bb 3a 52 8e ba 53 7f 50 bb
       0.0005586847 -0.0041127168 -0.0010858246 -0.0031814172
0003d0 0e e0 42 bb 3e ed 61 bb 59 cd 8c 3a ff 84 10 bb
       -0.0029735598 -0.0034473683 0.0010742351 -0.0022051928
0003e0 89 d8 2a 3b c6 41 ec b9 b1 df 3b 3b b8 0d e2 ba
       0.0026069006 -0.00045062433 0.0028667266 -0.001724652
0003f0 8e cd 68 3b f0 42 a7 3b 55 ad 8f 3b 5d 55 68 ba
       0.003552291 0.005104415 0.0043846765 -0.0008862818

fc1.bias f4 [2]
000000 02 ce 45 bb ec dc 93 bb
       -0.0030182605 -0.00451242
