model/m_remove_model_68.75.pth (torch, 88041 bytes, 17 tensors)

conv1.weight f4 [16, 1, 1, 51]
0	0xbd170300	-0.036868095
1	0xbe09c7eb	-0.13455169
2	0x3c25c516	0.01011779
3	0x3dc7a581	0.09748364
4	0x3e016786	0.12637147
5	0xbdb3c3ed	-0.08777604
6	0xbc2657f7	-0.010152808
7	0x3d9590b7	0.07302993
8	0xbdcf6b5f	-0.10127901
9	0x3d87269e	0.065991625
10	0x3da55078	0.08071989
11	0xbd113da2	-0.03545917
12	0x3de9e93d	0.1142144
13	0x3e12c9ba	0.14334765
14	0x3cd5d49e	0.02610236
15	0xbdae8e58	-0.08523244
16	0xbdcb97fa	-0.099410966
17	0xbdec40dd	-0.11535809
18	0x3dda755e	0.10666917
19	0xbd63bf6d	-0.05560248
20	0x3df56c10	0.11983502
21	0x3cf899c9	0.030346768
22	0x3d9f16f7	0.07768052
23	0xbdc6ed61	-0.09713245
24	0x3d90fe61	0.07079769
25	0x3dd177a4	0.10227898
26	0x3cae449f	0.021272955
27	0x3d1e9504	0.03871633
28	0xbc536fda	-0.012905085
29	0xbdd14e1c	-0.10219976
30	0xbc6d8c32	-0.014498757
31	0xbdb84d80	-0.08999157
32	0x3db6253f	0.08893823
33	0xbda9ca77	-0.0829057
34	0x3de8301e	0.113373026
35	0xbd358219	-0.044313524
36	0xbcdae011	-0.026718171
37	0xbd93c182	-0.07214643
38	0xbe005540	-0.1253252
39	0xbd49bc8f	-0.04925209
40	0x3e053ec5	0.13012226
41	0x3d132096	0.03591975
42	0xbe02f112	-0.12787274
43	0xbe0be386	-0.13661012
44	0x3da9e668	0.082959
45	0xbc931651	-0.017954977
46	0x3caf34bb	0.021387449
47	0x3dc38355	0.09546534
48	0xbe057fd6	-0.13037047
49	0xbb131e40	-0.002244845
50	0xbcf8793d	-0.030331248
51	0xbdd8a7b7	-0.10578864
52	0xbcfc2868	-0.030780986
53	0x3da8c2d5	0.08240286
54	0xbd86d533	-0.06583633
55	0x3dc9b082	0.09848119
56	0xbd8d0f07	-0.06887632
57	0x3b63935f	0.0034725291
58	0xbd0374db	-0.032093864
59	0xbdfe5d0c	-0.12420091
60	0xbd95d92c	-0.07316813
61	0xbcb77c76	-0.022398215
62	0x3cfca8da	0.030842233
63	0xbda93408	-0.08261877
64	0x3d852927	0.0650199
65	0xbd7680e0	-0.0601815
66	0xbdc50283	-0.0961962
67	0x3d5181de	0.05114924
68	0xbdd90cdb	-0.10598155
69	0x3c68b529	0.014203348
70	0xbe175b3d	-0.14780898
71	0xbdc43c61	-0.09581829
72	0xbe0fdabe	-0.14048287
73	0xbdfe3233	-0.124119185
74	0x3e00305d	0.12518449
75	0x3b12dad8	0.0022408273
76	0xbdbb18a1	-0.09135557
77	0x3ce04088	0.02737452
78	0xbda71145	-0.08157591
79	0x3df1c996	0.118060276
80	0x3d666903	0.05625249
81	0xbe0ac20f	-0.1355059
82	0x3d526e17	0.05137452
83	0xbdd096db	-0.101850234
84	0xbe0f036f	-0.13966154
85	0xbcd06542	-0.025438908
86	0x3c93a5cf	0.0180234
87	0x3ddd587c	0.10807893
88	0x3d994705	0.07484249
89	0xbd1ff644	-0.039053217
90	0x3dc3df03	0.095640205
91	0x3cc8c942	0.02451003
92	0x3b838da8	0.0040146895
93	0x3dd44dd7	0.10366409
94	0x3cc53336	0.02407227
95	0xbdacd609	-0.084392615
96	0xbd9ebf21	-0.07751299
97	0xbddc16af	-0.10746514
98	0x3d897049	0.0671087
99	0xbd8d64d0	-0.06903994
100	0x3c50ed2d	0.01275186
101	0xbc236e55	-0.009975036
102	0xbdfbfd0a	-0.12304123
103	0xbb237d6d	-0.0024946586
104	0xbcd015dc	-0.025401048
105	0xbd8afdf7	-0.06786721
106	0xbd13e11f	-0.036103364
107	0xbbbfd68f	-0.005854435
108	0x3df94c3c	0.12172744
109	0x3bd0e7be	0.006375282
110	0xbcef333e	-0.029199239
111	0x3e0d01f7	0.13770281
112	0x3e0c3e98	0.13695753
113	0xbd839d56	-0.06426494
114	0x3dd24f8d	0.10269079
115	0x3d232629	0.039831314
116	0xbde7fc3f	-0.11327409
117	0xbd19b3a1	-0.037524823
118	0x3cfcef97	0.030875964
119	0x3dd1917d	0.10232828
120	0xbdbc11ea	-0.09183104
121	0x3ddc6a67	0.10762482
122	0xbe129621	-0.14315082
123	0xbd8041b9	-0.062625356
124	0xbe01916e	-0.12653133
125	0x3ddfb295	0.10922734
126	0xbd47fef8	-0.04882714
127	0x3cb092a2	0.021554295
128	0xbdc4f057	-0.09616154
129	0xbe14cc45	-0.14531048
130	0xbc5a7c59	-0.013335311
131	0xbd0ea038	-0.034820765
132	0x3ce7fa1a	0.0283175
133	0xbbef3924	-0.007300513
134	0x3dc1b974	0.094592005
135	0xbdf12d38	-0.11776203
136	0x3e00ad74	0.12566167
137	0x3afffb4e	0.0019529851
138	0xbc922dd2	-0.017844114
139	0x3ad75313	0.0016427956
140	0x3a1ea39c	0.00060516014
141	0x3dacd3f8	0.08438867
142	0xbe0533ed	-0.1300809
143	0x3d5e6dbb	0.054303866
144	0xbdbedc4c	-0.09319362
145	0xbd6dbf4c	-0.058043763
146	0x3e07de04	0.13268286
147	0xbd83b7ed	-0.064315654
148	0xbb835218	-0.004007589
149	0xbb542907	-0.0032373087
150	0x3dd58654	0.10426012
151	0x3d4fcfc4	0.05073525
152	0x3b88899a	0.004166794
153	0x3d54a3af	0.051913913
154	0xbd137447	-0.035999563
155	0x3d24560e	0.04012113
156	0x3d4ea221	0.050447587
157	0x3d446320	0.047946095
158	0xbe05cf6e	-0.1306741
159	0xbd7a205f	-0.061066028
160	0xbd254605	-0.04034998
161	0x3dcb2f52	0.09921135
162	0xbdb14a0e	-0.08656703
163	0x3c8be228	0.017075613
164	0xbe05655e	-0.1302695
165	0xbc7eb277	-0.015545479
166	0xbd8d5a58	-0.06901997
167	0xbe0310a6	-0.1279932
168	0xbc55eebc	-0.013057407
169	0xbd4662c1	-0.048434023
170	0x3dee4601	0.11634446
171	0x3d1b6a6a	0.03794328
172	0x3c867d92	0.016417298
173	0x3b9c40da	0.004768473
174	0xbd18de1a	-0.037321188
175	0xbe00453e	-0.12526414
176	0xbc987971	-0.018612595
177	0x3e0d7dfd	0.13817592
178	0x3dcc5298	0.09976691
179	0x3cc05142	0.023476247
180	0xbd4f13d0	-0.050556004
181	0xbd4a0697	-0.04932269
182	0x3de6e701	0.11274529
183	0xbb07cd09	-0.0020721576
184	0x3e09355f	0.13399266
185	0xbdc10449	-0.094246455
186	0xbe03aa20	-0.12857866
187	0x3df9c6bb	0.12196108
188	0xbc7866da	-0.0151612405
189	0xbcff8b74	-0.031194426
190	0x3b36adce	0.0027874592
191	0x3c85016b	0.016236028
192	0x3dfdbad7	0.123891525
193	0x3d62986f	0.055321153
194	0xbdd85822	-0.10563685
195	0x3dba8b09	0.0910855
196	0x3bef0ee3	0.007295476
197	0xbdfe7405	-0.12424473
198	0xbdf28eae	-0.1184362
199	0xbd05edd8	-0.03269753
200	0x3d44239c	0.047885522
201	0x3da3519c	0.0797455
202	0xbe0832d4	-0.1330064
203	0xbe112771	-0.14175202
204	0xbd9b016d	-0.07568631
205	0xbc8eb10d	-0.017418409
206	0xbc1f245a	-0.009713257
207	0xbdcfd69f	-0.101483576
208	0xbdc0f450	-0.09421599
209	0x3d953baf	0.07286774
210	0xbd2b2490	-0.041782916
211	0x3ca69349	0.020333903
212	0x3dc3b6ba	0.09556337
213	0xbdbfceb5	-0.09365598
214	0x3cef1e8e	0.029189374
215	0x3d462749	0.04837731
216	0x3e0433f7	0.12910448
217	0xbded2d7b	-0.1158094
218	0x3dcd7599	0.100321956
219	0x3d9db158	0.07699841
220	0x3cb2c49b	0.021822264
221	0x3ddd223c	0.10797545
222	0xbd05520c	-0.03254895
223	0xbd938fc3	-0.07205155
224	0xbde6b70b	-0.112653814
225	0x3de5988d	0.112107374
226	0x3da2c776	0.079482004
227	0x3d88114e	0.066439256
228	0xbdcd8898	-0.10035819
229	0x3debb0c4	0.11508325
230	0xbdf72747	-0.120680384
231	0x3e0e9eb3	0.13927726
232	0x3e02f1cb	0.12787549
233	0x3d9d1aea	0.07671149
234	0xbd1c2463	-0.03812064
235	0xbd6a437a	-0.057193257
236	0x3e0efdef	0.13964055
237	0xbca92497	-0.02064733
238	0x3d6f6466	0.058445357
239	0x3d18386a	0.037163176
240	0xbdf20a88	-0.11818415
241	0x3b80ab9f	0.003926709
242	0x3dd09757	0.10185116
243	0xbdcbe761	-0.099562414
244	0xbe0b4dcd	-0.13603897
245	0x3dbea498	0.093087375
246	0x3dd6b979	0.10484595
247	0x3c27d402	0.010243418
248	0xbd8b2357	-0.0679385
249	0xbdf3317c	-0.11874673
250	0x3d1f545c	0.03889881
251	0x3bbcfaa4	0.0057671834
252	0xbe108a2d	-0.1411521
253	0xbdad06a3	-0.084485315
254	0xbd197bce	-0.037471585
255	0xbd61a949	-0.055093084

batchnorm1.weight f4 [16]
0	0x3f8046db	1.0021623
1	0x3f824086	1.0175941
2	0x3f7ee677	0.9957041
3	0x3f7c2734	0.9849732
4	0x3f7fed82	0.99971783
5	0x3f7a1184	0.97682977
6	0x3f7f803f	0.99805063
7	0x3f80f34a	1.0074246
8	0x3f7adf91	0.97997385
9	0x3f7f31cc	0.9968536
10	0x3f816030	1.0107479
11	0x3f803a06	1.0017707
12	0x3f7bfc73	0.9843208
13	0x3f7fa4fb	0.99861115
14	0x3f82f9bb	1.0232462
15	0x3f84526d	1.0337654

batchnorm1.bias f4 [16]
0	0x391de123	0.00015056557
1	0x39fba7e4	0.0004799954
2	0x3a75984d	0.0009368703
3	0x3ade9fe5	0.0016984908
4	0x392c9220	0.00016457634
5	0xba015880	-0.0004934147
6	0xb929e15e	-0.00016201052
7	0x3aa473e6	0.0012546747
8	0xb9a3c948	-0.0003123975
9	0xb9c448d1	-0.00037438286
10	0x3a27090c	0.00063718925
11	0xba4073f4	-0.0007341497
12	0x3a7e2b23	0.0009695759
13	0xb728aed5	-1.0054287e-05
14	0x388e933e	6.798514e-05
15	0xb96250ce	-0.00021583142

batchnorm1.running_mean f4 [16]
0	0x3b43a9c5	0.002985583
1	0x3d17da50	0.037073433
2	0x3bc63cb5	0.0060497173
3	0x3c79d41c	0.015248325
4	0xbb7f0eb0	-0.0038918667
5	0xba88ecab	-0.0010446509
6	0xbc73c55d	-0.014878598
7	0xbc3f58ed	-0.011678916
8	0x3caac079	0.020843731
9	0xbcf15275	-0.029458264
10	0xbd140cb3	-0.036144923
11	0xbc320d67	-0.010867453
12	0xbcb38899	-0.02191572
13	0xbcc079a6	-0.023495506
14	0xbd0c3892	-0.034233637
15	0x3d0d94cd	0.034565736

batchnorm1.running_var f4 [16]
0	0x402060fa	2.505919
1	0x41459166	12.347998
2	0x400eed1d	2.2332222
3	0x4055993b	3.3374774
4	0x409870d3	4.7637725
5	0x3fb1c80b	1.3889173
6	0x40a32539	5.098294
7	0x40978997	4.7355456
8	0x40a1a89c	5.051832
9	0x410fbc93	8.983539
10	0x4118955f	9.536468
11	0x4098f3e6	4.7797728
12	0x41438755	12.22054
13	0x409c65c8	4.8874245
14	0x41092daa	8.573648
15	0x4124bf9b	10.296779

conv2.weight f4 [32, 1, 2, 1]
0	0x3f082ed4	0.53196454
1	0xbf16bbe6	-0.5888046
2	0xbf07d927	-0.53065723
3	0x3f1da7da	0.61584246
4	0xbed67d9d	-0.4189271
5	0x3ee91418	0.45523143
6	0x3f14c82a	0.58117926
7	0xbe6b235f	-0.22962712
8	0x3eda6015	0.4265143
9	0xbe0fd74b	-0.14046971
10	0xbf03cd8d	-0.5148552
11	0xbeefab7a	-0.46810514
12	0xbe62f75e	-0.22164676
13	0xbea32d4d	-0.318705
14	0xbf34c134	-0.70607305
15	0xbe9784c3	-0.29593477
16	0x3f2ad2f7	0.66728157
17	0x3d8cd3d6	0.06876342
18	0xbf3503bb	-0.7070882
19	0xbcab5af9	-0.020917403
20	0xbf1a92c8	-0.6038022
21	0xbf1e584d	-0.61853486
22	0x3f179822	0.5921651
23	0x3f125e67	0.57175297
24	0xbed47bdc	-0.41500747
25	0x3f273209	0.6531072
26	0xbed756e6	-0.42058486
27	0x3e341115	0.17584641
28	0xbe6da502	-0.23207477
29	0x3f075243	0.52859896
30	0x3f032897	0.5123381
31	0x3b2f163d	0.0026716136
32	0xbe27ec92	-0.16398838
33	0xbec3d05a	-0.38244897
34	0xbc84dd51	-0.016218813
35	0xbeedd504	-0.4645158
36	0x3e362b3a	0.17789927
37	0x3e1925a1	0.1495576
38	0x3e8dc44a	0.2768882
39	0x3f239cc8	0.63911104
40	0xbeb39e67	-0.3508179
41	0xbf048614	-0.51767087
42	0xbc7f293b	-0.015573795
43	0x3e2b8891	0.16751315
44	0x3ef6af3e	0.48180574
45	0xbc9e64bd	-0.019335145
46	0xbf1a3aaf	-0.60245794
47	0x3f285a67	0.65762943
48	0xbf0bee2c	-0.54660296
49	0xbe3f4185	-0.18677337
50	0xbed7b113	-0.42127284
51	0xbeae6d4d	-0.34067765
52	0xbe9e55ef	-0.30924937
53	0x3e53b7b9	0.20675553
54	0xbdae8081	-0.08520604
55	0xbe6b7f34	-0.22997743
56	0xbf309d07	-0.68989605
57	0x3f3288a5	0.69739753
58	0xbd7d8d9e	-0.061902635
59	0xbec4dd05	-0.38449875
60	0x3ed2e24f	0.41188285
61	0x3ea3f947	0.3202612
62	0xbe1c45be	-0.1526098
63	0x3e1ef724	0.15523964

batchnorm2.weight f4 [32]
0	0x3f7eda60	0.99551964
1	0x3f812ee2	1.0092432
2	0x3f82eb9c	1.0228152
3	0x3f7f0165	0.996115
4	0x3f7f9629	0.998385
5	0x3f7bbdb7	0.98336357
6	0x3f7c8623	0.98642176
7	0x3f7d8089	0.99024254
8	0x3f804bed	1.0023171
9	0x3f7f7dd3	0.9980137
10	0x3f7c0904	0.98451257
11	0x3f7a90e7	0.97877353
12	0x3f80a923	1.0051616
13	0x3f7ea47a	0.9946972
14	0x3f80c1c6	1.0059135
15	0x3f806e1c	1.0033603
16	0x3f7d4022	0.98925984
17	0x3f7ba487	0.98297924
18	0x3f7f8499	0.998117
19	0x3f7c3973	0.9852516
20	0x3f7db5cd	0.9910553
21	0x3f815b2b	1.0105947
22	0x3f7ec4cc	0.9951904
23	0x3f80fade	1.0076559
24	0x3f7c87c7	0.9864468
25	0x3f7e635b	0.99370354
26	0x3f804f0d	1.0024124
27	0x3f7e8452	0.99420655
28	0x3f83169f	1.0241278
29	0x3f813484	1.0094151
30	0x3f7c8516	0.98640573
31	0x3f8465d7	1.0343579

batchnorm2.bias f4 [32]
0	0xb99dc2bf	-0.0003009047
1	0x3a0a518f	0.00052764354
2	0x3cc1344a	0.023584504
3	0x3bb750b7	0.0055943388
4	0xbc4e6831	-0.012598083
5	0xbc8920a9	-0.016739206
6	0xbc433ae8	-0.0119159
7	0xbca8e639	-0.020617591
8	0xb9a873d7	-0.00032129764
9	0xbae7c4ef	-0.0017682592
10	0xbcb63bfb	-0.022245398
11	0xbc6f83a3	-0.014618787
12	0x3b93042b	0.004486581
13	0xbba1d351	-0.004938521
14	0xbb91ac75	-0.0044456073
15	0xbb8745aa	-0.0041281777
16	0xbc8b6cb9	-0.017019616
17	0xbc9b171a	-0.018931914
18	0x3b8d8ed2	0.004320004
19	0xbc8a3080	-0.01686883
20	0xbc199dd2	-0.009376006
21	0x3c02d7f3	0.007986057
22	0xbb7330d2	-0.0037107957
23	0x3c28ac35	0.010294964
24	0xbbb1664f	-0.0054138075
25	0xbca4da78	-0.020123705
26	0x3c790b5f	0.015200465
27	0xbc3bd7bd	-0.01146501
28	0x3cd7c21e	0.02633768
29	0x3b40e7bc	0.0029435
30	0xbc1c43e6	-0.009537673
31	0x3d0323e6	0.032016657

batchnorm2.running_mean f4 [32]
0	0xb9831dda	-0.00025008508
1	0x398c986f	0.00026816453
2	0x3b2ee15e	0.0026684622
3	0xbb06fc6b	-0.002059723
4	0xb91bfa16	-0.00014875116
5	0xba8267ca	-0.0009949144
6	0xbacbf874	-0.0015561716
7	0xbab6ce93	-0.0013947062
8	0x39b4dff0	0.00034499122
9	0xb9be8f4c	-0.00036346389
10	0x3a07677a	0.00051652605
11	0xba03d276	-0.00050286145
12	0xbb10fe75	-0.0022124324
13	0xba74bd86	-0.00093361025
14	0xba32dfe5	-0.0006823524
15	0x3a824e43	0.0009941537
16	0xba46f234	-0.00075891917
17	0xbaa73cee	-0.0012759247
18	0xb990fd5b	-0.00027654585
19	0xbaf33514	-0.0018555247
20	0x3a082d5e	0.00051947485
21	0xba088e9f	-0.00052092405
22	0x395412b6	0.00020224866
23	0xbac06752	-0.0014679229
24	0xba9df8ab	-0.0012052258
25	0xba32a928	-0.00068153674
26	0xbac2d4de	-0.0014864465
27	0x3a2c5e25	0.0006575308
28	0xbb7f5b04	-0.0038964162
29	0x3aa33016	0.0012450244
30	0x38618c94	5.3775104e-05
31	0x3a7ffcc7	0.0009765145

batchnorm2.running_var f4 [32]
0	0x3e61151e	0.21980712
1	0x3e6ec818	0.23318517
2	0x3df89be7	0.12139111
3	0x3e6d3835	0.23165973
4	0x3e01c886	0.1267415
5	0x3f53e0a2	0.8276464
6	0x3e835b5e	0.25655645
7	0x3f6b6d6a	0.9196383
8	0x3f0fe654	0.5621083
9	0x3f12a34e	0.57280433
10	0x3f9c3d33	1.2206177
11	0x3f8d96e9	1.1061679
12	0x3e779e1e	0.2418141
13	0x3df37cd7	0.11889046
14	0x3e33b411	0.17549159
15	0x3e96d638	0.2946031
16	0x3e884223	0.26612958
17	0x3e6c6b6a	0.2308785
18	0x3dc8a91d	0.09797881
19	0x3f4779f9	0.7792049
20	0x3f3b13f2	0.7307731
21	0x3cdcfe5b	0.026976755
22	0x3e792157	0.24329124
23	0x3e8c1117	0.2735679
24	0x3f0287a9	0.5098825
25	0x3f06a067	0.52588505
26	0x3d544e8b	0.051832717
27	0x3dc3ace9	0.09554464
28	0x3e9a968f	0.30192992
29	0x3e579458	0.21052682
30	0x3f0c155f	0.5472011
31	0x3c7c9fb8	0.015418939

conv3.weight f4 [32, 32, 1, 15]
0	0xbcda50ad	-0.026649797
1	0xbb9340f7	-0.0044938284
2	0x3ccd3e08	0.025053993
3	0xbd4faf28	-0.05070415
4	0xbc5dec8c	-0.013545167
5	0xbd38e2f3	-0.04513831
6	0xbc53b50e	-0.012921585
7	0xbc55663b	-0.013024862
8	0xbcfdfc0e	-0.031003978
9	0xbceddd1b	-0.029036095
10	0xbd2dce90	-0.04243332
11	0xbcdc23ca	-0.026872534
12	0xbd13cfef	-0.036086973
13	0x3c92e0b4	0.017929412
14	0xbd1ff219	-0.03904924
15	0x3d09029d	0.033449758
16	0xbc6b8d31	-0.014376924
17	0x3a8e80fa	0.0010872178
18	0xbcf4b83f	-0.029873012
19	0x3cf9cbff	0.03049278
20	0x3c4ee10e	0.012626899
21	0x3bc67318	0.0060562007
22	0xbd298a43	-0.041391622
23	0xbc60319d	-0.013683704
24	0x3c81b8bb	0.015835157
25	0x3a97acc2	0.0011571872
26	0x3cc04d3c	0.023474328
27	0xbba68bb7	-0.0050825733
28	0x3d2a365a	0.04155574
29	0x3d35207b	0.04422043
30	0xbc3cf609	-0.011533269
31	0xbbf46136	-0.0074578775
32	0xbb475629	-0.0030416346
33	0xbc94c3b5	-0.018159727
34	0xbd2a65b6	-0.041600905
35	0x3cf5f475	0.030023793
36	0xbc8cd956	-0.017193478
37	0x3c72574c	0.014791321
38	0x3c91ebac	0.017812572
39	0x3c97685b	0.018482378
40	0xbcba210d	-0.022720838
41	0xbcad13d3	-0.021127617
42	0xbbfbc4e9	-0.0076833856
43	0xbcade0e8	-0.021225408
44	0x3d21b7c9	0.03948191
45	0x3d42de45	0.047575254
46	0x3b857028	0.004072208
47	0xbcb41806	-0.021984112
48	0xbcb45398	-0.022012517
49	0x3d479068	0.0487217
50	0x3c5063e5	0.012719129
51	0xb95ca268	-0.00021041336
52	0xbb7b93f4	-0.0038387747
53	0x3cb47713	0.022029435
54	0xbce61429	-0.028085785
55	0x3cd8a601	0.026446344
56	0xbcc3ed7e	-0.023916956
57	0x3bd9afdf	0.00664328
58	0xbcb8db23	-0.02256543
59	0xbc25fa32	-0.010130452
60	0xbc657f42	-0.014007391
61	0xbbd3d6eb	-0.006464829
62	0xbcd6a384	-0.026201017
63	0xbccf09b2	-0.025273178
64	0xbb3bf3fe	-0.0028679366
65	0xbd0738fe	-0.033013336
66	0xb8bcaab2	-8.996333e-05
67	0xbd05563d	-0.032552946
68	0xbc71abe2	-0.014750453
69	0x3aaa1e38	0.0012978977
70	0x3c9bbbfc	0.019010536
71	0x3c6df647	0.014524049
72	0xbc2614d7	-0.010136805
73	0xbc849da4	-0.01618845
74	0xbaee86c5	-0.0018198123
75	0xbc8cfcca	-0.017210383
76	0xbc346da1	-0.011012466
77	0xbc7b5f0d	-0.015342486
78	0xbc3111ff	-0.010807513
79	0xbd1c90fd	-0.03822421
80	0xbb8bfe01	-0.004272223
81	0x3ce9bb3c	0.028531663
82	0x3b6a3761	0.0035738575
83	0x3d1a2754	0.037635162
84	0x3c87ca58	0.016575977
85	0x3cb72d2f	0.022360412
86	0xbbdf1191	-0.006807514
87	0x39b93c8e	0.00035331066
88	0x3d1f423d	0.03888153
89	0x3d0ea3cd	0.03482418
90	0xbd124ec2	-0.03571964
91	0xbd094ac1	-0.033518557
92	0x3d045044	0.03230311
93	0x3ce5e2fc	0.028062336
94	0xbd00c03a	-0.03143332
95	0xbd1cc27a	-0.038271405
96	0x3c8f1665	0.017466733
97	0x3c861294	0.01636628
98	0x3d1f43f6	0.038883172
99	0x3d3b600f	0.045745905
100	0x3d02fd82	0.031980045
101	0x3be66dba	0.0070321234
102	0xb78766e8	-1.6141174e-05
103	0xbc0b4290	-0.008499756
104	0x3d3bc821	0.045845155
105	0x3c9d9340	0.019235253
106	0xbd095b9f	-0.033534642
107	0xbb5d5749	-0.003377395
108	0x3d161e46	0.036649965
109	0xbd0508c4	-0.032479063
110	0x3c0248ce	0.007951928
111	0xbce796a0	-0.028270066
112	0xbc0b39a7	-0.008497632
113	0x3d194699	0.037420843
114	0xbc97bc52	-0.018522415
115	0xbbfb5f1a	-0.007671249
116	0x3d188f6c	0.037246153
117	0x3a9dfe7a	0.0012053989
118	0x3c17397a	0.009230012
119	0xbcdcda09	-0.026959436
120	0xbcc62063	-0.024185365
121	0xbd3f124c	-0.04664831
122	0x3b95291a	0.004552019
123	0xbd2f5da3	-0.04281391
124	0xbccfa5a8	-0.025347546
125	0xbace9b55	-0.0015762845
126	0xbcd50e59	-0.026007818
127	0xba45bdcd	-0.0007543236
128	0xbd0e5c44	-0.03475596
129	0x3a12c5dc	0.00055989414
130	0xbb8f2f27	-0.0043696347
131	0x3d2a5410	0.041584074
132	0xba0a48a0	-0.0005275104
133	0x3c4a2b3c	0.012339409
134	0xbc18f05c	-0.00933465
135	0xbc121985	-0.008917217
136	0xbc91935e	-0.017770465
137	0xbc365be6	-0.011130309
138	0x3ce460ef	0.027878253
139	0xbd107413	-0.035266947
140	0x3d22731b	0.039660554
141	0xbb9c9f2e	-0.004779718
142	0xbcc9e1b5	-0.024643758
143	0xbbb0ab26	-0.0053914962
144	0xbc893adc	-0.0167517
145	0x3aa986be	0.0012933833
146	0x3d054992	0.032540865
147	0x3d1bc597	0.038030233
148	0x3827c22b	3.9996736e-05
149	0x3be5e533	0.007015848
150	0x3c84e333	0.016221618
151	0x3d2160a4	0.039398804
152	0x3b0fd675	0.0021947895
153	0x3c97c552	0.018526707
154	0xbd0d88dd	-0.03455435
155	0x3c0f644e	0.008751942
156	0xbc581b41	-0.013190092
157	0xbcda5452	-0.026651535
158	0x3cf3b60e	0.029749896
159	0x3bddc01e	0.006767287
160	0x3c4a5d53	0.012351352
161	0xb974875a	-0.00023320076
162	0x3b5b3df0	0.0033453666
163	0x3cdc49d0	0.026890665
164	0x3c2307b3	0.009950566
165	0x3aeeba91	0.001821356
166	0x3c8dcb8f	0.017308978
167	0xbba764ee	-0.0051084673
168	0xbc8342f1	-0.016023131
169	0xbce994fc	-0.028513424
170	0xbd3413b0	-0.043964088
171	0xbcc20dc3	-0.023688203
172	0xbceddacc	-0.029034995
173	0x3d03ada4	0.03214802
174	0xbd1e16d8	-0.038596004
175	0x3d0d0482	0.034428127
176	0x3caff6f4	0.021480061
177	0xbd1c2ea1	-0.038130406
178	0xbcb14a93	-0.021642005
179	0x3c22daf5	0.009939899
180	0x3c18268e	0.009286536
181	0x3d1f2c8a	0.038860835
182	0x3c9c2485	0.019060383
183	0xbc1b0f04	-0.009464029
184	0xbd1c7da2	-0.03820575
185	0xbcc718b1	-0.024303766
186	0x3be7c64b	0.007073199
187	0xbcacc90c	-0.02109196
188	0xbce09fc3	-0.02741993
189	0x3d4a9251	0.049455944
190	0xbc784fc5	-0.015155737
191	0xbc059080	-0.008152127
192	0x3d0ea74b	0.03482751
193	0x3b9dd94a	0.0048171626
194	0xbc770cb9	-0.015078717
195	0x3ba244d3	0.004952052
196	0xbccfa4a9	-0.02534707
197	0x3c6ab3e9	0.0143251205
198	0xbc4925ed	-0.012277109
199	0x3bf053ac	0.007334193
200	0x3c20a1b1	0.009804175
201	0x3cb3a637	0.021929843
202	0x3ac52a69	0.0015042546
203	0xbcd4f2f2	-0.025994752
204	0x3c982267	0.018571092
205	0x3cadbcd9	0.021208214
206	0xbd27425d	-0.040834773
207	0xbbe371c7	-0.0069410536
208	0xbcf070a5	-0.029350588
209	0xbd64d509	-0.05586723
210	0x3be817ab	0.0070828996
211	0xbcbf7563	-0.023371404
212	0xbd325a48	-0.04354313
213	0x3ba6ffd3	0.0050964146
214	0xbd17c996	-0.03705748
215	0xbc6f52c2	-0.014607133
216	0xbca02d88	-0.019552961
217	0x3b0874e9	0.0020821637
218	0x363d60b6	2.8219488e-06
219	0xbd093fa1	-0.033507947
220	0xbc2a6f12	-0.010402458
221	0xbc584e58	-0.013202272
222	0xbd1e1343	-0.03859259
223	0xbbd2212f	-0.006412647
224	0xbd48225c	-0.048860893
225	0xbc3679ef	-0.01113747
226	0x3d31fc87	0.04345372
227	0xbcc8306b	-0.02443715
228	0xbc9c1eef	-0.019057719
229	0xbc8b3141	-0.01699126
230	0xbce0dc35	-0.027448753
231	0x3d224421	0.039615754
232	0x3c9f772a	0.019466002
233	0x3c85a582	0.016314272
234	0x3ce7b877	0.028286202
235	0x3bc1dfa8	0.0059165545
236	0xbcefb4f9	-0.0292611
237	0x3cfd050a	0.030886192
238	0x3c2e6e67	0.010646439
239	0xbb105dcb	-0.0022028561
240	0xbd0fdd3c	-0.035123095
241	0x3c340f1f	0.010989933
242	0xbc520502	-0.012818577
243	0x3ce02193	0.02735976
244	0x3cf7fc0a	0.030271549
245	0xbd037b09	-0.032099757
246	0xbcc0f1f7	-0.023552878
247	0x3bf04bf3	0.0073332726
248	0x3bc79078	0.00609022
249	0xbcc7019c	-0.02429276
250	0xbcb54b92	-0.022130761
251	0x3b3427b6	0.002748949
252	0xbd026cde	-0.031842105
253	0xbb32f8f7	-0.002730904
254	0x3bd8fe1d	0.0066220895
255	0xbd0047b8	-0.031318396

batchnorm3.weight f4 [32]
0	0x3f82b6d2	1.0212042
1	0x3f8202ad	1.0157067
2	0x3f827ea2	1.0194895
3	0x3f823bc1	1.0174485
4	0x3f82335a	1.0171921
5	0x3f8270e4	1.0190701
6	0x3f829003	1.0200199
7	0x3f80ffeb	1.00781
8	0x3f832ab2	1.0247405
9	0x3f8120ad	1.0088097
10	0x3f8137ac	1.0095115
11	0x3f8207ec	1.0158668
12	0x3f829d31	1.0204221
13	0x3f818203	1.0117801
14	0x3f849364	1.035748
15	0x3f82f765	1.0231749
16	0x3f82f2a9	1.0230304
17	0x3f82362c	1.0172782
18	0x3f81fc81	1.0155183
19	0x3f829638	1.0202093
20	0x3f83d0b0	1.0298061
21	0x3f84547c	1.0338283
22	0x3f83456c	1.0255561
23	0x3f81d8fb	1.0144342
24	0x3f81c9d6	1.013972
25	0x3f81df80	1.0146332
26	0x3f82c3ca	1.0216
27	0x3f83a910	1.0285969
28	0x3f82b8e9	1.021268
29	0x3f84c2c8	1.0371943
30	0x3f82c5b3	1.0216583
31	0x3f845fe3	1.0341762

batchnorm3.bias f4 [32]
0	0x3c8a5907	0.016888155
1	0x3c3f9864	0.011694048
2	0x3c39ac40	0.0113325715
3	0x3bf8bf19	0.00759114
4	0x3c26597d	0.010153172
5	0x3ab07b5c	0.0013464498
6	0x3c14a1fb	0.009071822
7	0x3b7b9799	0.003838992
8	0x3c25b29c	0.010113385
9	0x3adbbfa3	0.0016765486
10	0x3b84692a	0.004040857
11	0x3bd74cb0	0.006570421
12	0x3c14d07c	0.00908291
13	0x3bebef66	0.0072001694
14	0x3cbf342d	0.023340309
15	0x3c7b5854	0.015340883
16	0x3c5273c7	0.012844986
17	0x3c4447c7	0.011980004
18	0x3c1fa287	0.009743339
19	0x3c2da960	0.010599464
20	0x3c2a657b	0.010400171
21	0x3ca1332f	0.019677727
22	0x3c2f5d33	0.010703373
23	0x3c24f425	0.010067974
24	0x3be361e8	0.0069391616
25	0x3b1a3887	0.0023532228
26	0x3c1377ff	0.009000777
27	0x3c865510	0.016397983
28	0x3c0d3b74	0.008620132
29	0x3ca46cc8	0.020071402
30	0x3c6414d3	0.0139209805
31	0x3cc4f3c2	0.024042014

batchnorm3.running_mean f4 [32]
0	0xbe64bbdd	-0.22337289
1	0xbf35a99b	-0.7096192
2	0x3cc4098f	0.02393034
3	0xbdcb2191	-0.09918512
4	0x3e4a84e1	0.19777252
5	0x3e5c0335	0.21485598
6	0xbeec433a	-0.4614504
7	0x3ed04271	0.4067569
8	0x3eedf414	0.4647528
9	0x3e2b760c	0.1674425
10	0x3e9b3c08	0.30319238
11	0xbf06a2ed	-0.52592355
12	0x3e9ca3f9	0.3059385
13	0xbe22797e	-0.15866658
14	0x3e0c929b	0.137278
15	0x3e7346b1	0.23757435
16	0xbf00989f	-0.5023288
17	0xbe2e1f24	-0.17004067
18	0xbdc0378d	-0.093855955
19	0x3e2fc886	0.17166337
20	0x3f1bd39d	0.6086977
21	0xbf106150	-0.5639849
22	0x3e411daf	0.1885898
23	0xbe94a1d2	-0.2902971
24	0x3dda32ad	0.10654197
25	0x3dfb189a	0.12260552
26	0x3f3c2277	0.7349009
27	0xbe899a6b	-0.26875624
28	0x3ee60729	0.44927338
29	0xbe3fcf9d	-0.18731542
30	0x3ebca3fc	0.3684386
31	0xbdac6029	-0.084167786

batchnorm3.running_var f4 [32]
0	0x3e5acfd6	0.21368346
1	0x3e50021f	0.20313309
2	0x3e6d0221	0.23145343
3	0x3ea7a622	0.32743937
4	0x3e48d587	0.19612704
5	0x3e79656d	0.24355097
6	0x3e83b38a	0.25722915
7	0x3e8419f2	0.25801045
8	0x3e389d8f	0.18028854
9	0x3e7dc8cf	0.24783634
10	0x3e3d48f4	0.1848486
11	0x3e791d45	0.24327572
12	0x3e8d11bc	0.27552593
13	0x3e590c1f	0.2119603
14	0x3ece1a10	0.4025426
15	0x3e634077	0.2219256
16	0x3ea36e47	0.31920072
17	0x3ec3faa9	0.38277176
18	0x3e848078	0.25879264
19	0x3e6df609	0.23238386
20	0x3e9e3c80	0.30905533
21	0x3e992759	0.29912832
22	0x3ea50782	0.3223229
23	0x3e9e2162	0.30884844
24	0x3e86c618	0.2632301
25	0x3e3b5c41	0.18296911
26	0x3ec98801	0.39361575
27	0x3e67b987	0.22629367
28	0x3e8000aa	0.25000507
29	0x3e778a6f	0.24173902
30	0x3e569521	0.20955326
31	0x3e94c582	0.29056937

fc1.weight f4 [2, 1984]
0	0x3bd826de	0.00659643
1	0xbc3e8ae7	-0.011629797
2	0x3cd79870	0.026317805
3	0x3c43970a	0.011937866
4	0xbc9caa21	-0.019124093
5	0xbc2d5920	-0.010580331
6	0xba3da022	-0.00072336395
7	0xbb18aded	-0.0023297027
8	0xbb1bdb36	-0.0023781783
9	0xbc85311b	-0.016258767
10	0x3cad61e0	0.021164834
11	0x3bea3805	0.0071477913
12	0xbcb235b1	-0.021754118
13	0x3c6dadc5	0.014506762
14	0x3ca1e36c	0.019761764
15	0x3c239214	0.009983558
16	0xbc4981c3	-0.012299004
17	0x3ba7a047	0.005115542
18	0xbc0e7126	-0.008693969
19	0x3c734c50	0.014849737
20	0xbcb77960	-0.022396743
21	0xbbf4e2ef	-0.0074733417
22	0x3b2f1036	0.0026712543
23	0xbcdc9b67	-0.02692957
24	0xbc909846	-0.017650735
25	0x3bc4d6ce	0.006007052
26	0xbcda17e3	-0.026622718
27	0x3c2abb78	0.010420673
28	0xbca3b34c	-0.019982956
29	0xbc4c56cd	-0.012471867
30	0xbc14afa6	-0.009075081
31	0xbce3d083	-0.027809387
32	0x3c326a3a	0.010889584
33	0xbc050bfa	-0.008120531
34	0xbc883a91	-0.01662949
35	0xbc8959ee	-0.016766515
36	0x3c310c05	0.010806088
37	0xbc6382b8	-0.013886146
38	0xbbda3556	-0.00665919
39	0x3bcf062c	0.0063178744
40	0xbc818a09	-0.01581289
41	0x3c22d2b8	0.009937935
42	0xbb4f2228	-0.0031606052
43	0x3c13490c	0.008989584
44	0x3bffa594	0.007801721
45	0xbbad9573	-0.0052973568
46	0x37d47560	2.5327026e-05
47	0xbcb8374f	-0.02248731
48	0x3c7d4fb8	0.015460901
49	0x3c997dc8	0.018736735
50	0xbc8328f5	-0.01601074
51	0x3c523a67	0.012831307
52	0x3c031f51	0.008003072
53	0x3c8fd946	0.017559659
54	0x3c9a0faf	0.018806307
55	0xbbf3c8cd	-0.007439709
56	0x3cead772	0.028667185
57	0xbc407bef	-0.011748298
58	0x3caffe5b	0.02148359
59	0xbcceffe0	-0.025268495
60	0xbc0a2848	-0.008432455
61	0xbbac0311	-0.005249389
62	0xbc4cefbc	-0.012508329
63	0x39c36aa9	0.00037272766
64	0xbcfa8023	-0.030578678
65	0xbd066132	-0.032807536
66	0xbcb8b93e	-0.022549268
67	0xbbb36ff9	-0.0054759947
68	0x3bda7506	0.0066667823
69	0x3cae0856	0.02124421
70	0xbc1aea42	-0.0094552655
71	0xbbd7c866	-0.0065851687
72	0x3c4eb685	0.012616758
73	0xbc87aeeb	-0.0165629
74	0xbc435ff0	-0.011924729
75	0xbcdec41e	-0.027193125
76	0x3c314282	0.010819079
77	0xbd09f5b0	-0.03368157
78	0xbc6ca616	-0.014443895
79	0x3c0a2207	0.008430964
80	0xbcdb6656	-0.026782196
81	0xbc814939	-0.015781986
82	0x3c643ebb	0.013930972
83	0x3b90ce16	0.0044190986
84	0xbbe43949	-0.0069648367
85	0x3bd9fc3e	0.006652384
86	0x3c623470	0.013806447
87	0x397e19a2	0.00024232877
88	0xbc706c8b	-0.014674316
89	0xbc848f89	-0.016181724
90	0xbb833bff	-0.004004955
91	0x3b68520b	0.0035449292
92	0x3cc605ff	0.024172781
93	0xbbfc5061	-0.0077000116
94	0xbc51dd1d	-0.012809065
95	0x3c8662e3	0.016404575
96	0xbc9e94bc	-0.019358031
97	0xbc8cd8d8	-0.017193243
98	0x3c4b80dc	0.012420859
99	0x3c79f2af	0.015255614
100	0xbbf36c5e	-0.00742869
101	0x3bd2935b	0.0064262575
102	0x3a29d84d	0.00064790697
103	0xba780c98	-0.0009462326
104	0x3b29f7cb	0.002593505
105	0x3c1db665	0.009626006
106	0xbc4544a3	-0.01204029
107	0xbc8b04c3	-0.016970044
108	0xbbf56307	-0.0074886116
109	0xbc4e658d	-0.012597454
110	0x3c886d19	0.016653584
111	0x3baa4d9a	0.005197239
112	0xbc92623f	-0.017869113
113	0x3ca5dd24	0.02024705
114	0x3c797f9e	0.01522818
115	0xba87f06d	-0.0010371335
116	0xbcccb137	-0.024986846
117	0x3b901b39	0.0043977764
118	0x3b55bdbd	0.0032614314
119	0x3c99d3db	0.018777778
120	0xbc853914	-0.016262569
121	0x3c3facc8	0.011698909
122	0x3ca615d5	0.020274082
123	0x3c557172	0.013027536
124	0xbac345f2	-0.0014898165
125	0x3c948b88	0.01813294
126	0x3c4baad8	0.012430869
127	0xbc6ae661	-0.014337153
128	0xbce1dce1	-0.027571144
129	0x3a2638e9	0.0006340878
130	0xbb69287b	-0.0035577107
131	0xbcdc2fff	-0.026878355
132	0xbbd0d04b	-0.0063724867
133	0x3b1895ad	0.0023282573
134	0x3c076fb2	0.008266376
135	0x3c3cfeb2	0.0115353335
136	0x3c822f67	0.015891744
137	0x3b871f1e	0.0041235825
138	0xbc8c6bf7	-0.017141325
139	0xbb994485	-0.0046773576
140	0x3c147a77	0.009062401
141	0xbc3e74f4	-0.0116245635
142	0x3c21a743	0.009866538
143	0xbc88b43a	-0.016687501
144	0x3c8d93c2	0.01728237
145	0x3c60b077	0.0137139475
146	0xbb909a27	-0.0044129076
147	0xbba1b573	-0.0049349605
148	0xba9b25f9	-0.0011836878
149	0xbc70f4b8	-0.014706783
150	0x3cff4b59	0.031163858
151	0x3c927dfe	0.017882343
152	0xbb8a73c1	-0.0042252247
153	0x3c68fb75	0.014220108
154	0x3bf46b77	0.0074591
155	0xbc28daa8	-0.010306038
156	0xbb002338	-0.0019552242
157	0x3c864dad	0.01639446
158	0xbd0288ef	-0.03186887
159	0xbcc5d91b	-0.024151376
160	0xbb1721e9	-0.0023060984
161	0x3cbeb99a	0.023281861
162	0xbca09fcb	-0.019607445
163	0x3bb7b111	0.0056058248
164	0xbc08a422	-0.008339914
165	0xbb92bc23	-0.004477994
166	0xbc6cd33e	-0.014454661
167	0xbca56627	-0.020190312
168	0x3c33d3f2	0.010975825
169	0xbbd96112	-0.006633886
170	0xbc4fe3a2	-0.012688549
171	0x3c9962f0	0.018723935
172	0xba3b7e7b	-0.0007152331
173	0x3ca3ddc5	0.020003209
174	0xbab7a7b7	-0.0014011775
175	0xbc7b09d5	-0.015322168
176	0x3caea0a0	0.021316826
177	0xbbc18288	-0.005905453
178	0xbbabd7b9	-0.005244222
179	0xbb5414de	-0.003236107
180	0xbaceaa92	-0.0015767387
181	0xbc8d7dd7	-0.01727192
182	0xbc9ee674	-0.019396998
183	0x3c9387ae	0.018009033
184	0xbbbe2014	-0.005802164
185	0x3cbb44ea	0.02286001
186	0x3b5e3576	0.0033906377
187	0x3cae668f	0.021289138
188	0x3cb436c9	0.02199878
189	0x3c972a5f	0.018452821
190	0xbc66fa13	-0.014097708
191	0x3a911d67	0.0011071385
192	0x3abe0f7a	0.0014500462
193	0x3c66c45d	0.014084903
194	0x3b07096f	0.0020604988
195	0xbcc4a5ec	-0.024004899
196	0xbb12d7cf	-0.0022406464
197	0x3c0955bb	0.008382256
198	0xbb6e2744	-0.0036339322
199	0x3cb8a300	0.022538662
200	0xbcb09132	-0.02155361
201	0xbab67a86	-0.0013922013
202	0x3c1840eb	0.009292821
203	0xbc8626e5	-0.016375968
204	0xbc3aa034	-0.011390734
205	0x37b14b26	2.1135038e-05
206	0xbb83df9c	-0.004024459
207	0xbc121432	-0.008915948
208	0x3cc81b1c	0.02442699
209	0x3be509fa	0.0069897147
210	0xbb28202c	-0.0025653942
211	0x3a6a53d1	0.0008938881
212	0xbc280a38	-0.010256343
213	0xb9078874	-0.00012925436
214	0xbc2e0c7e	-0.010623096
215	0xbb66cd5b	-0.0035217616
216	0x3bde2ece	0.006780482
217	0x3cae820b	0.021302244
218	0xbcb1cc83	-0.021703964
219	0xbbe770e1	-0.0070630168
220	0x3cb47397	0.022027774
221	0x3ce9c759	0.02853744
222	0x3c8582f6	0.016297799
223	0xbc2b8e66	-0.010470962
224	0x3b5829a7	0.003298381
225	0xbc1463ec	-0.009057026
226	0x3b756bd5	0.0037448306
227	0xbc628dd9	-0.013827764
228	0x3aeff3fc	0.0018306966
229	0x3c9def2a	0.019279081
230	0xbbdab111	-0.00667394
231	0x3aeb1107	0.0017934152
232	0xbba34799	-0.0049829003
233	0x3c5caa82	0.013468387
234	0x3b7c6ecb	0.0038518186
235	0xbc9b8f0e	-0.018989112
236	0xbbedc6c4	-0.0072563607
237	0x3c22a103	0.0099260835
238	0x3c69fee3	0.014281961
239	0xbbf4d087	-0.0074711475
240	0xbca8bb69	-0.020597177
241	0x3caa7617	0.020808263
242	0xbbbb061a	-0.0057075145
243	0x3bd93799	0.006628942
244	0xbccce518	-0.025011584
245	0xbcfb9974	-0.03071282
246	0xbc8f18d0	-0.017467886
247	0x3bc54a8e	0.0060208505
248	0xbb2d6a54	-0.0026461082
249	0xbc6bc575	-0.014390339
250	0xbc06663f	-0.008203088
251	0xbc895df0	-0.016768426
252	0x3b9bc624	0.004753845
253	0xbbacf236	-0.005277897
254	0x3c0a2a8a	0.008432994
255	0x3cc966bb	0.024585119

fc1.bias f4 [2]
0	0xbcbb34ee	-0.022852387
1	0xbbebe828	-0.007199306
