model/p_all_model_66.25.pth (torch, 187369 bytes, 17 tensors)

conv1.weight f4 [16, 1, 1, 51]
00000000: 024c cbbd 7936 f93d 0c76 a43d 14b3 85bd
00000010: 6efe 92bb dbd6 c43d b924 423d 6bea fa3c
00000020: fbcd 5b3d b9b5 fb3d f7c1 f3bd ad9e 08bb
00000030: 0f96 803d 61c0 ddbd 498f c03d e4d3 983c
00000040: 7d71 0abe a6f5 8cbd 053e 873d 9d49 c93c
00000050: 9e93 be3c 62e7 9dbd 6d10 f93d dd1f b33d
00000060: ee7d 8dbd 944d 41bd 49da 093d aa45 a2bd
00000070: 7716 493d bb42 8a3d ffe6 08bd 6d64 c9bd
00000080: b4f8 163b 8254 51bd 0b04 993d f71a aa3a
00000090: 2c90 0e3e 0fc8 613d 7ba4 b8bd d497 bcb9
000000a0: 43db e53d 1b1c 093d 0229 a23d 3d69 d73d
000000b0: 0684 923d ac6e 2cbb efab a53b 61d4 e83c
000000c0: 11b3 3ebc ee9a 3c3d 9b71 dbbd 6a90 18bc
000000d0: c9d9 e5bc fc4c babd 2142 c93d d67d e3bb
000000e0: 5497 d73d 2bc9 9fbd 58a7 0cbd c654 8abc
000000f0: 2519 d3bd 91e5 543b 7886 25bd 5309 86bd
00000100: 2285 7ebd 11ed ac3d 7cfc f13d d250 17bc
00000110: 556d a83c 840b a1bd 12e2 873d f870 e4bd
00000120: d20d d3bc 009d fc3d 5243 6fbd b56a b53b
00000130: 3622 0c3e 6bca ecbd 1cb4 eabc a541 4dba
00000140: 0c84 8a3d 6e82 c3bd 29f1 2bbd 57b9 b63d
00000150: a15a b5bd 5034 d63d 19c9 5d3d fd5b c93d
00000160: 37c0 92bd 8dac 853d 6977 023e 513e 38bc
00000170: 177a b53d b9fd 243d cb6b fa3c 404b c4bc
00000180: 3169 e13d 6318 0abe 804f 843d 8211 a53d
00000190: 0482 06be 9322 81bd 1811 edbc da95 613d
000001a0: c9a8 d6bd f7a4 ccbd 670d d03d 2bbf 14bd
000001b0: 3480 aabd c1b1 873d 19c1 d4bd 729c 65bd
000001c0: 5be7 5f3a b09a 97bd 1281 0cbe f1a1 b43c
000001d0: 7db0 eebd ec88 61bd f04c d7bd d942 d93d
000001e0: 3aa3 0fbe fde1 cf3d 27ee 9d3d 4a38 ce3d
000001f0: b4bd 5b3d 319e 063d a2a1 e9bd a9c0 fa3d
00000200: f4f7 e23d 6d07 9bbd 1ff3 e13c 83ba 90bc
00000210: 93ee 9f3d a2d9 0abe dcaf cdbd f4db 2d3c
00000220: 3645 933d ac71 a53d 29c3 bfbd 9e2d e8bd
00000230: 0399 ffbd 9a4b a83b f10d 70bd cb37 46bd
00000240: e14d cd3d 27fd f3bc e023 bbbc a835 b7bd
00000250: bc6d 9d3d ec6d 9ebd 22a4 a4bc 7a73 c7bc
00000260: a7d9 5cbd 610d 003e e2d7 003e e20b 523c
00000270: a2b5 0dbe 571e debd 06b1 113d 7773 05bd
00000280: 01b3 0b3e f994 ba3d 8318 703d 6091 d43d
00000290: d8e7 963a 4acd 41bd f99c bc3d ba19 b83d
000002a0: 1bda 023e 763d 1bbd 0e15 85bd 29f7 1d3d
000002b0: c316 9b3d 9774 0b3e 1783 05be 60cb 07be
000002c0: add6 c43d c3b3 56bd 3fc1 f7bc 2b43 583d
000002d0: cfbd 1dbd ac8e 67bd 9808 903d e479 053e
000002e0: 4c68 913d 32a9 e63d 7ad0 89bc 4599 8dbd
000002f0: 4b45 2cbd ce63 a03d 2017 103e 4acc 8abd
00000300: 77b4 babc c811 be3d 35be 00be c75d 87ba
00000310: e713 acbd bd99 123d 297f dbbd 64c9 e53d
00000320: aaf0 e03d b789 b3bd 19bf 03be ec08 b03d
00000330: bb55 d8bd f8dc e7bd c76f 0c3e d47d f3bd
00000340: df28 4d3d 8a3a efbd e957 ccbd 2c85 71bd
00000350: 0d23 f93d 5634 60bb 3bff 8dbd e036 54bd
00000360: 2f4a 2b3c 6062 f7bd b5d9 033e e034 fcbd
00000370: 3c9a f13b 5c95 fb3d 8eb2 c6bd bd0b ed3c
00000380: 2c6f 04be 59d8 d5bd 28e2 dfbd 2bb2 97bd
00000390: ec9b 76bd 3106 f5bb a95c 07bd edda 013e
000003a0: 8d20 e2b9 2967 f5bd 20b8 1e3d 8aa8 013e
000003b0: facf 3cbc c6c8 12bd 1584 fdbd a49c 153d
000003c0: 726e 26bd a4ae dc3d 5ad6 933d 611b df3d
000003d0: 6eb0 04be 94e0 d2bd d93c f1bd 4b17 0d3e
000003e0: c9b8 b7bc d16b d83d ab33 a63d d95e b53d
000003f0: 5b91 77bd 8b1c 0ebe d605 9bbc eea5 9f3d
-0.09926607 0.12168593 0.08030328 -0.06528297 -0.004485897 0.09611293 0.047398303 0.030629357
0.053663235 0.1229052 -0.1190223 -0.0020846531 0.062786214 -0.10827709 0.094023295 0.018655725
-0.13519855 -0.06882791 0.06603626 0.024571234 0.023263749 -0.077101484 0.12161336 0.08746312
-0.06908785 -0.047193125 0.03365544 -0.079234436 0.04909369 0.06751009 -0.03342342 -0.09833608
0.0023036422 -0.051105984 0.07471474 0.0012978007 0.13922185 0.05512243 -0.09015747 -0.00035971275
0.112234615 0.03347407 0.07917978 0.105181195 0.07154088 -0.0026311083 0.0050558965 0.028421583
-0.011639372 0.04604619 -0.10715028 -0.009311775 -0.02805795 -0.09096715 0.09827066 -0.006942491
0.105269104 -0.078020416 -0.03433928 -0.016886126 -0.1030753 0.0032485465 -0.040411443 -0.06544747
-0.062138684 0.08443654 0.11815736 -0.009235578 0.020559946 -0.078635246 0.06634916 -0.111543596
-0.025763426 0.12334633 -0.05841381 0.005536402 0.13684925 -0.11562046 -0.028650336 -0.0007829911
0.06763467 -0.09546362 -0.041978035 0.089220695 -0.08855177 0.104591966 0.05414686 0.098319985
-0.07165568 0.06527052 0.12740864 -0.011245326 0.088611774 0.04028103 0.030568978 -0.023961663
0.11006392 -0.13485865 0.06460476 0.0805998 -0.13135535 -0.06305423 -0.028938815 0.05507455
-0.10481412 -0.09992402 0.10158806 -0.036315124 -0.08325234 0.06625701 -0.10388393 -0.0560574
0.00085412496 -0.07402551 -0.13721111 0.022049876 -0.11654756 -0.05506222 -0.105127215 0.10608453
-0.1402711 0.10150526 0.077114396 0.1006933 0.053647712 0.032865707 -0.11407782 0.12243778
0.110824496 -0.07569776 0.02758175 -0.01766706 0.07809176 -0.13559583 -0.10043308 0.010611523
0.07190935 0.08078322 -0.09363396 -0.11336826 -0.124803565 0.0051359655 -0.058607046 -0.048393052
0.1002462 -0.029783798 -0.022844255 -0.08945781 0.07686946 -0.0773581 -0.020097796 -0.024347056
-0.053918507 0.12505104 0.12582353 0.012820216 -0.13838819 -0.108456306 0.035569213 -0.03258082
0.13642503 0.091104455 0.058617126 0.103792906 0.0011513187 -0.04731492 0.09209628 0.08989282
0.12778513 -0.03790041 -0.064981565 0.03856579 0.07572701 0.13618694 -0.13038288 -0.13261175
0.09611259 -0.052417528 -0.030243514 0.05279843 -0.038511094 -0.056532547 0.07032889 0.13034779
0.07099971 0.1126274 -0.016823042 -0.069139995 -0.04205827 0.07831536 0.14071321 -0.06777246
-0.02279113 0.09280735 -0.12572558 -0.001032763 -0.084022336 0.035791148 -0.10717613 0.11220053
0.10983403 -0.087665014 -0.12865867 0.08595452 -0.10563227 -0.11321443 0.13714515 -0.11889234
0.050087806 -0.11681087 -0.09977705 -0.058964893 0.121648885 -0.0034210882 -0.06933447 -0.051810145
0.0104546985 -0.120793104 0.12876017 -0.123147726 0.0073731225 0.122843474 -0.09702025 0.028936261
-0.12933034 -0.10441656 -0.10931808 -0.0740703 -0.060207292 -0.0074775447 -0.033047352 0.1268117
-0.0004313033 -0.11982567 0.038749814 0.12661949 -0.011524195 -0.035836004 -0.12378708 0.036526337
-0.040632673 0.107754976 0.07218619 0.10893894 -0.12957928 -0.10296741 -0.11779184 0.13778417
-0.02242698 0.10567439 0.08115324 0.088559814 -0.060441356 -0.13878076 -0.018923681 0.077953205

batchnorm1.weight f4 [16]
00000000: 0b17 803f 51df 7f3f dfcf 7f3f 8e0e 803f
00000010: 5f29 803f 583d 803f 69df 7f3f 0eb8 7f3f
00000020: 223c 803f d6e1 7f3f 9b12 803f 52ae 7f3f
00000030: e4c2 7f3f cdfc 7f3f 0cac 7f3f e8f0 7f3f
1.0007032 0.9995013 0.9992656 1.0004442 1.0012625 1.0018721 0.9995027 0.9989022
1.0018351 0.99953973 1.0005678 0.99875367 0.99906754 0.9999512 0.998719 0.9997697

batchnorm1.bias f4 [16]
00000000: a5e0 a2b8 5072 ef37 d63a b138 7771 6438
00000010: 13da 19b8 6b3f 8838 da3f ac37 9ef5 96b6
00000020: fe85 01b7 76c9 cab7 9db3 3ab8 13df bb37
00000030: 216d 9eb6 41b3 9937 f0fd 8738 ce33 e3b7
-7.766605e-05 2.8544251e-05 8.450977e-05 5.446511e-05 -3.668114e-05 6.496798e-05 2.0533731e-05 -4.498942e-06
-7.720197e-06 -2.4174089e-05 -4.4513134e-05 2.2396014e-05 -4.721471e-06 1.8322493e-05 6.484601e-05 -2.7084632e-05

batchnorm1.running_mean f4 [16]
00000000: 7e0b c0bb f291 00bb 41b4 f33b c16b 8fbb
00000010: 42b2 a13b 4c00 4bbb c80e acb9 809d 45bb
00000020: 7ca5 8abb 5c32 10ba d8b9 203c dc05 003b
00000030: 2ef8 f8ba 6f44 7b3b b90c 2bba 6d40 c03a
-0.005860745 -0.001961824 0.0074372594 -0.004376859 0.00493458 -0.0030975519 -0.0003281741 -0.0030153692
-0.004231153 -0.0005500668 0.009809934 0.0019534742 -0.0018994862 0.003834035 -0.0006525028 0.0014667638

batchnorm1.running_var f4 [16]
00000000: 1c94 7740 db2e 1340 9dc1 d840 26b6 b140
00000010: 2a1d ce40 9f2f 6d40 7f1d a23f 059b f93f
00000020: dbf5 3d40 64f4 b040 5c76 0941 5dbb 7240
00000030: c4a1 0f40 2837 2e40 17cd 3340 dd0d 9840
3.8684149 2.2997348 6.7736344 5.553485 6.44106 3.7060316 1.2665251 1.9500433
2.9681308 5.529833 8.591396 3.7926857 2.2442484 2.7221165 2.8093927 4.7516923

conv2.weight f4 [32, 1, 2, 1]
00000000: b11f 0a3e 9ad6 063f 4fed 503e 3c71 88be
00000010: d92b c2be 7528 243f 0e40 8c3e bd59 303d
00000020: 5e1c f73a d6e1 d6be 20c1 2c3f 68a9 0abe
00000030: e5e0 a53e 3f38 3bbe 5806 31be 5efb 163f
00000040: cbcf b63e e3de 33bf f2d7 1fbf 26f6 1abf
00000050: d968 57be 7a38 fb3e 83bc 6dbe 05c7 113f
00000060: 91a0 bf3e fd4a 063f a257 f2be 3dd1 853d
00000070: faaf e5be cfc6 863e 9a9d 0bbe 9451 20bf
00000080: 7cad 72be 3692 c33e 5be2 2e3f 7902 10bf
00000090: 8803 f1be ebdd 2c3f d3b8 1a3d aec7 263f
000000a0: a677 55be 117f 16be 8811 0b3f a3ff d83e
000000b0: 7688 9d3d bbbf ecbe e55a a4be c2bb 86be
000000c0: 71c1 cebd 0ed9 0ebf 5461 e6be 6e88 043f
000000d0: 8db3 da3d 8481 293f b88a 18be c589 0e3f
000000e0: 53e6 ad3e d973 20bf 7120 87bd ceac afbe
000000f0: 4562 b73e 0b8c 823e 6a39 3d3e 95fc 13bf
0.13488652 0.52671206 0.20403026 -0.2664889 -0.37924078 0.6412423 0.2739262 0.04305433
0.0018853059 -0.41969174 0.67482185 -0.13541186 0.32398143 -0.18283175 -0.17287576 0.58977306
0.35705408 -0.70261973 -0.6243888 -0.6053184 -0.2103609 0.49066526 -0.23216443 0.56944305
0.3742719 0.52458173 -0.47332484 0.0653405 -0.44860822 0.26323554 -0.13634339 -0.6262448
-0.23698992 0.38197488 0.6831414 -0.5625377 -0.47073007 0.6752612 0.03777392 0.6514844
-0.20846424 -0.1469691 0.54323626 0.42382535 0.076920435 -0.4624003 -0.32100597 -0.26315123
-0.1009549 -0.5579995 -0.4499613 0.51770675 0.10678778 0.6621325 -0.14896667 0.5567897
0.33964786 -0.6267677 -0.065979846 -0.34311527 0.3581716 0.2549747 0.18478933 -0.57807285

batchnorm2.weight f4 [32]
00000000: 0c12 803f 4816 803f 5d03 803f e8d9 7f3f
00000010: 40bf 7f3f 4a0b 803f c20e 803f 29ff 7f3f
00000020: c32c 803f ebe6 7f3f 0c20 803f 5e3e 803f
00000030: 20ea 7f3f 86e3 7f3f 41b1 7f3f 5d0c 803f
00000040: 2440 803f 36dd 7f3f f6d4 7f3f 9b05 803f
00000050: 351d 803f 5774 7f3f dfb4 7f3f abd8 7f3f
00000060: 5ef0 7f3f 36c0 7f3f 0e0e 803f a6f2 7f3f
00000070: 14a2 7f3f 78d2 7f3f 3a12 803f fbce 7f3f
1.0005507 1.00068 1.0001026 0.99941874 0.999012 1.0003445 1.0004504 0.9999872
1.001366 0.9996173 1.000978 1.0019033 0.9996662 0.9995655 0.99879843 1.0003773
1.0019574 0.99946916 0.9993433 1.0001711 1.0008913 0.99786896 0.9988536 0.99939984
0.99976146 0.99902666 1.0004289 0.9997963 0.99856687 0.99930525 1.0005562 0.999252

batchnorm2.bias f4 [32]
00000000: 735e 7b39 4edd 8f3a c21a 50ba 1a2e 0aba
00000010: 8f06 46b9 c104 e636 8ee8 8e3a a323 fdb9
00000020: f959 673a 7871 97ba 8cfe 5d3a 5a5f 863a
00000030: c289 42b9 38c9 86b9 0a5e 43ba 6a65 9136
00000040: ab7e b43a c1fc 2bba 1b66 35ba d624 a6b9
00000050: 0916 a33a d834 a1ba 9273 b6ba f6b8 acba
00000060: ba95 41b8 dc72 85ba 1d82 8c39 4204 97b8
00000070: e4b8 00bb c128 96ba f7eb 2339 9406 30ba
0.0002397241 0.0010975988 -0.00079385575 -0.0005271152 -0.00018885195 6.8550876e-06 0.0010903047 -0.00048282472
0.00088253577 -0.0011554202 0.00084684114 0.0010251806 -0.000185526 -0.0002570839 -0.00074526726 4.333143e-06
0.001377066 -0.00065607956 -0.0006919817 -0.00031689432 0.001244248 -0.0012299074 -0.0013919941 -0.0013177681
-4.615423e-05 -0.0010181325 0.00026799823 -7.201034e-05 -0.0019641453 -0.0011456237 0.00015632795 -0.00067148474

batchnorm2.running_mean f4 [32]
00000000: 0f58 82b9 e333 3636 fefe 07b6 4df3 14b8
00000010: 858a 1eb9 cc3a 8239 52ea 00b8 5d7c 98b8
00000020: 5e30 84b8 5fc0 86b9 5841 5db7 8b7a 8cb7
00000030: 5695 48b7 68dd 7037 68fb a838 9118 1739
00000040: a511 4ab7 09d6 c8b8 2e4c 48b8 3670 91b8
00000050: 62ec f0b8 0b47 a239 8a32 a9b7 f9eb 6cb8
00000060: 408f e338 8e6f 70b7 d9b5 5a39 324a d938
00000070: 1dd5 03b7 2739 26b7 be75 2438 9910 34b8
-0.0002486114 2.7150315e-06 -2.0264993e-06 -3.551254e-05 -0.00015119657 0.0002483934 -3.0735806e-05 -7.271089e-05
-6.3032596e-05 -0.000257018 -1.31878405e-05 -1.6746364e-05 -1.1955699e-05 1.4356665e-05 8.057692e-05 0.00014409634
-1.2044246e-05 -9.57661e-05 -4.7754664e-05 -6.93504e-05 -0.000114881215 0.0003095198 -2.0169904e-05 -5.648655e-05
0.00010850886 -1.4331088e-05 0.00020857844 0.00010361186 -7.857828e-06 -9.907678e-06 3.9210303e-05 -4.2930802e-05

batchnorm2.running_var f4 [32]
00000000: b959 c73e 4a19 483d 6b7c 893e e373 bc3d
00000010: 7487 373e e73f bc3e c8f2 8d3d 726c 873e
00000020: d022 ab3e 6b01 9d3f d532 293e c18c 663e
00000030: 0b5f 293f 873f 443e 855c 033e 6ff0 053f
00000040: b70e c83d 2351 ab3e 5f3a 993e 3f5f ee3e
00000050: 3241 d33d d8d6 423f e850 383e b16e 8f3e
00000060: 80fe ca3e eaa9 463e 87d6 0b3f f449 753e
00000070: 6b67 813e af14 1c3e b3fc 9c3e 66b0 7d3e
0.3893564 0.048852243 0.26852736 0.09201791 0.17922765 0.36767504 0.069310725 0.26449925
0.33424997 1.2266058 0.16523297 0.22514631 0.6616065 0.19164859 0.12828262 0.5232
0.09768432 0.3346034 0.29927346 0.46557042 0.103151694 0.76109076 0.17999613 0.28014138
0.39647293 0.19400755 0.5462422 0.23953992 0.25274214 0.15242265 0.30661544 0.24774322

conv3.weight f4 [32, 32, 1, 15]
00000000: 0e2c dd3c 6436 0c3d 66b8 123a 604f e83b
00000010: 81b5 883c 6343 b23c 85e7 1abb a485 35bd
00000020: 6534 1dbd 0bcf 313d 2fd7 15bd 0494 a03b
00000030: b823 e73c 530f 30bc 9b49 aabc 83f0 8a3c
00000040: 5553 44bc 2ff0 1a3d 3d83 11bd 83a0 99bc
00000050: 0f17 7ebc c32f 14bd 1fea 243d ce46 313d
00000060: fef0 383d c8a9 30bd f820 e1bc 8edf f43b
00000070: 3269 9c3c 8df4 32bc 2114 09bd 7842 eb3c
00000080: 0b67 1a3d 1dbe 2ebd 16b3 0c3c 14d4 323d
00000090: 8c05 bf3c c466 7c3c f667 ff3c 1933 823c
000000a0: 96af 353d aef7 cabb 0e3b 22bd 3a98 353d
000000b0: 6b1c 943a 18b9 7d3c 9d07 233d 6c31 4cbb
000000c0: 1f73 fe3c 8f06 cf3c 06c0 2b3c 9d0a 5cbc
000000d0: d6f7 c63c 98b8 4fbb 48bd 0a3d 122c b4bc
000000e0: 6f8b 05bd 5cab 84bc 8774 30bb a3fc 2fbd
000000f0: c8dd 273d 653d 25bd d731 143d dd8c fdbc
00000100: b0a3 89bb 59e9 aa3c ed45 8a3b 45fa 2ebd
00000110: 25b1 993c 23da da3c 654c 14bc d005 6a3b
00000120: 79f3 013c ae06 00bd b5ac 19bb 5a63 9e3c
00000130: 08eb 1dbd 3de6 313d 6289 febb cecb 0bbd
00000140: 78c9 673c 652f f83c 3347 c3bc 652d 1abc
00000150: 868a 343c cb48 1b3c f111 1cbd de98 32bd
00000160: bbce 1bbd 9d62 d7bc eddf b73c b101 9dbc
00000170: a1d3 27bc c0a7 203c 0d0c d83c 748f 64bc
00000180: 2166 a13c 5cef 32bd 9e2b 72bc baf6 e5bc
00000190: 7c80 1dbd db3e d3bb 46fc 4b3c b0c8 b83c
000001a0: e495 303c 1dbf c8bb 1009 1cbc f0d9 f4bb
000001b0: 16ae b8ba cf88 febc f657 c93c a532 e4bb
000001c0: 5a95 27bd 6456 05bd 5c97 f4bb 581f 0fbd
000001d0: 0bcf 2bbc e880 c43b 49df 6abc 9998 333d
000001e0: 8a02 ed3c 18ca a83c f79f 91bc 46cc 0a3d
000001f0: 7cf6 bf3c 861e 0c3d f0fc f13c 2c45 233d
00000200: 7b57 c13c 1eb3 983a fcc8 273d 9482 3c3d
00000210: 8ff7 823c 1174 283d 189d e03c 58ed 08bd
00000220: ecd1 e73c d5d3 093d 3eee 32bd cf5c 3b3d
00000230: 22ec 35bd ba97 093c 846b c8bc 99ae 313d
00000240: 3cc5 d93c f98a 16bd 1c9f d63c 0bab 6c39
00000250: 4153 243d 3d2f 04bb 8d44 e73c 85e0 163c
00000260: c69c 593b 19e2 ce3c 470c 0ebc 27c1 0b3d
00000270: cf5e 30bd 0d6b 5e3b 768f 343c bf4b d7bc
00000280: 4799 a8bb b351 2bbd 2205 0abd 66dd 033d
00000290: 8c0d 84bc fcf5 fd3c 9da0 cb3c 8802 e13c
000002a0: fc9d 21bd 14e8 d33c a25b 27bd d3b7 22bd
000002b0: 249d b93b 4a36 99bc c620 35bd c415 363d
000002c0: 3b7e 10bc cdf4 0a3d 1c0f d63c ef6f ca3c
000002d0: f847 873c efc2 22bc 4266 163c 00d4 e3bc
000002e0: 064f 9cbc 7c02 d13c aad3 243d 4a3e bf3b
000002f0: 45d3 da3c 4465 2db9 fc2f e2bc ec10 b93c
00000300: 28bc 203d cbeb 2ebd 5028 103c 7e1a a13c
00000310: 83b8 b8bb b5f2 8cbc abc2 a3bc 788f d3bc
00000320: 5df7 bbbc dc1e 323d 609d afbb 9371 303d
00000330: fc62 18bd 0c3e e6bb ceb4 fb3c d60e 9dba
00000340: fc29 d93c cfe3 833c 5547 eabc b3d4 583b
00000350: 75a0 213d 80ba 623c 2a48 98bc 79ec 0cbd
00000360: 9527 a1bc 7452 de3c e655 b73b 415a 39bd
00000370: 33e2 2c3d 4fa6 113c 2ab2 1bbd f8ad 183d
00000380: f283 e5bc 5b2a 1c3d ad73 f93c 12de a53c
00000390: a465 073c a82a 033d 97b9 ea3c d77f f0bc
000003a0: d725 c3bc b24f 843c 74b4 00bd f039 213d
000003b0: ce75 1e3d 3f80 9b3c 7598 00bd f978 56bc
000003c0: 555c a3bc fc33 99bc d4d7 c9bb 7cde 1b3c
000003d0: 202a cc3c 84df 473c 2e8a 16bd 85df a83c
000003e0: 43f0 0ebc 0d58 0abd 28cf d13c 04ba 353d
000003f0: c802 973c ed17 e6bc 5123 d13c fa63 debc
0.026998546 0.03423156 0.00055969355 0.0070895404 0.01668811 0.021760648 -0.0023636532 -0.044316903
-0.038380045 0.043410342 -0.03658217 0.0049004573 0.028215274 -0.010745841 -0.020787051 0.016960388
-0.0119827585 0.037826713 -0.03552555 -0.018753296 -0.015508427 -0.03617836 0.040262338 0.043280415
0.045151703 -0.043130666 -0.027481541 0.007472939 0.01909313 -0.010922563 -0.033466462 0.028718218
0.037695926 -0.042661775 0.008587619 0.043659285 0.023318075 0.015405361 0.031177502 0.015893506
0.044356905 -0.0061940765 -0.0396071 0.044334628 0.0011299973 0.015486024 0.039802182 -0.0031157387
0.031060753 0.025271682 0.010482794 -0.013430265 0.0242881 -0.003169572 0.03387192 -0.02199367
-0.032603677 -0.016194992 -0.0026924924 -0.042965543 0.04098299 -0.040341754 0.036180343 -0.030950958
-0.0042004213 0.020863222 0.0042197616 -0.042719144 0.018761227 0.026715344 -0.009051417 0.003570903
0.007931584 -0.03125637 -0.0023448889 0.019334484 -0.03855422 0.043432463 -0.007767842 -0.03412991
0.014147155 0.030296037 -0.023837661 -0.009410237 0.011019355 0.009477804 -0.038103048 -0.043602817
-0.03803895 -0.02629214 0.022445643 -0.019165846 -0.010243327 0.00980562 0.026372934 -0.0139502175
0.01970202 -0.043685302 -0.014780907 -0.02807175 -0.03845261 -0.006446702 0.012450283 0.022556633
0.010777924 -0.006126298 -0.009523645 -0.0074722692 -0.0014089968 -0.031071095 0.024578076 -0.006964045
-0.040913917 -0.03255309 -0.0074643325 -0.034942 -0.010486375 0.005996812 -0.014335462 0.0438467
0.028931875 0.020604178 -0.017776472 0.033886217 0.023432963 0.034208797 0.029539555 0.03986089
0.023601284 0.0011650061 0.040963158 0.046022967 0.015987186 0.041126315 0.027418658 -0.033429474
0.02829834 0.033649284 -0.043684237 0.045742806 -0.044414647 0.008397991 -0.02446533 0.0433794
0.026583306 -0.03675363 0.026198916 0.00022570432 0.04011846 -0.0020169758 0.02823093 0.009208803
0.0033205017 0.025254296 -0.008669919 0.03411975 -0.043059167 0.003393832 0.011020532 -0.026281236
-0.005145225 -0.04182596 -0.0336963 0.032193564 -0.01611974 0.031001084 0.02485686 0.027467027
-0.039457306 0.0258675 -0.040858872 -0.03972609 0.0056644846 -0.018702645 -0.04422071 0.04445435
-0.008819158 0.033924866 0.026130252 0.024711577 0.01651381 -0.009934171 0.009179654 -0.02781105
-0.01908065 0.02551388 0.04024092 0.005836283 0.02671207 -0.0001653629 -0.027610771 0.022591077
0.03924194 -0.04270534 0.008798674 0.019665953 -0.00563723 -0.017205575 -0.019990286 -0.025825247
-0.0229451 0.04348646 -0.0053593367 0.043077063 -0.037203774 -0.0070264395 0.030725863 -0.0011982571
0.026509278 0.016099839 -0.028598467 0.0033085763 0.039459664 0.01383841 -0.018589098 -0.034405205
-0.019672194 0.027138926 0.0055949567 -0.04525209 0.042207908 0.008889749 -0.038011707 0.037275285
-0.028017018 0.03812633 0.030450666 0.020247493 0.008263979 0.032023102 0.02865295 -0.029357834
-0.023821754 0.016151283 -0.031422094 0.039361894 0.038686566 0.018982051 -0.031395394 -0.013090366
-0.019941488 -0.018701546 -0.006159762 0.009513494 0.02492243 0.012199286 -0.036752872 0.020614395
-0.008724275 -0.033775378 0.025611475 0.04436685 0.018433943 -0.02808758 0.025529535 -0.027147282

batchnorm3.weight f4 [32]
00000000: 8314 803f 361a 803f 79df 7f3f 4531 803f
00000010: f60a 803f f61d 803f e70f 803f c8d8 7f3f
00000020: 5a0c 803f ab28 803f a724 803f 08fa 7f3f
00000030: df06 803f c30b 803f bc06 803f 1e33 803f
00000040: 8c1b 803f 9824 803f a123 803f e72f 803f
00000050: d3ea 7f3f bb0f 803f ae20 803f 970b 803f
00000060: a5f1 7f3f 8e1b 803f ea16 803f 8d05 803f
00000070: 1d13 803f 7f04 803f d023 803f d205 803f
1.000626 1.0007999 0.9995037 1.0015036 1.0003345 1.0009143 1.0004853 0.99940157
1.0003769 1.0012411 1.0011185 0.9999089 1.0002097 1.0003589 1.0002055 1.00156
1.0008407 1.0011168 1.0010873 1.0014619 0.9996769 1.00048 1.0009973 1.0003537
0.99978095 1.0008409 1.0006993 1.0001694 1.0005833 1.0001372 1.0010929 1.0001776

batchnorm3.bias f4 [32]
00000000: 281f c139 827d a339 c1ab 36ba 8d56 5f3a
00000010: a859 6e3a 0214 8a3a 3b13 8b39 8ddd 87ba
00000020: 7213 2a39 e69b 133a 78ff 1339 2504 46b9
00000030: 5266 71b8 8ce7 e138 c9e0 b938 3268 6b3a
00000040: 42de 65b8 6c60 9539 24fb 353a 2e9a f439
00000050: 8dde a7b9 b4fa 433a 4456 da39 55c3 31ba
00000060: 938c ddb9 331e 9a39 4e5b 5739 6a80 3b39
00000070: ef1c ea39 9aab a638 82c9 3c3a 6979 01b9
0.00036835042 0.00031183293 -0.00069683423 0.0008519672 0.00090923393 0.0010534527 0.00026526474 -0.001036571
0.00016219707 0.00056308357 0.00014114182 -0.00018884295 -5.755417e-05 0.00010771965 8.863357e-05 0.0008980065
-5.480485e-05 0.00028491335 0.0006942025 0.0004665418 -0.00032018535 0.00074760173 0.00041644473 -0.0006781121
-0.0004225714 0.0002939567 0.00020538011 0.00017881548 0.00044653515 7.94746e-05 0.0007201658 -0.00012347627

batchnorm3.running_mean f4 [32]
00000000: 233a 9a3d 928a 2fbc 62f7 073e b43b 433e
00000010: 23d2 1d3e 3859 70be d1a4 6ebe 9250 13be
00000020: 6756 8fbe 8568 f03e 45ab be3d 3ac7 dc3d
00000030: a4a3 cf3d 42ee 11be 35e7 97bd 606e b03c
00000040: 5137 973d d8c9 113d f0b6 acbe 3bab 8a3e
00000050: d0bf 423e eac7 b73e d7f0 4a3e 9e50 b53d
00000060: 16de 9f3c 4bfd bb3e 3941 1d3e a5d2 3dbe
00000070: ba9c 63be 0ecb c83d d27d 013a 0ee2 55be
0.0753062 -0.01071419 0.13277963 0.19065744 0.15412192 -0.23471534 -0.2330506 -0.14386204
-0.27995607 0.46954742 0.09310011 0.10780187 0.10138634 -0.14251044 -0.07417146 0.021537006
0.07383598 0.035592884 -0.3373332 0.27083763 0.19018483 0.3589471 0.19818436 0.08853267
0.019515079 0.36716685 0.15356912 -0.18537386 -0.22227755 0.098043546 0.0004939708 -0.20887014

batchnorm3.running_var f4 [32]
00000000: 4f28 063e 5f9b 053e 5a9d 363e 8f17 1b3e
00000010: 8883 5b3e 9f77 453e ffd2 0f3e ea7d 053e
00000020: ee50 2b3e 7172 2f3e 3482 e43d a307 323e
00000030: d54f 1d3e af4e 243e 58e8 2d3e 39e2 4a3e
00000040: e3fa 323e 419c 003e 076d 733e 2012 4b3e
00000050: 2ac4 2c3e 45da 463e e159 f83d bf03 1d3e
00000060: 88c5 4c3e 7f72 103e e392 183e 578f 123e
00000070: 66fc fa3d b5c2 553e 35fc 0f3e 2c6f 193e
0.13101314 0.1304755 0.17833462 0.15145706 0.21436894 0.19283913 0.14045332 0.13036314
0.16730091 0.171335 0.11157647 0.17385726 0.15362485 0.1604564 0.16983163 0.1981286
0.17478518 0.12559606 0.2377206 0.19831133 0.16871706 0.194192 0.12126518 0.1533346
0.19997227 0.14106177 0.14899783 0.14312492 0.122551724 0.20875056 0.14061053 0.14983815

fc1.weight f4 [2, 14400]
00000000: 7c10 be3b af11 4c3b 4101 f3bb dc39 d23b
00000010: b4a5 353a 3f75 b73b fb11 25ba 8f5b bbba
00000020: f9e6 4dbb b306 35ba e4e4 acbb 9a61 adbb
00000030: 1e2b 623b bb3f 65ba 1f32 0bbc a0c8 f1bb
00000040: 7f4e 4a3b c24c 4e3b 0d0c d33b 513e 7b3b
00000050: e963 2c3b acbb 7d38 0c0e e23a b6e9 b03a
00000060: 46cb fdba c6d8 a739 318a 1f3b 4d5b cebb
00000070: 7002 d63b 28d4 d5bb 5cc2 cd3b 188e 57bb
00000080: 4243 f6bb 0acb d93b 5a5b 59bb 4050 0cba
00000090: 000d 4f3b f066 26ba 82ce c2bb 2b33 08bc
000000a0: 26ef ce39 fb7d d7bb daf8 5f3b 708b 4cbb
000000b0: 3321 b63a 4a5d 753b 1dbc 863b 29d6 27bb
000000c0: 8ebe f73b da98 8b3b 1255 b9ba a2ae dbbb
000000d0: c435 d93b 2f48 71bb e1fa e4bb 289b c6bb
000000e0: 0f7e ee3b 7454 e1bb 06ad beba ef3d b938
000000f0: f917 dabb 5a39 3739 6e80 e73b bd6f e0bb
00000100: f967 09bc 16b9 b13b 3450 5739 7813 febb
00000110: 8baf cdbb c522 fdbb e80d d83b 1501 60bb
00000120: 76ba f4bb 4ed0 c7bb 3d18 0b3b 70ea d0bb
00000130: 5ffb fbbb dc20 f7bb 8cd0 983b 0fc0 6fbb
00000140: 9f34 8c3b f068 a23b 29a6 91ba 60c8 9a3b
00000150: 621c f23b cf78 dcbb 8dcc 873b 2f3f b53a
00000160: 58db 0bbc 5285 f8ba 1a61 993b 6f7b 4cba
00000170: e651 c83b 8b45 bdba 30c6 053a bae4 d43b
00000180: f916 8fba 783c 203b a686 d93a 285e 003c
00000190: 00f4 e33b afde 373a 21ad 6abb a5f9 c5bb
000001a0: 2bb0 9fbb bf96 3b3b 71a5 d9bb 9112 2abb
000001b0: 013e 963b a9dd 3cbb e5fd 0b3a a22a 043c
000001c0: 8688 b33b 9664 dc3a b7f1 033c f8e5 77bb
000001d0: 5820 a33b 07d0 ba3b 276a 293b b301 ef3a
000001e0: 8ebf ba3a 1525 8f3b 70ee df39 5391 f43b
000001f0: 952e f13b 1c47 10bc b9db f0ba c21c 04bc
00000200: d02a 073c 2360 03bc e38c e03a 0c35 d43b
00000210: b6f4 8fbb 81fb a0bb 111a 8fbb 47c9 033a
00000220: fa40 013c 0c96 a7bb a390 da3b 8970 9a3b
00000230: 8aff ec3a 5f09 c4bb bb6e f83b b990 e73b
00000240: 2eec ab3b 426c d0bb 48ff 98bb 6077 7bbb
00000250: d6c0 c1bb dfad 6538 cddb 93bb f04c d0bb
00000260: 4d53 56bb cd9a df3b b0bb 24bb 8528 15bb
00000270: 3a53 8c39 69af f53b 2b4b 6b3b 540b 233b
00000280: 1a2f 093b d959 b73b 9854 23ba f855 e6bb
00000290: e5d5 c6bb 696c 5b3b 3fe0 1a3a 0bbd 65ba
000002a0: 6ad1 8dbb f784 97bb 25da b53b 1f5e a73a
000002b0: 1b76 c5bb 1737 9d3b e14d f23b bf7e 443a
000002c0: f1c9 c5bb 0f20 e23b 0c42 b53b 37d8 46bb
000002d0: 3779 b9bb ab1d 76bb 3001 cd3b ed97 01bb
000002e0: 7537 033a b3c7 94bb 99b0 a7bb 9a2a d0bb
000002f0: b510 82bb 3932 ab3b 4de4 c73a 06e7 f13b
00000300: 0f4f 483b 3b4c 5f3a 2f59 ac3b 6eae 333b
00000310: 09b2 ecbb 0d1b cbbb 9e10 1db9 4508 12bb
00000320: af63 5f3b b734 8dbb 5e6c e2bb d4a6 ed3b
00000330: d8a7 6d3b 17c1 f63b 24db 91bb 93dc 933b
00000340: d208 c63b 813b 02bc 6dde fc3a a6de 1e3b
00000350: fd82 01bb 8651 b9bb a994 bdbb a9f3 ec3b
00000360: 22c5 0db9 18f7 933b 1576 be3a 1d1b 8b3b
00000370: bbf1 c9bb f285 bdba b5a9 2cba e669 f4bb
00000380: 719b cbbb 44d5 0b3c 9c34 9a3a e9f0 cf3b
00000390: 4185 dbbb 925b fe3b f2d7 93ba 07a0 fc3b
000003a0: d034 c03b 0df5 adbb dfb5 4639 95c6 213b
000003b0: a8ae 4cbb 0667 b73b 2bd3 eb3b b61e e13b
000003c0: 8604 723a b31e 833b 0219 a2b9 0fac 99b8
000003d0: 4056 21bb afeb a1bb 05b3 a53a 79df 05bc
000003e0: 3963 c239 2405 473b 7d45 08bc 48c7 c23b
000003f0: 1dfb abbb d45e a6bb 4f60 31ba d001 c4ba
0.005800305 0.003113847 -0.007415921 0.006415589 0.0006929294 0.0055986936 -0.000629693 -0.0014294254
-0.0031418188 -0.00069056003 -0.0052763093 -0.005291176 0.0034510563 -0.00087451533 -0.0084958365 -0.0073786527
0.0030869541 0.0031478857 0.0064406455 0.0038336704 0.0026304668 6.0494684e-05 0.0017246618 0.0013497386
-0.0019362948 0.0003201423 0.0024343843 -0.006297505 0.0065310523 -0.006525535 0.006279273 -0.003289109
-0.007515342 0.0066465186 -0.0033166022 -0.00053525344 0.0031593442 -0.00063477363 -0.005945028 -0.008312981
0.0003946956 -0.0065762973 0.0034175427 -0.003121104 0.0013895392 0.0037439638 0.0041117803 -0.0025609827
0.0075605577 0.0042601647 -0.0014139733 -0.0067041675 0.006628724 -0.0036816706 -0.006987915 -0.0060609765
0.007278211 -0.0068765227 -0.0014547415 8.8330235e-05 -0.00665569 0.00017473605 0.0070648706 -0.0068492577
-0.008386605 0.0054236753 0.00020533876 -0.0077537857 -0.00627703 -0.007725092 0.0065934546 -0.0034180332
-0.007468517 -0.00609783 0.0021224164 -0.0063756034 -0.007689878 -0.007541759 0.0046635326 -0.0036582982
0.004278734 0.004956357 -0.0011112142 0.0047235936 0.0073886374 -0.0067282687 0.0041442574 0.0013828034
-0.008536182 -0.0018960631 0.004680765 -0.00078003755 0.0061132787 -0.0014440281 0.00051030796 0.006496993
-0.001091688 0.0024450105 0.0016595914 0.007834949 0.0069565773 0.00070140784 -0.003580876 -0.006041723
-0.004873296 0.0028623787 -0.0066420366 -0.0025951008 0.004585028 -0.0028818643 0.00053402624 0.008066805
0.0054789213 0.0016814645 0.008053235 -0.003782628 0.004978221 0.0057010683 0.0025850625 0.0018234759
0.0014247762 0.004368434 0.00042711524 0.007463613 0.0073602893 -0.008806016 -0.0018376029 -0.008063497
0.008249953 -0.008018526 0.0017131831 0.0064760502 -0.0043931855 -0.004912794 -0.004367121 0.0005027246
0.007889027 -0.0051143225 0.006670074 0.0047131223 0.0018081528 -0.0059825624 0.0075815595 0.007066813
0.0052466607 -0.0063605616 -0.004669104 -0.0038370714 -0.0059128804 5.4759785e-05 -0.0045122863 -0.006356828
-0.003270346 0.0068238736 -0.0025136285 -0.0022759747 0.0002676489 0.007497717 0.0035902958 0.0024878578
0.0020932616 0.0055954275 -0.0006230562 -0.0070292912 -0.0060679787 0.0033481366 0.0005908049 -0.00087638263
-0.0043279426 -0.004624005 0.0055496865 0.0012769139 -0.006026042 0.004797827 0.007394538 0.0007495693
-0.006036036 0.0069007943 0.005531555 -0.0030341276 -0.005660202 -0.0037554305 0.006256245 -0.0019774393
0.0005005517 -0.0045404076 -0.0051174876 -0.0063527348 -0.003969277 0.005224493 0.0015250534 0.0073822765
0.00305647 0.0008518134 0.005259655 0.00274172 -0.007223372 -0.006198293 -0.00014978877 -0.002228276
0.0034086516 -0.0043092626 -0.006909891 0.0072525535 0.0036263373 0.0075303423 -0.0044511724 0.0045123785
0.006043532 -0.007948757 0.0019292362 0.0024241596 -0.0019761913 -0.0056554703 -0.005785544 0.007231195
-0.00013520246 0.00451554 0.0014531041 0.0042451755 -0.0061628497 -0.0014459474 -0.00065865676 -0.007458913
-0.0062135984 0.008534733 0.0011764946 0.0063458574 -0.0066992347 0.007762381 -0.0011279567 0.0077095064
0.0058656707 -0.0053087533 0.00018950504 0.0024685015 -0.0031232033 0.005596998 0.007196804 0.006870116
0.00092322414 0.0040014624 -0.0003091768 -7.327657e-05 -0.002461806 -0.0049414258 0.0012641853 -0.008170956
0.0003707649 0.0030368054 -0.008317349 0.0059441663 -0.005248441 -0.0050772224 -0.0006766365 -0.0014954153

fc1.bias f4 [2]
00000000: ae8e d73b a644 b33b
0.006578288 0.00547083
