model/p_remove_model_72.50.pth (torch, 79849 bytes, 17 tensors)

conv1.weight f4 [16, 1, 1, 51]
-0.009341512 0.045464594 -0.09394427 0.06433134 -4.5118722e-05 -0.07852094 -0.11388934 -0.048061054
0.10367484 -0.03557034 -0.08956186 0.09551301 0.105209716 -0.10567302 -0.10647382 -0.059763715
-0.002461472 0.07703448 -0.14073226 -0.044055145 0.050108023 -0.0446886 -0.11304858 0.049373716
-0.034948222 -0.023656145 0.12469767 0.08604283 0.049284697 -0.023994543 0.04849007 0.0862884
0.13182068 -0.06832042 0.009910991 0.12852436 -0.119313575 -0.042375077 -0.008415252 0.11993251
-0.14745203 0.08651004 0.13322926 -0.13923848 -0.04310861 -0.019683542 -0.06566401 0.05448811
0.11138039 0.1141178 -0.07613099 0.13112958 0.023795746 0.0988839 -0.063306555 -0.037730068
0.07081533 -0.10616025 0.12077623 0.078669496 0.09458989 -0.048129376 0.10414778 -0.10485643
-0.12861365 0.022461671 -0.019059101 -0.075629115 -0.098576255 0.11557401 -0.13142227 0.0047031953
-0.08091893 -0.07364167 0.109727375 0.023399223 -0.02303299 0.10955559 -0.017137669 0.13581423
-0.08213792 -0.042782597 -0.081518784 -0.029284684 -0.12665863 0.08119032 0.085053004 0.017548466
-0.0668787 -0.07417036 -0.10273697 -0.106636815 0.015662791 0.11251497 0.04586073 0.13026103
0.02557951 -0.06281214 -0.0363405 0.046810664 0.1296464 -0.07659501 0.077775344 -0.1304601
0.09960262 0.06487115 -0.10635785 0.072066195 0.06268654 0.0744919 -0.10471912 0.058512785
0.08155616 0.12540233 -0.029802563 -0.05924416 0.10773649 -0.091190375 -0.100870505 0.13116266
-0.069241144 0.015264807 -0.04524506 -0.003795943 0.030151255 -0.08936091 -0.12023727 0.09400386
-0.067792 -0.08865871 0.14026001 -0.12177985 -0.069105186 -0.018259343 -0.014919194 -0.096533276
-0.0100360345 0.11560249 -0.052184615 -0.07613185 -0.08622912 0.009190684 0.037121374 -0.11142184
0.13944419 0.02509291 -0.008067743 0.09776092 -0.045027427 -0.062102266 0.11605514 0.021248968
0.07198632 0.06469847 -0.097588025 -0.08721377 -0.040560845 0.08896374 0.104183555 0.048382174
-0.079151586 -0.12777762 0.0030804847 -0.07100067 -0.0010914314 -0.059048306 -0.0093194535 -0.0370473
-0.020902224 0.021403497 -0.017406724 -0.13963147 0.023638563 0.11973904 -0.07405785 0.07693569
0.012561662 0.13012514 -0.059301853 0.05340881 0.090956144 -0.100395605 0.09372429 -0.1303565
0.13299556 0.07058553 0.10158666 -0.06850622 -0.12774724 0.09730794 -0.0040903245 0.116064996
0.09949204 0.12269481 0.076836854 -0.066510744 0.13393457 -0.12500823 -0.028800448 0.0072255693
-0.11281333 0.08507707 -0.14012776 -0.06556114 -0.07488123 0.11128634 -0.09512575 -0.133413
0.022423465 0.08790805 0.11177206 0.054757904 -0.108426414 0.003238114 0.030997358 0.042542957
-0.016644394 -0.10468084 0.018056642 0.13445066 -0.13466431 -0.114301525 0.115803756 -0.039286368
0.084371395 0.015578318 -0.010428304 0.1420549 -0.10227582 0.025989024 -0.104584165 0.0035278238
-0.0064209206 0.012326071 0.090270035 -0.072665684 0.041062027 0.14920184 0.11878321 0.13889241
0.094001465 0.14095962 0.11933713 -0.115105994 0.13979198 0.022472056 0.14011393 -0.11198121
0.04184068 -0.025560608 0.023002723 -0.027769845 -0.13736552 0.1239059 -0.0017529655 0.0234839
00000000: 240d 19bc 1539 3a3d da65 c0bd 26c0 833d
00000010: dc3d 3db8 96cf a0bd d03e e9bd abdb 44bd
00000020: 7953 d43d 34b2 11bd 356c b7bd 539c c33d
00000030: 3178 d73d 196b d8bd f20e dabd ccca 74bd
00000040: a650 21bb 41c4 9d3d 1e1c 10be 2b73 34bd
00000050: 123e 4d3d 650b 37bd 0486 e7bd 183c 4a3d
00000060: de25 0fbd 88ca c1bc 7e61 ff3d 3937 b03d
00000070: c0de 493d 3490 c4bc 869d 463d f9b7 b03d
00000080: 00fc 063e 94eb 8bbd b661 223c e49b 033e
00000090: ad5a f4bd 7d91 2dbd 20e0 09bc 2d9f f53d
000000a0: aafd 16be 2d2c b13d 406d 083e 8894 0ebe
000000b0: a792 30bd 613f a1bc da7a 86bd ed2e 5f3d
000000c0: 671b e43d 98b6 e93d 91ea 9bbd d546 063e
000000d0: 4cef c23c a483 ca3d dea6 81bd d88a 1abd
000000e0: a107 913d 8c6a d9bd 8759 f73d 791d a13d
000000f0: 58b8 c13d 4f23 45bd 6e4b d53d f8be d6bd
00000100: 4cb3 03be 8a01 b83c d521 9cbc 70e3 9abd
00000110: 59e2 c9bd 11b2 ec3d 8f93 06be 431d 9a3b
00000120: d3b8 a5bd 72d1 96bd bfb8 e03d baaf bf3c
00000130: aeaf bcbc ae5e e03d 4c64 8cbc e312 0b3e
00000140: ed37 a8bd ce3c 2fbd 52f3 a6bd 6fe6 efbc
00000150: cdb2 01be 1c47 a63d 4530 ae3d cdc1 8f3c
00000160: b3f7 88bd a1e6 97bd c367 d2bd 6764 dabd
00000170: 414f 803c 406e e63d 76d8 3b3d 2663 053e
00000180: 1f8c d13c a7a3 80bd c7d9 14bd 8abc 3f3d
00000190: 07c2 043e d8dd 9cbd ae48 9f3d 5597 05be
000001a0: 75fc cb3d 2adb 843d 25d2 d9bd 7197 933d
000001b0: cd61 803d 368f 983d fa76 d6bd 1aab 6f3d
000001c0: ea06 a73d 7869 003e 8124 f4bc 01aa 72bd
000001d0: f3a4 dc3d 05c2 babd 3295 cebd 814f 063e
000001e0: 4dce 8dbd 3e19 7a3c e252 39bd 5bc5 78bb
000001f0: c4ff f63c da02 b7bd f53e f6bd 1985 c03d
00000200: 88d6 8abd b392 b5bd 52a0 0f3e b767 f9bd
00000210: 0587 8dbd 9e94 95bc a36f 74bc 3db3 c5bd
00000220: 2e6e 24bc 00c1 ec3d 89bf 55bd 04eb 9bbd
00000230: e598 b0bd 8694 163c 950c 183d 2231 e4bd
00000240: 75ca 0e3e a58f cd3c 912e 04bc e136 c83d
00000250: ae6e 38bd f25e 7ebd 51ae ed3d 5112 ae3c
00000260: 906d 933d a280 843d 3bdc c7bd 229d b2bd
00000270: 2123 26bd 9f32 b63d 305e d53d 632c 463d
00000280: 3a1a a2bd 23d8 02be f5e1 493b cd68 91bd
00000290: 5c0e 8fba a3dc 71bd 9fb0 18bc e9be 17bd
000002a0: 243b abbc 6356 af3c 8c98 8ebc 8dfb 0ebe
000002b0: a9a5 c13c be39 f53d a4ab 97bd 7690 9d3d
000002c0: 6ecf 4d3c 863f 053e 80e6 72bd 32c3 5a3d
000002d0: 3747 ba3d 369c cdbd 85f2 bf3d 2d7c 05be
000002e0: fd2f 083e 258f 903d ab0c d03d fd4c 8cbd
000002f0: 2cd0 02be 6349 c73d 2108 86bb 7cb3 ed3d
00000300: 7cc2 cb3d 6b47 fb3d a45c 9d3d c936 88bd
00000310: 2526 093e 2802 00be ebee ebbc 78c4 ec3b
00000320: ad0a e7bd e33c ae3d a77d 0fbe eb44 86bd
00000330: 555b 99bd 18ea e33d 4ad1 c2bd 6b9d 08be
00000340: 6ab1 b73c 2309 b43d c0e8 e43d d349 603d
00000350: ab0e debd 8a36 543b 2cee fd3c 8641 2e3d
00000360: d359 88bc e962 d6bd 86eb 933c 6fad 093e
00000370: 71e5 09be eb16 eabd 852a ed3d beea 20bd
00000380: e9ca ac3d 343c 7f3c 7adb 2abc d776 113e
00000390: fc75 d1bd efe6 d43c 3930 d6bd 1033 673b
000003a0: 9666 d2bb 4af3 493c 7fdf b83d bfd1 94bd
000003b0: a830 283d 5ec8 183e 9d44 f33d d039 0e3e
000003c0: d783 c03d b857 103e 0667 f43d b1bc ebbd
000003d0: a125 0f3e 5117 b83c 077a 0f3e 6856 e5bd
000003e0: 2261 2b3d 7b64 d1bc 3570 bc3c 967d e3bc
000003f0: 8ca9 0cbe 60c2 fd3d c3c3 e5ba 4f61 c03c

batchnorm1.weight f4 [16]
0.99629515 0.9949543 1.0138569 1.000635 0.9975256 1.0014082 0.9959608 0.9970127
1.0140843 1.0073149 1.0096247 0.9928611 0.99621844 1.0011997 0.99074906 0.9813282
00000000: 330d 7f3f 53b5 7e3f 10c6 813f cf14 803f
00000010: d65d 7f3f 252e 803f 49f7 7e3f 393c 7f3f
00000020: 84cd 813f b2ef 803f 623b 813f 252c 7e3f
00000030: 2c08 7f3f 5027 803f bba1 7d3f 5338 7b3f

batchnorm1.bias f4 [16]
-0.00064529455 0.0008429467 0.00025979942 -0.0008547289 -0.00029364767 -9.492215e-05 4.3760163e-05 -0.0013887468
-0.0004963896 0.0008077897 -0.0005724278 -0.0007724557 0.00085260137 -0.00031909603 -0.0017258207 0.0009935714
00000000: fc28 29ba 32f9 5c3a b035 8839 e30f 60ba
00000010: b9f4 99b9 f110 c7b8 1e8b 3738 9c06 b6ba
00000020: 2420 02ba d9c1 533a fb0e 16ba a07e 4aba
00000030: 1c81 5f3a 584c a7b9 ef34 e2ba b93a 823a

batchnorm1.running_mean f4 [16]
-0.0049534407 0.0018793024 0.0011158045 -0.0047546504 -0.02520001 -0.0024474978 0.01960666 -0.00385366
-0.015984222 -0.016769484 0.0043128603 0.012829544 -0.0003122341 -0.034730177 -0.0066627017 0.0011798675
00000000: 7950 a2bb ed52 f63a 3040 923a e6cc 9bbb
00000010: 4070 cebc 3366 20bb 259e a03c b08d 7cbb
00000020: 58f1 82bc 2860 89bc e552 8d3b 0233 523c
00000030: 5ab3 a3b9 3b41 0ebd cb52 dabb c9a5 9a3a

batchnorm1.running_var f4 [16]
3.0116475 2.5037584 3.7280118 4.7525353 11.288373 4.613876 5.8772063 3.2768462
3.7449625 8.438494 1.2289817 4.014541 2.065756 13.210575 4.1281323 1.8616468
00000000: d5be 4040 943d 2040 bf97 6e40 c514 9840
00000010: 2d9d 3441 dfa4 9340 1312 bc40 d9b7 5140
00000020: 77ad 6f40 1204 0741 464f 9d3f 1f77 8040
00000030: 5935 0440 845e 5341 a919 8440 714a ee3f

conv2.weight f4 [32, 1, 2, 1]
0.68659747 -0.47462666 0.29965335 -0.15179351 0.5029251 0.21627578 0.62310666 0.15792392
0.65579927 -0.36523122 -0.526835 0.511698 -0.52707934 0.027650962 0.41287133 -0.5171451
-0.13765885 -0.25841576 0.007862237 0.12155451 0.2504606 0.26044843 -0.3347339 0.15538228
0.045984466 0.45509422 -0.13819295 -0.27137378 0.38464466 0.24655575 0.4882299 -0.20543271
-0.4401869 0.3827562 0.524886 -0.28715345 0.16718256 -0.6431572 0.65406865 -0.38993075
0.66138375 -0.4214641 0.11508599 0.012574237 -0.6721198 -0.53512514 -0.37090033 0.20294912
-0.25478384 -0.25056025 0.1988309 0.1338127 0.23577264 0.26782143 -0.6375327 -0.58522314
0.13801026 0.57297647 0.27197796 0.17934434 -0.29359668 -0.644443 -0.64964664 -0.022623776
00000000: dac4 2f3f 4402 f3be 2a6c 993e c26f 1bbe
00000010: b3bf 003f 6677 5d3e eb83 1f3f cfb6 213e
00000020: 76e2 273f 96ff babe a9de 06bf a4fe 023f
00000030: acee 06bf 4584 e23c df63 d33e 9f63 04bf
00000040: 71f6 0cbe 124f 84be 9dd0 003c 92f1 f83d
00000050: 5f3c 803e 7f59 853e 3e62 abbe 881c 1f3e
00000060: 355a 3c3d 1c02 e93e 7482 0dbe 81f1 8abe
00000070: 25f0 c43e 1c79 7c3e 45f9 f93e f45c 52be
00000080: 2d60 e1be 9ff8 c33e ee5e 063f c705 93be
00000090: e831 2b3e f3a5 24bf 0b71 273f 01a5 c7be
000000a0: 7250 293f 24ca d7be 34b2 eb3d 2c04 4e3c
000000b0: 0b10 2cbf f6fd 08bf a6e6 bdbe e5d1 4f3e
000000c0: 0773 82be 6f49 80be 549a 4b3e 3206 093e
000000d0: 626e 713e e41f 893e 5835 23bf 2fd1 15bf
000000e0: 9052 0d3e 96ae 123f b240 8b3e 0ba6 373e
000000f0: 4e52 96be 37fa 24bf 3e4f 26bf 7f55 b9bc

batchnorm2.weight f4 [32]
0.9906933 0.9978391 0.99559885 0.99551505 1.0035609 1.0162439 1.0003378 0.9994708
0.99737734 0.99769187 1.0116237 0.99867195 0.999221 0.9955901 0.99358964 1.0009289
1.0170544 0.9988555 1.0096158 1.0020372 1.0135715 1.008481 0.9944948 0.9937771
0.989801 1.0013897 1.0019698 0.9966343 0.9985272 0.990746 1.0001236 0.9750368
00000000: 139e 7d3f 6272 7f3f 91df 7e3f 13da 7e3f
00000010: af74 803f 4814 823f 120b 803f 51dd 7f3f
00000020: 1f54 7f3f bc68 7f3f e37c 813f f7a8 7f3f
00000030: f3cc 7f3f fede 7e3f e45b 7e3f 701e 803f
00000040: d72e 823f feb4 7f3f 173b 813f c142 803f
00000050: b6bc 813f e815 813f 3697 7e3f 2d68 7e3f
00000060: 9963 7d3f 8a2d 803f 8c40 803f 6d23 7f3f
00000070: 7b9f 7f3f 88a1 7d3f 0d04 803f 039c 793f

batchnorm2.bias f4 [32]
-0.006087592 -0.01024335 -0.022442697 -0.021020774 -0.028206807 -0.018516831 -0.019205375 -0.024210531
0.00045919474 -0.0054076593 -0.015950933 -0.021658026 -0.01305713 0.0007545224 -0.030474242 -0.030212998
0.0034668585 -0.01239599 -0.0028633578 -0.014879822 -0.01705777 -0.013651845 -0.010060491 -0.011002929
-0.027809208 -0.031468622 -0.01346684 -0.02182864 -0.02607554 -0.019789051 -0.039646327 -0.032569766
00000000: 6c7a c7bb b9d3 27bc bfd9 b7bc c233 acbc
00000010: f611 e7bc 9cb0 97bc 9754 9dbc 2a55 c6bc
00000020: 13c0 f039 bc32 b1bb 88ab 82bc 2c6c b1bc
00000030: 93ed 55bc 24cb 453a 1ea5 f9bc 4081 f7bc
00000040: 3c34 633b 8d18 4bbc 2ca7 3bbb 7fca 73bc
00000050: bdbc 8bbc fdab 5fbc c2d4 24bc a145 34bc
00000060: 23d0 e3bc 3ee5 00bd 05a4 5cbc fad1 b2bc
00000070: 5f9c d5bc a61c a2bc 3064 22bd e067 05bd

batchnorm2.running_mean f4 [32]
-0.00063768815 -0.0002798245 0.0007643167 0.00097425934 0.00045174177 -0.000289672 0.00057592767 0.00061435776
0.002317238 -0.0010710756 -0.00039729965 -0.0002392996 0.0026624715 -0.0015731613 -0.0008917504 -0.000631536
-0.0031628797 0.002219173 0.0066587003 0.004666367 -0.0008449054 1.4869658e-05 -0.0033220956 0.0020676053
-5.461631e-06 5.8436086e-05 -0.0028726647 0.006309183 -0.00028114827 -0.00051142595 -0.0002970853 -0.001183415
00000000: 872a 27ba 69b5 92b9 6d5c 483a 7065 7f3a
00000010: c1d7 ec39 1edf 97b9 daf9 163a da0c 213a
00000020: cddc 173b 5563 8cba a84c d0b9 7fec 7ab9
00000030: dc7c 2e3b 8932 ceba 5bc4 69ba aa8d 25ba
00000040: 5148 4fbb 8b6f 113b 3a31 da3b 53e8 983b
00000050: a47c 5dba b278 7937 84b7 59bb a980 073b
00000060: 0e43 b7b6 4519 7538 5143 3cbb 43bd ce3b
00000070: 1567 93b9 3711 06ba 1dc2 9bb9 d11c 9bba

batchnorm2.running_var f4 [32]
0.28609735 0.05637367 0.44120657 0.54223686 0.285682 0.21225725 0.27488783 0.1725393
0.14409228 0.017082023 0.21879469 0.073713854 0.24766971 0.15006785 0.32730502 0.15059197
0.11725034 0.16771597 0.31251413 0.24737078 0.2753154 0.015117029 1.2776831 0.084513985
0.2027741 0.087455004 0.23801233 1.4062085 0.46713856 0.17865063 0.73592037 0.42937857
00000000: 5a7b 923e 14e8 663d d4e5 e13e 09d0 0a3f
00000010: e944 923e f759 593e 19be 8c3e 24ae 303e
00000020: ed8c 133e 99ef 8b3c b70b 603e 4af7 963d
00000030: 219d 7d3e 63ab 193e 8694 a73e c834 1a3e
00000040: f220 f03d bcbd 2b3e da01 a03e c44e 7d3e
00000050: 24f6 8c3e 6aad 773c 1f8b a33f ab15 ad3d
00000060: 03a4 4f3e 9c1b b33d 81b9 733e a4fe b33f
00000070: c92c ef3e 31f0 363e 4765 3c3f 82d7 db3e

conv3.weight f4 [32, 32, 1, 15]
-0.004182832 -0.027791725 -0.038339432 0.009592674 0.0356511 -0.008298307 -0.005841386 -0.030981628
0.030147834 0.012443903 0.016638348 -0.039013 -0.0021832862 0.014660806 0.01336679 -0.009120056
-0.0044267843 0.017734522 0.015842205 0.031842332 0.03099902 -0.010912281 0.018536936 -0.01234241
0.007855553 0.02885652 -0.02961245 -0.010185076 0.00538184 -0.010380753 0.004484796 0.024276
-0.02281016 -0.015349651 -0.019071737 0.035634123 0.0142807765 0.032086287 0.058867596 -0.0008055689
0.035779018 -0.018021306 -0.02400503 -0.011377265 0.039178893 0.0053576636 -0.022049874 -0.024063403
0.03728052 0.0023081151 0.029997708 0.010824955 0.014020021 0.041397523 0.03200672 0.04339728
-0.025716435 0.013003022 -0.018606104 -0.005763952 0.024031026 0.025053719 -0.010754772 0.01742737
-0.032744993 0.013286045 0.01011867 0.026518328 0.026473058 -0.00952333 -0.02184562 0.0245524
0.018228915 -0.018569002 0.045418546 0.0045774197 0.016631117 -0.029042754 -0.037554722 0.038997903
-0.003243995 -0.03178888 0.019911025 0.02977191 0.025935806 0.044674728 -0.0333077 -0.022002123
-0.040278286 -0.04645506 0.022317046 -0.03887729 0.0013313233 -0.019547457 -0.038953796 -0.03208703
0.052207325 0.052819323 0.043385845 0.036572766 0.042416103 0.04746081 0.004616216 0.017391799
0.018134736 0.022917701 -0.030672966 -0.008049497 0.032863 0.037704755 -0.01805473 0.007119031
-0.022526687 0.04454305 0.001987502 -0.032949056 0.032797743 0.010065726 -0.045642234 0.025615431
0.028596202 0.0139642125 -0.04784814 0.026188508 0.018282697 0.0051106224 0.04052207 0.008281579
0.004899616 -0.017389702 0.011290569 0.013535256 0.032158088 -0.018561723 0.04031232 0.0016748009
0.030958438 0.030233078 -0.029609825 -0.019933991 -0.017448325 -0.046738204 -0.012138081 0.011672921
0.057437725 0.026330236 -0.021145774 0.022037486 0.0053470214 -0.04337056 8.540845e-05 0.030685281
0.013858198 -0.045263417 -0.015268068 0.02582192 0.01754399 0.06956581 0.0014677171 0.045668326
-0.017135888 0.033736773 -0.0017560275 0.00048027575 0.0025061937 0.019781118 -0.0013186176 -0.023425994
0.033312317 0.01271622 -0.009304382 0.02462042 -0.031881787 0.031779863 -0.005069215 -0.031538945
-0.028963577 -0.02222838 0.0015938858 -0.008461541 -0.015175815 -0.001078324 0.029870281 -0.009963217
0.008938804 -0.01869694 -0.0015939777 0.004311692 0.027093424 -0.033564508 0.031898834 0.006735658
0.0212428 0.020448009 0.024267718 0.02931312 0.040328648 0.026719457 -0.025833178 0.028551243
0.03974366 -0.025800679 0.019990865 0.046087377 0.054819234 -0.036321033 -0.012384128 -0.033434905
0.01262521 -0.05025086 0.001690241 0.032518107 0.0408391 0.030535754 0.012660005 -0.030510932
0.045786317 0.022558391 0.0107311895 0.019344412 0.043353427 0.014779032 -0.017467283 -0.005064343
0.029972395 0.0124405315 -0.02280071 -0.00848215 -0.012361469 -0.04386547 -0.03134389 0.03163431
-0.0014641585 -0.035795413 0.020929925 -0.023474969 -0.019616596 -0.00085161615 0.043749675 -0.037227474
0.014067218 0.008649167 0.022504868 0.037004635 0.010834266 0.015516475 0.016929312 -0.00046530718
-0.0060226587 0.05933666 0.00018119498 0.008484392 0.05328076 0.028990656 0.006522743 -0.0033258598
00000000: 2310 89bb 79ab e3bc cf09 1dbd 972a 1d3c
00000010: e306 123d 9ff5 07bc 1969 bfbb 2fcd fdbc
00000020: 97f8 f63c 83e1 4b3c 254d 883c 18cc 1fbd
00000030: 7715 0fbb e133 703c 6100 5b3c 4a6c 15bc
00000040: 8f0e 91bb fd47 913c 83c7 813c 1b6d 023d
00000050: a8f1 fd3c 6dc9 32bc c6da 973c d237 4abc
00000060: 94b4 003c 8264 ec3c cf95 f2bc 4edf 26bc
00000070: 255a b03b 0914 2abc 32f5 923b 76de c63c
00000080: 5fdc babc 1a7d 7bbc 553c 9cbc 16f5 113d
00000090: ebf9 693c e96c 033d 261f 713d d02c 53ba
000000a0: 058d 123d 6ba1 93bc 32a6 c4bc b567 3abc
000000b0: 0c7a 203d 578f af3b f0a1 b4bc 9d20 c5bc
000000c0: 75b3 183d bf43 173b c1bd f53c 275b 313c
000000d0: 3bb4 653c 7390 293d 7a19 033d 59c1 313d
000000e0: 46ab d2bc a10a 553c d46b 98bc 89df bcbb
000000f0: b7dc c43c 753d cd3c c934 30bc d8c3 8e3c
00000100: 9d1f 06bd b6ad 593c c7c8 253c f73c d93c
00000110: 07de d83c be07 1cbc 96f5 b2bc 1d22 c93c
00000120: ce54 953c 051e 98bc cc08 3a3d 2efe 953b
00000130: fb3d 883c 12eb edbc fbd2 19bd 44bc 1f3d
00000140: 3499 54bb 0e35 02bd 721c a33c 38e4 f33c
00000150: 5477 d43c d9fc 363d a86d 08bd cc3d b4bc
00000160: d8fa 24bd a947 3ebd 3dd2 b63c cb3d 1fbd
00000170: cc7f ae3a fd21 a0bc 048e 1fbd b16d 03bd
00000180: 59d7 553d 1359 583d 5bb5 313d 53cd 153d
00000190: 82bc 2d3d 4466 423d a043 973b 3f79 8e3c
000001a0: 4c8f 943c e7bd bb3c df45 fbbc 0ae2 03bc
000001b0: 5a9b 063d 4d70 1a3d 83e7 93bc c346 e93b
000001c0: e389 b8bc c672 363d c040 023b 97f5 06bd
000001d0: ed56 063d b7ea 243c 5af3 3abd 74d7 d13c
000001e0: 9542 ea3c 27ca 643c 69fc 43bd 4889 d63c
000001f0: 98c5 953c 0277 a73b 78fa 253d 76af 073c
00000200: f58c a03b d974 8ebc 14fc 383c fac2 5d3c
00000210: 33b8 033d c10e 98bc 881e 253d fe84 db3a
00000220: 8d9c fd3c 5cab f73c 4e90 f2bc 9c4c a3bc
00000230: caef 8ebc 8f70 3fbd cdde 46bc c73f 3f3c
00000240: d243 6b3d 82b2 d73c e739 adbc f587 b43c
00000250: 1136 af3b 54a5 31bd 501d b338 b35f fb3c
00000260: 7f0d 633c 2266 39bd eb26 7abc 7e88 d33c
00000270: 6ab8 8f3c 8578 8e3d 6a60 c03a b60e 3b3d
00000280: 9060 8cbc 922f 0a3d 812a e6ba 85cd fb39
00000290: f43e 243b 030c a23c 77d5 acba dfe7 bfbc
000002a0: 7f72 083d b157 503c 6871 18bc c3b0 c93c
000002b0: 7a96 02bd 9a2b 023d a81b a6bb fb2e 01bd
000002c0: 0645 edbc 4b18 b6bc efe9 d03a 46a2 0abc
000002d0: fba3 78bc 8d56 8dba 85b2 f43c c33c 23bc
000002e0: 1074 123c 532a 99bc 04ed d0ba 1849 8d3b
000002f0: 07f3 dd3c f07a 09bd 5aa8 023d cbb6 dc3b
00000300: 6105 ae3c 9582 a73c 18cd c63c 1122 f03c
00000310: a72f 253d c3e2 da3c 1aa0 d3bc 4ce4 e93c
00000320: 3fca 223d f25b d3bc e2c3 a33c 1ec6 3c3d
00000330: 228a 603d 5dc5 14bd cce6 4abc 0af3 08bd
00000340: f8d9 4e3c d9d3 4dbd 148b dd3a b531 053d
00000350: e646 273d 1e26 fa3c e96b 4f3c 10f2 f9bc
00000360: 6f8a 3b3d 60cc b83c dfd1 2f3c 2c78 9e3c
00000370: 5d93 313d c123 723c 8c17 8fbc caf2 a5bb
00000380: ab88 f53c 5fd3 4b3c 8ec8 babc b7f8 0abc
00000390: c287 4abc 47ac 33bd 7362 00bd fa92 013d
000003a0: 02e9 bfba 369e 12bd 3c75 ab3c 944e c0bc
000003b0: fcb2 a0bc fe3e 5fba dc32 333d d67b 18bd
000003c0: 307a 663c 3cb5 0d3c 215c b83c 2c92 173d
000003d0: 3582 313c d038 7e3c 57af 8a3c 79f4 f3b9
000003e0: b959 c5bb ff0a 733d 28ff 3d39 1f02 0b3c
000003f0: ed3c 5a3d d07d ed3c bcbc d53b abf6 59bb

batchnorm3.weight f4 [32]
1.0324987 1.0567386 1.0406728 1.0271864 1.0460815 1.0246403 1.0258471 1.0282949
1.0160601 1.0101689 1.0313474 1.04244 1.0309643 1.0196332 1.0184398 1.0393513
1.0281528 1.021639 1.038626 1.0232791 1.0216111 1.0392065 1.0279665 1.0291069
1.0210518 1.0391575 1.0317075 1.0143778 1.0348748 1.0503573 1.0372773 1.023435
00000000: eb28 843f 3643 873f c434 853f d87a 833f
00000010: 00e6 853f 6a27 833f f54e 833f 2b9f 833f
00000020: 420e 823f 374d 813f 3103 843f ad6e 853f
00000030: a3f6 833f 5783 823f 3c5c 823f 7709 853f
00000040: 839a 833f 11c5 823f b2f1 843f cffa 823f
00000050: 27c4 823f b804 853f 6894 833f c6b9 833f
00000060: d3b1 823f 1d03 853f fe0e 843f 22d7 813f
00000070: c776 843f 1c72 863f 81c5 843f ebff 823f

batchnorm3.bias f4 [32]
0.011079793 0.03475287 0.0053457026 0.010366542 0.024614556 0.006505607 0.013144326 0.012696369
0.010695386 0.0016690574 0.014162473 0.020042827 0.0108825555 0.008571764 0.011763591 0.019311998
0.01585653 0.00032714687 0.017704293 0.010342226 0.008853716 0.021937449 0.012194809 0.009921174
0.004948242 0.024576264 0.014036263 0.002720944 0.01874091 0.035664886 0.0016659899 0.008566436
00000000: 0588 353c 0759 0e3d 012b af3b 6ed8 293c
00000010: 77a4 c93c fd2c d53b 4d5b 573c 6e04 503c
00000020: b33b 2f3c 46c4 da3a b809 683c db30 a43c
00000030: bf4c 323c 9670 0c3c 14bc 403c 3234 9e3c
00000040: 8ee5 813c e984 ab39 9808 913c 7172 293c
00000050: 2d0f 113c 2ab6 b33c bccc 473c 6b8c 223c
00000060: dd24 a23b 2954 c93c 5bf8 653c dd51 323b
00000070: 8986 993c 5815 123d 585d da3a 3d5a 0c3c

batchnorm3.running_mean f4 [32]
0.7036081 0.58326745 0.3290331 0.2761473 0.9169754 -0.37297973 0.8850015 0.7267386
0.04044421 -0.23926775 0.25052795 -0.049605854 0.88184524 0.44503003 0.20730923 0.53907037
-0.08627822 0.27191734 0.94029874 0.18029146 -0.21832143 0.9507057 0.31582928 0.8756687
-0.5224315 -0.57765746 -0.15311415 0.058702253 0.22652642 0.9655939 0.44590777 0.85584146
00000000: a91f 343f 0451 153f 0777 a83e 2e63 8d3e
00000010: e6be 6a3f 33f7 bebe 758f 623f 8a0b 3a3f
00000020: d4a8 253d 9b02 75be 3345 803e 822f 4bbd
00000030: 9cc0 613f fada e33e df48 543e 8400 0a3f
00000040: a3b2 b0bd c038 8b3e 6bb7 703f 539e 383e
00000050: a78f 5fbe 7361 733f 60b4 a13e d32b 603f
00000060: 12be 05bf 5ce1 13bf f5c9 1cbe c671 703d
00000070: 8bf6 673e 2931 773f 064e e43e 6d18 5b3f

batchnorm3.running_var f4 [32]
0.24136385 0.21421222 0.25969768 0.15084463 0.26202482 0.21762955 0.2154327 0.19323605
0.19831063 0.16648626 0.37315816 0.17547292 0.24380311 0.21578558 0.1470728 0.20131369
0.1535914 0.16897447 0.23756908 0.16465008 0.24107666 0.21887882 0.19023009 0.28588212
0.22798416 0.29720005 0.20591563 0.19518311 0.21392351 0.23058186 0.25147414 0.25714624
00000000: 1628 773e 735a 5b3e 18f7 843e 0477 1a3e
00000010: 1e28 863e 48da 5e3e 649a 5c3e acdf 453e
00000020: f111 4b3e 607b 2a3e 960e bf3e 2caf 333e
00000030: 86a7 793e e5f6 5c3e 419a 163e 2d25 4e3e
00000040: 1047 1d3e a507 2d3e 4f45 733e 089a 283e
00000050: cddc 763e c521 603e adcb 423e 245f 923e
00000060: ae74 693e 9b2a 983e 8cdb 523e 15de 473e
00000070: c40e 5b3e a71d 6c3e 38c1 803e aca8 833e

fc1.weight f4 [2, 960]
-0.0047553647 0.02855089 -0.0012628096 0.0011971795 0.018810842 0.044694368 -0.026711477 -0.011088784
0.040847614 0.023443263 -0.016274245 -0.024662433 0.033431042 -0.014149474 -0.028697563 -0.018487116
-0.030063972 -0.0236565 -0.035306975 -0.03455386 -0.014980735 -0.0070280577 -0.035528067 -0.020873575
-0.02371395 -0.0418408 0.011318562 0.002050894 0.020578738 -0.027388928 -0.010212928 -0.018266113
0.05670244 -0.017281111 0.010452451 0.026370399 0.02017263 0.007776227 -0.014445498 -0.009701343
-0.005644006 0.02372848 0.015793163 0.03753758 0.014969481 -0.020527959 -0.004789161 0.033433497
-0.021152416 0.00576015 -0.029604608 0.03284354 -0.016979925 0.013770809 -0.046259664 -0.02311571
0.0271715 0.0033740138 -0.022135792 -0.020272199 0.0041171843 -0.024176953 0.009686621 0.03125795
0.031370126 -0.011365197 -0.040073123 0.027049994 0.006224167 -0.015424359 0.027996069 0.012626115
0.029557008 0.013073485 0.0228605 0.020267261 0.012616618 -0.004423541 -0.03406051 0.009723781
-0.012404211 0.012942336 0.001465263 -0.043755494 -0.00017079516 -0.011304067 -0.0052783745 -0.004673
0.016864808 -0.0017703614 -0.038316112 0.034120288 0.027052216 0.0014469016 0.024245156 -0.023364713
-0.01151566 0.022336543 0.039089445 0.026422506 -0.015730921 -0.022846462 -0.0048238407 0.0028041294
-0.00482485 -0.04578042 -0.00413288 0.023809826 0.02272156 -0.016503492 0.00658602 -0.016934568
-0.022514272 0.0025162788 0.038505595 0.021526827 -0.037047185 -0.022202518 0.022629937 0.01978357
-0.007562372 -0.005160579 -0.009216457 0.048883025 0.03200624 0.0361233 0.005892336 0.019564658
0.006912777 0.0030056897 -0.03213491 0.010448887 0.0324944 0.0195207 -0.019032855 -0.044634074
0.032546747 -0.020465443 -0.024242401 -0.013721214 -0.0045067035 -0.033379775 -0.03596262 -0.0322798
0.0056791585 -0.04208941 0.026113538 0.030384848 -0.024234688 -0.017500255 0.017293703 0.027224664
0.0119443275 0.037434015 0.014373122 -0.028820073 0.0008647548 -0.012458948 0.028882522 -0.033483014
-0.009991429 0.039767046 0.03543723 -0.0027557458 0.022983355 -0.018345032 -0.02919239 -0.0028469986
0.009940941 0.016991183 -0.00961524 -0.014658811 0.042041548 0.026621498 0.0068934257 -0.028708013
-0.009738962 0.0018879048 -0.006813526 0.0032396135 0.02311545 0.025766695 0.046420634 0.02037325
-0.028150037 -0.035931177 -0.0034962234 -0.02118921 -0.0064684534 -0.0142188985 0.016430682 -0.012520575
-0.023266941 0.02534124 0.0031569265 0.024081465 0.0034113012 -0.02546193 0.010680674 -0.0375553
-0.0018390696 -0.018992795 0.006880097 -0.03003164 -0.033562742 0.00839048 -0.029573927 -0.001574456
0.0042857383 -0.02785873 0.013532706 0.047287513 0.0030803783 -0.014737981 0.012495873 0.00079752115
0.020220526 0.049500633 0.044229236 -0.037139036 0.018739419 0.03323406 0.016424123 -0.010646746
-0.0031769772 -0.016726973 0.036504168 -0.015230426 -0.034246374 -0.024306908 0.01242301 0.008683503
0.0019053982 0.00042031208 -0.028097568 -0.0081609255 0.02776646 -0.016391287 0.0045822402 0.002799454
0.04000615 -0.017322801 0.020716833 0.0056822803 0.0058634053 0.01781493 0.027779594 -0.014801022
0.020650065 0.04874466 0.009837995 0.02421255 -0.018998187 0.01208308 0.009811627 0.003963943
00000000: e4d2 9bbb 8ee3 e93c dc84 a5ba aeea 9c3a
00000010: 3219 9a3c 7111 373d 07d2 dabc bbad 35bc
00000020: d44f 273d 160c c03c 9151 85bc df08 cabc
00000030: fdee 083d 32d3 67bc 2717 ebbc 4b72 97bc
00000040: b848 f6bc 47cb c1bc 0c9e 10bd 5988 0dbd
00000050: c271 75bc 9f4b e6bb e185 11bd 0fff aabc
00000060: c243 c2bc 4261 2bbd 7d71 393c 4b68 063b
00000070: be94 a83c bf5e e0bc 2054 27bc d1a2 95bc
00000080: d140 683d 1e91 8dbc c240 2b3c bc06 d83c
00000090: 1241 a53c b8cf fe3b cfac 6cbc 62f2 1ebc
000000a0: 5bf1 b8bb 3b62 c23c aa60 813c 01c1 193d
000000b0: 8e42 753c 402a a8bc 65ee 9cbb 90f1 083d
000000c0: d547 adbc a4bf bc3b 5d85 f2bc f386 063d
000000d0: 7c19 8bbc f69e 613c c67a 3dbd 285d bdbc
000000e0: c496 de3c 8f1e 5d3b 1f56 b5bc e211 a6bc
000000f0: 72e9 863b bf0e c6bc a2b4 1e3c 5608 003d
00000100: f67d 003d 1735 3abc b723 24bd f397 dd3c
00000110: 19f4 cb3b 73b6 7cbc 0358 e53c c4dd 4e3c
00000120: 8a21 f23c 2c32 563c f145 bb3c 8707 a63c
00000130: eeb5 4e3c 5af3 90bb 0983 0bbd 7e50 1f3c
00000140: 083b 4bbc 170c 543c 110e c03a f638 33bd
00000150: 7a17 33b9 b234 39bc 37f6 acbb f71f 99bb
00000160: 1128 8a3c 790b e8ba 5bf1 1cbd b7c1 0b3d
00000170: 9c9c dd3c f6a5 bd3a c79d c63c 5b67 bfbc
00000180: 2eac 3cbc 20fb b63c 411c 203d 0374 d83c
00000190: 22de 80bc 8128 bbbc 4f11 9ebb 7cc5 373b
000001a0: c619 9ebb 4084 3bbd 1c6d 87bb d30c c33c
000001b0: 9122 ba3c 5532 87bc 8acf d73b 5dba 8abc
000001c0: da6f b8bc 27e8 243b 0bb8 1d3d 0759 b03c
000001d0: cabe 17bd 0ee2 b5bc 6b62 b93c 2711 a23c
000001e0: c6cd f7bb 131a a9bb 9f00 17bc 9139 483d
000001f0: fa18 033d 07f6 133d 7f14 c13b 1046 a03c
00000200: 9484 e23b 1bfb 443b e59f 03bd cf31 2b3c
00000210: d918 053d e0e9 9f3c caea 9bbc 38d2 36bd
00000220: bd4f 053d 25a7 a7bc 0098 c6bc f1ce 60bc
00000230: f8ac 93bb 3bb9 08bd 8a4d 13bd d337 04bd
00000240: 3c18 ba3b f265 2cbd 0fec d53c a5e9 f83c
00000250: d387 c6bc b25c 8fbc 86ab 8d3c 4206 df3c
00000260: 24b2 433c 6954 193d 3e7d 6b3c 1318 ecbc
00000270: b6b0 623a 9e20 4cbc 0a9b ec3c 7c25 09bd
00000280: 17b3 23bc c5e2 223d a126 113d be99 34bb
00000290: 9747 bc3c 5248 96bc e124 efbc b694 3abb
000002a0: 54df 223c 1831 8b3c 3d89 1dbc 822b 70bc
000002b0: c233 2c3d 5415 da3c 3fe2 e13b 112d ebbc
000002c0: 2b90 1fbc 9373 f73a 0044 dfbb b24f 543b
000002d0: 9d5c bd3c ad14 d33c 9023 3e3d cde5 a63c
000002e0: e89a e6bc 922c 13bd e520 65bb fe94 adbc
000002f0: 52f5 d3bb 62f6 68bc a399 863c 1923 4dbc
00000300: 509a bebc 6f98 cf3c 70e4 4e3b 7e46 c53c
00000310: 2390 5f3b 8a95 d0bc fefd 2e3c 96d3 19bd
00000320: f00c f1ba c796 9bbc 7072 e13b ea04 f6bc
00000330: 1679 09bd 3978 093c 0545 f2bc fa5d ceba
00000340: 616f 8c3b fe37 e4bc 48b8 5d3c 8db0 413d
00000350: 2ce0 493b 9377 71bc 7dbb 4c3c bd10 513a
00000360: 84a5 a53c 2dc1 4a3d b729 353d 1a1f 18bd
00000370: 6983 993c 7020 083d e28b 863c b06f 2ebc
00000380: d534 50bb 0107 89bc 6585 153d 0989 79bc
00000390: ed45 0cbd 481f c7bc e189 4b3c 4045 0e3c
000003a0: 8ebe f93a 555d dc39 df2c e6bc 67b5 05bc
000003b0: 7d76 e33c 0547 86bc 9e26 963b 0b77 373b
000003c0: 7ddd 233d 8ce8 8dbc 59b6 a93c 6c32 ba3b
000003d0: cf21 c03b 9ef0 913c 0892 e33c fc7f 72bc
000003e0: 532a a93c 7ba8 473d 8b2f 213c 6659 c63c
000003f0: 16a2 9bbc 1cf8 453c f2c0 203c f7e3 813b

fc1.bias f4 [2]
-0.02581435 -0.029407362
00000000: 9e78 d3bc b5e7 f0bc
